{"format": "graph-model", "generatedBy": "2.2.0", "convertedBy": "TensorFlow.js Converter v2.0.1.post1", "userDefinedMetadata": {"signature": {"inputs": {"right_hand_frames_input:0": {"name": "right_hand_frames_input:0", "dtype": "DT_FLOAT", "tensorShape": {"dim": [{"size": "-1"}, {"size": "16"}, {"size": "21"}, {"size": "2"}]}}, "left_hand_frames_input:0": {"name": "left_hand_frames_input:0", "dtype": "DT_FLOAT", "tensorShape": {"dim": [{"size": "-1"}, {"size": "16"}, {"size": "21"}, {"size": "2"}]}}, "pose_frames_input:0": {"name": "pose_frames_input:0", "dtype": "DT_FLOAT", "tensorShape": {"dim": [{"size": "-1"}, {"size": "16"}, {"size": "13"}, {"size": "2"}]}}, "face_frames_input:0": {"name": "face_frames_input:0", "dtype": "DT_FLOAT", "tensorShape": {"dim": [{"size": "-1"}, {"size": "16"}, {"size": "24"}, {"size": "2"}]}}}, "outputs": {"Identity:0": {"name": "Identity:0", "dtype": "DT_FLOAT", "tensorShape": {"dim": [{"size": "-1"}, {"size": "56"}]}}}}}, "modelTopology": {"node": [{"name": "face_frames_input", "op": "Placeholder", "attr": {"shape": {"shape": {"dim": [{"size": "-1"}, {"size": "16"}, {"size": "24"}, {"size": "2"}]}}, "dtype": {"type": "DT_FLOAT"}}}, {"name": "left_hand_frames_input", "op": "Placeholder", "attr": {"shape": {"shape": {"dim": [{"size": "-1"}, {"size": "16"}, {"size": "21"}, {"size": "2"}]}}, "dtype": {"type": "DT_FLOAT"}}}, {"name": "pose_frames_input", "op": "Placeholder", "attr": {"shape": {"shape": {"dim": [{"size": "-1"}, {"size": "16"}, {"size": "13"}, {"size": "2"}]}}, "dtype": {"type": "DT_FLOAT"}}}, {"name": "right_hand_frames_input", "op": "Placeholder", "attr": {"shape": {"shape": {"dim": [{"size": "-1"}, {"size": "16"}, {"size": "21"}, {"size": "2"}]}}, "dtype": {"type": "DT_FLOAT"}}}, {"name": "Func/StatefulPartitionedCall/input_control_node/_0", "op": "NoOp", "input": ["^face_frames_input", "^left_hand_frames_input", "^pose_frames_input", "^right_hand_frames_input"]}, {"name": "StatefulPartitionedCall/model_1/batch_normalization_21/batchnorm/mul", "op": "Const", "input": ["^Func/StatefulPartitionedCall/input_control_node/_0"], "attr": {"value": {"tensor": {"dtype": "DT_FLOAT", "tensorShape": {"dim": [{"size": "812"}]}}}, "dtype": {"type": "DT_FLOAT"}}}, {"name": "StatefulPartitionedCall/model_1/batch_normalization_20/batchnorm/mul", "op": "Const", "input": ["^Func/StatefulPartitionedCall/input_control_node/_0"], "attr": {"value": {"tensor": {"dtype": "DT_FLOAT", "tensorShape": {"dim": [{"size": "512"}]}}}, "dtype": {"type": "DT_FLOAT"}}}, {"name": "StatefulPartitionedCall/model_1/batch_normalization_19/batchnorm/mul", "op": "Const", "input": ["^Func/StatefulPartitionedCall/input_control_node/_0"], "attr": {"value": {"tensor": {"dtype": "DT_FLOAT", "tensorShape": {"dim": [{"size": "512"}]}}}, "dtype": {"type": "DT_FLOAT"}}}, {"name": "StatefulPartitionedCall/model_1/batch_normalization_18/batchnorm/mul", "op": "Const", "input": ["^Func/StatefulPartitionedCall/input_control_node/_0"], "attr": {"value": {"tensor": {"dtype": "DT_FLOAT", "tensorShape": {"dim": [{"size": "256"}]}}}, "dtype": {"type": "DT_FLOAT"}}}, {"name": "StatefulPartitionedCall/model_1/batch_normalization_17/batchnorm/mul", "op": "Const", "input": ["^Func/StatefulPartitionedCall/input_control_node/_0"], "attr": {"value": {"tensor": {"dtype": "DT_FLOAT", "tensorShape": {"dim": [{"size": "256"}]}}}, "dtype": {"type": "DT_FLOAT"}}}, {"name": "StatefulPartitionedCall/model_1/batch_normalization_16/batchnorm/mul", "op": "Const", "input": ["^Func/StatefulPartitionedCall/input_control_node/_0"], "attr": {"value": {"tensor": {"dtype": "DT_FLOAT", "tensorShape": {"dim": [{"size": "128"}]}}}, "dtype": {"type": "DT_FLOAT"}}}, {"name": "StatefulPartitionedCall/model_1/batch_normalization_15/batchnorm/mul", "op": "Const", "input": ["^Func/StatefulPartitionedCall/input_control_node/_0"], "attr": {"value": {"tensor": {"dtype": "DT_FLOAT", "tensorShape": {"dim": [{"size": "128"}]}}}, "dtype": {"type": "DT_FLOAT"}}}, {"name": "StatefulPartitionedCall/model_1/batch_normalization_2/batchnorm/mul", "op": "Const", "input": ["^Func/StatefulPartitionedCall/input_control_node/_0"], "attr": {"value": {"tensor": {"dtype": "DT_FLOAT", "tensorShape": {"dim": [{"size": "32"}]}}}, "dtype": {"type": "DT_FLOAT"}}}, {"name": "StatefulPartitionedCall/model_1/batch_normalization_1/batchnorm/mul", "op": "Const", "input": ["^Func/StatefulPartitionedCall/input_control_node/_0"], "attr": {"value": {"tensor": {"dtype": "DT_FLOAT", "tensorShape": {"dim": [{"size": "32"}]}}}, "dtype": {"type": "DT_FLOAT"}}}, {"name": "StatefulPartitionedCall/model_1/batch_normalization/batchnorm/mul", "op": "Const", "input": ["^Func/StatefulPartitionedCall/input_control_node/_0"], "attr": {"value": {"tensor": {"dtype": "DT_FLOAT", "tensorShape": {"dim": [{"size": "64"}]}}}, "dtype": {"type": "DT_FLOAT"}}}, {"name": "StatefulPartitionedCall/model_1/tf_op_layer_Reshape/Reshape/shape", "op": "Const", "input": ["^Func/StatefulPartitionedCall/input_control_node/_0"], "attr": {"value": {"tensor": {"dtype": "DT_INT32", "tensorShape": {"dim": [{"size": "3"}]}}}, "dtype": {"type": "DT_INT32"}}}, {"name": "StatefulPartitionedCall/model_1/conv1d/conv1d/ExpandDims_1", "op": "Const", "input": ["^Func/StatefulPartitionedCall/input_control_node/_0"], "attr": {"value": {"tensor": {"dtype": "DT_FLOAT", "tensorShape": {"dim": [{"size": "1"}, {"size": "1"}, {"size": "169"}, {"size": "64"}]}}}, "dtype": {"type": "DT_FLOAT"}}}, {"name": "StatefulPartitionedCall/model_1/batch_normalization/batchnorm/sub", "op": "Const", "input": ["^Func/StatefulPartitionedCall/input_control_node/_0"], "attr": {"value": {"tensor": {"dtype": "DT_FLOAT", "tensorShape": {"dim": [{"size": "64"}]}}}, "dtype": {"type": "DT_FLOAT"}}}, {"name": "StatefulPartitionedCall/model_1/conv1d_1/conv1d/ExpandDims_1", "op": "Const", "input": ["^Func/StatefulPartitionedCall/input_control_node/_0"], "attr": {"value": {"tensor": {"dtype": "DT_FLOAT", "tensorShape": {"dim": [{"size": "1"}, {"size": "3"}, {"size": "64"}, {"size": "32"}]}}}, "dtype": {"type": "DT_FLOAT"}}}, {"name": "StatefulPartitionedCall/model_1/batch_normalization_1/batchnorm/sub", "op": "Const", "input": ["^Func/StatefulPartitionedCall/input_control_node/_0"], "attr": {"value": {"tensor": {"dtype": "DT_FLOAT", "tensorShape": {"dim": [{"size": "32"}]}}}, "dtype": {"type": "DT_FLOAT"}}}, {"name": "StatefulPartitionedCall/model_1/conv1d_2/conv1d/ExpandDims_1", "op": "Const", "input": ["^Func/StatefulPartitionedCall/input_control_node/_0"], "attr": {"value": {"tensor": {"dtype": "DT_FLOAT", "tensorShape": {"dim": [{"size": "1"}, {"size": "1"}, {"size": "32"}, {"size": "32"}]}}}, "dtype": {"type": "DT_FLOAT"}}}, {"name": "StatefulPartitionedCall/model_1/batch_normalization_2/batchnorm/sub", "op": "Const", "input": ["^Func/StatefulPartitionedCall/input_control_node/_0"], "attr": {"value": {"tensor": {"dtype": "DT_FLOAT", "tensorShape": {"dim": [{"size": "32"}]}}}, "dtype": {"type": "DT_FLOAT"}}}, {"name": "StatefulPartitionedCall/model_1/batch_normalization_5/batchnorm/mul", "op": "Const", "input": ["^Func/StatefulPartitionedCall/input_control_node/_0"], "attr": {"value": {"tensor": {"dtype": "DT_FLOAT", "tensorShape": {"dim": [{"size": "64"}]}}}, "dtype": {"type": "DT_FLOAT"}}}, {"name": "StatefulPartitionedCall/model_1/batch_normalization_4/batchnorm/mul", "op": "Const", "input": ["^Func/StatefulPartitionedCall/input_control_node/_0"], "attr": {"value": {"tensor": {"dtype": "DT_FLOAT", "tensorShape": {"dim": [{"size": "64"}]}}}, "dtype": {"type": "DT_FLOAT"}}}, {"name": "StatefulPartitionedCall/model_1/batch_normalization_3/batchnorm/mul", "op": "Const", "input": ["^Func/StatefulPartitionedCall/input_control_node/_0"], "attr": {"value": {"tensor": {"dtype": "DT_FLOAT", "tensorShape": {"dim": [{"size": "128"}]}}}, "dtype": {"type": "DT_FLOAT"}}}, {"name": "StatefulPartitionedCall/model_1/tf_op_layer_Reshape_1/Reshape_1/shape", "op": "Const", "input": ["^Func/StatefulPartitionedCall/input_control_node/_0"], "attr": {"value": {"tensor": {"dtype": "DT_INT32", "tensorShape": {"dim": [{"size": "3"}]}}}, "dtype": {"type": "DT_INT32"}}}, {"name": "StatefulPartitionedCall/model_1/conv1d_3/conv1d/ExpandDims_1", "op": "Const", "input": ["^Func/StatefulPartitionedCall/input_control_node/_0"], "attr": {"value": {"tensor": {"dtype": "DT_FLOAT", "tensorShape": {"dim": [{"size": "1"}, {"size": "1"}, {"size": "84"}, {"size": "128"}]}}}, "dtype": {"type": "DT_FLOAT"}}}, {"name": "StatefulPartitionedCall/model_1/batch_normalization_3/batchnorm/sub", "op": "Const", "input": ["^Func/StatefulPartitionedCall/input_control_node/_0"], "attr": {"value": {"tensor": {"dtype": "DT_FLOAT", "tensorShape": {"dim": [{"size": "128"}]}}}, "dtype": {"type": "DT_FLOAT"}}}, {"name": "StatefulPartitionedCall/model_1/conv1d_4/conv1d/ExpandDims_1", "op": "Const", "input": ["^Func/StatefulPartitionedCall/input_control_node/_0"], "attr": {"value": {"tensor": {"dtype": "DT_FLOAT", "tensorShape": {"dim": [{"size": "1"}, {"size": "3"}, {"size": "128"}, {"size": "64"}]}}}, "dtype": {"type": "DT_FLOAT"}}}, {"name": "StatefulPartitionedCall/model_1/batch_normalization_4/batchnorm/sub", "op": "Const", "input": ["^Func/StatefulPartitionedCall/input_control_node/_0"], "attr": {"value": {"tensor": {"dtype": "DT_FLOAT", "tensorShape": {"dim": [{"size": "64"}]}}}, "dtype": {"type": "DT_FLOAT"}}}, {"name": "StatefulPartitionedCall/model_1/conv1d_5/conv1d/ExpandDims_1", "op": "Const", "input": ["^Func/StatefulPartitionedCall/input_control_node/_0"], "attr": {"value": {"tensor": {"dtype": "DT_FLOAT", "tensorShape": {"dim": [{"size": "1"}, {"size": "1"}, {"size": "64"}, {"size": "64"}]}}}, "dtype": {"type": "DT_FLOAT"}}}, {"name": "StatefulPartitionedCall/model_1/batch_normalization_5/batchnorm/sub", "op": "Const", "input": ["^Func/StatefulPartitionedCall/input_control_node/_0"], "attr": {"value": {"tensor": {"dtype": "DT_FLOAT", "tensorShape": {"dim": [{"size": "64"}]}}}, "dtype": {"type": "DT_FLOAT"}}}, {"name": "StatefulPartitionedCall/model_1/batch_normalization_8/batchnorm/mul", "op": "Const", "input": ["^Func/StatefulPartitionedCall/input_control_node/_0"], "attr": {"value": {"tensor": {"dtype": "DT_FLOAT", "tensorShape": {"dim": [{"size": "64"}]}}}, "dtype": {"type": "DT_FLOAT"}}}, {"name": "StatefulPartitionedCall/model_1/batch_normalization_7/batchnorm/mul", "op": "Const", "input": ["^Func/StatefulPartitionedCall/input_control_node/_0"], "attr": {"value": {"tensor": {"dtype": "DT_FLOAT", "tensorShape": {"dim": [{"size": "64"}]}}}, "dtype": {"type": "DT_FLOAT"}}}, {"name": "StatefulPartitionedCall/model_1/batch_normalization_6/batchnorm/mul", "op": "Const", "input": ["^Func/StatefulPartitionedCall/input_control_node/_0"], "attr": {"value": {"tensor": {"dtype": "DT_FLOAT", "tensorShape": {"dim": [{"size": "128"}]}}}, "dtype": {"type": "DT_FLOAT"}}}, {"name": "StatefulPartitionedCall/model_1/tf_op_layer_strided_slice_2/strided_slice_2/stack_1", "op": "Const", "input": ["^Func/StatefulPartitionedCall/input_control_node/_0"], "attr": {"value": {"tensor": {"dtype": "DT_INT32", "tensorShape": {"dim": [{"size": "4"}]}}}, "dtype": {"type": "DT_INT32"}}}, {"name": "StatefulPartitionedCall/model_1/tf_op_layer_strided_slice_3/strided_slice_3/stack_2", "op": "Const", "input": ["^Func/StatefulPartitionedCall/input_control_node/_0"], "attr": {"value": {"tensor": {"dtype": "DT_INT32", "tensorShape": {"dim": [{"size": "4"}]}}}, "dtype": {"type": "DT_INT32"}}}, {"name": "StatefulPartitionedCall/model_1/tf_op_layer_strided_slice_2/strided_slice_2/stack", "op": "Const", "input": ["^Func/StatefulPartitionedCall/input_control_node/_0"], "attr": {"value": {"tensor": {"dtype": "DT_INT32", "tensorShape": {"dim": [{"size": "4"}]}}}, "dtype": {"type": "DT_INT32"}}}, {"name": "StatefulPartitionedCall/model_1/tf_op_layer_strided_slice_1/strided_slice_1/stack_1", "op": "Const", "input": ["^Func/StatefulPartitionedCall/input_control_node/_0"], "attr": {"value": {"tensor": {"dtype": "DT_INT32", "tensorShape": {"dim": [{"size": "4"}]}}}, "dtype": {"type": "DT_INT32"}}}, {"name": "StatefulPartitionedCall/model_1/tf_op_layer_strided_slice_2/strided_slice_2/stack_2", "op": "Const", "input": ["^Func/StatefulPartitionedCall/input_control_node/_0"], "attr": {"value": {"tensor": {"dtype": "DT_INT32", "tensorShape": {"dim": [{"size": "4"}]}}}, "dtype": {"type": "DT_INT32"}}}, {"name": "StatefulPartitionedCall/model_1/tf_op_layer_Reshape_2/Reshape_2/shape", "op": "Const", "input": ["^Func/StatefulPartitionedCall/input_control_node/_0"], "attr": {"value": {"tensor": {"dtype": "DT_INT32", "tensorShape": {"dim": [{"size": "3"}]}}}, "dtype": {"type": "DT_INT32"}}}, {"name": "StatefulPartitionedCall/model_1/conv1d_6/conv1d/ExpandDims_1", "op": "Const", "input": ["^Func/StatefulPartitionedCall/input_control_node/_0"], "attr": {"value": {"tensor": {"dtype": "DT_FLOAT", "tensorShape": {"dim": [{"size": "1"}, {"size": "1"}, {"size": "84"}, {"size": "128"}]}}}, "dtype": {"type": "DT_FLOAT"}}}, {"name": "StatefulPartitionedCall/model_1/batch_normalization_6/batchnorm/sub", "op": "Const", "input": ["^Func/StatefulPartitionedCall/input_control_node/_0"], "attr": {"value": {"tensor": {"dtype": "DT_FLOAT", "tensorShape": {"dim": [{"size": "128"}]}}}, "dtype": {"type": "DT_FLOAT"}}}, {"name": "StatefulPartitionedCall/model_1/conv1d_7/conv1d/ExpandDims_1", "op": "Const", "input": ["^Func/StatefulPartitionedCall/input_control_node/_0"], "attr": {"value": {"tensor": {"dtype": "DT_FLOAT", "tensorShape": {"dim": [{"size": "1"}, {"size": "3"}, {"size": "128"}, {"size": "64"}]}}}, "dtype": {"type": "DT_FLOAT"}}}, {"name": "StatefulPartitionedCall/model_1/batch_normalization_7/batchnorm/sub", "op": "Const", "input": ["^Func/StatefulPartitionedCall/input_control_node/_0"], "attr": {"value": {"tensor": {"dtype": "DT_FLOAT", "tensorShape": {"dim": [{"size": "64"}]}}}, "dtype": {"type": "DT_FLOAT"}}}, {"name": "StatefulPartitionedCall/model_1/conv1d_8/conv1d/ExpandDims_1", "op": "Const", "input": ["^Func/StatefulPartitionedCall/input_control_node/_0"], "attr": {"value": {"tensor": {"dtype": "DT_FLOAT", "tensorShape": {"dim": [{"size": "1"}, {"size": "1"}, {"size": "64"}, {"size": "64"}]}}}, "dtype": {"type": "DT_FLOAT"}}}, {"name": "StatefulPartitionedCall/model_1/batch_normalization_8/batchnorm/sub", "op": "Const", "input": ["^Func/StatefulPartitionedCall/input_control_node/_0"], "attr": {"value": {"tensor": {"dtype": "DT_FLOAT", "tensorShape": {"dim": [{"size": "64"}]}}}, "dtype": {"type": "DT_FLOAT"}}}, {"name": "StatefulPartitionedCall/model_1/batch_normalization_11/batchnorm/mul", "op": "Const", "input": ["^Func/StatefulPartitionedCall/input_control_node/_0"], "attr": {"value": {"tensor": {"dtype": "DT_FLOAT", "tensorShape": {"dim": [{"size": "16"}]}}}, "dtype": {"type": "DT_FLOAT"}}}, {"name": "StatefulPartitionedCall/model_1/batch_normalization_10/batchnorm/mul", "op": "Const", "input": ["^Func/StatefulPartitionedCall/input_control_node/_0"], "attr": {"value": {"tensor": {"dtype": "DT_FLOAT", "tensorShape": {"dim": [{"size": "16"}]}}}, "dtype": {"type": "DT_FLOAT"}}}, {"name": "StatefulPartitionedCall/model_1/batch_normalization_9/batchnorm/mul", "op": "Const", "input": ["^Func/StatefulPartitionedCall/input_control_node/_0"], "attr": {"value": {"tensor": {"dtype": "DT_FLOAT", "tensorShape": {"dim": [{"size": "32"}]}}}, "dtype": {"type": "DT_FLOAT"}}}, {"name": "StatefulPartitionedCall/model_1/tf_op_layer_Reshape_3/Reshape_3/shape", "op": "Const", "input": ["^Func/StatefulPartitionedCall/input_control_node/_0"], "attr": {"value": {"tensor": {"dtype": "DT_INT32", "tensorShape": {"dim": [{"size": "3"}]}}}, "dtype": {"type": "DT_INT32"}}}, {"name": "StatefulPartitionedCall/model_1/conv1d_9/conv1d/ExpandDims_1", "op": "Const", "input": ["^Func/StatefulPartitionedCall/input_control_node/_0"], "attr": {"value": {"tensor": {"dtype": "DT_FLOAT", "tensorShape": {"dim": [{"size": "1"}, {"size": "1"}, {"size": "576"}, {"size": "32"}]}}}, "dtype": {"type": "DT_FLOAT"}}}, {"name": "StatefulPartitionedCall/model_1/batch_normalization_9/batchnorm/sub", "op": "Const", "input": ["^Func/StatefulPartitionedCall/input_control_node/_0"], "attr": {"value": {"tensor": {"dtype": "DT_FLOAT", "tensorShape": {"dim": [{"size": "32"}]}}}, "dtype": {"type": "DT_FLOAT"}}}, {"name": "StatefulPartitionedCall/model_1/conv1d_10/conv1d/ExpandDims_1", "op": "Const", "input": ["^Func/StatefulPartitionedCall/input_control_node/_0"], "attr": {"value": {"tensor": {"dtype": "DT_FLOAT", "tensorShape": {"dim": [{"size": "1"}, {"size": "3"}, {"size": "32"}, {"size": "16"}]}}}, "dtype": {"type": "DT_FLOAT"}}}, {"name": "StatefulPartitionedCall/model_1/batch_normalization_10/batchnorm/sub", "op": "Const", "input": ["^Func/StatefulPartitionedCall/input_control_node/_0"], "attr": {"value": {"tensor": {"dtype": "DT_FLOAT", "tensorShape": {"dim": [{"size": "16"}]}}}, "dtype": {"type": "DT_FLOAT"}}}, {"name": "StatefulPartitionedCall/model_1/conv1d_11/conv1d/ExpandDims_1", "op": "Const", "input": ["^Func/StatefulPartitionedCall/input_control_node/_0"], "attr": {"value": {"tensor": {"dtype": "DT_FLOAT", "tensorShape": {"dim": [{"size": "1"}, {"size": "1"}, {"size": "16"}, {"size": "16"}]}}}, "dtype": {"type": "DT_FLOAT"}}}, {"name": "StatefulPartitionedCall/model_1/batch_normalization_11/batchnorm/sub", "op": "Const", "input": ["^Func/StatefulPartitionedCall/input_control_node/_0"], "attr": {"value": {"tensor": {"dtype": "DT_FLOAT", "tensorShape": {"dim": [{"size": "16"}]}}}, "dtype": {"type": "DT_FLOAT"}}}, {"name": "Func/StatefulPartitionedCall/input/_3", "op": "Identity", "input": ["left_hand_frames_input", "^Func/StatefulPartitionedCall/input_control_node/_0"], "attr": {"T": {"type": "DT_FLOAT"}}}, {"name": "StatefulPartitionedCall/model_1/model/batch_normalization_14/batchnorm/sub", "op": "Const", "input": ["^Func/StatefulPartitionedCall/input_control_node/_0"], "attr": {"value": {"tensor": {"dtype": "DT_FLOAT", "tensorShape": {"dim": [{"size": "256"}]}}}, "dtype": {"type": "DT_FLOAT"}}}, {"name": "StatefulPartitionedCall/model_1/model/batch_normalization_14/batchnorm/mul", "op": "Const", "input": ["^Func/StatefulPartitionedCall/input_control_node/_0"], "attr": {"value": {"tensor": {"dtype": "DT_FLOAT", "tensorShape": {"dim": [{"size": "256"}]}}}, "dtype": {"type": "DT_FLOAT"}}}, {"name": "StatefulPartitionedCall/model_1/model/batch_normalization_13/batchnorm/sub", "op": "Const", "input": ["^Func/StatefulPartitionedCall/input_control_node/_0"], "attr": {"value": {"tensor": {"dtype": "DT_FLOAT", "tensorShape": {"dim": [{"size": "256"}]}}}, "dtype": {"type": "DT_FLOAT"}}}, {"name": "StatefulPartitionedCall/model_1/model/batch_normalization_13/batchnorm/mul", "op": "Const", "input": ["^Func/StatefulPartitionedCall/input_control_node/_0"], "attr": {"value": {"tensor": {"dtype": "DT_FLOAT", "tensorShape": {"dim": [{"size": "256"}]}}}, "dtype": {"type": "DT_FLOAT"}}}, {"name": "StatefulPartitionedCall/model_1/model/batch_normalization_12/batchnorm/sub", "op": "Const", "input": ["^Func/StatefulPartitionedCall/input_control_node/_0"], "attr": {"value": {"tensor": {"dtype": "DT_FLOAT", "tensorShape": {"dim": [{"size": "512"}]}}}, "dtype": {"type": "DT_FLOAT"}}}, {"name": "StatefulPartitionedCall/model_1/model/batch_normalization_12/batchnorm/mul", "op": "Const", "input": ["^Func/StatefulPartitionedCall/input_control_node/_0"], "attr": {"value": {"tensor": {"dtype": "DT_FLOAT", "tensorShape": {"dim": [{"size": "512"}]}}}, "dtype": {"type": "DT_FLOAT"}}}, {"name": "Func/StatefulPartitionedCall/input/_4", "op": "Identity", "input": ["right_hand_frames_input", "^Func/StatefulPartitionedCall/input_control_node/_0"], "attr": {"T": {"type": "DT_FLOAT"}}}, {"name": "StatefulPartitionedCall/model_1/tf_op_layer_ExpandDims_1/ExpandDims_1/dim", "op": "Const", "input": ["^Func/StatefulPartitionedCall/input_control_node/_0"], "attr": {"value": {"tensor": {"dtype": "DT_INT32", "tensorShape": {}}}, "dtype": {"type": "DT_INT32"}}}, {"name": "StatefulPartitionedCall/model_1/tf_op_layer_Sum/Sum/reduction_indices", "op": "Const", "input": ["^Func/StatefulPartitionedCall/input_control_node/_0"], "attr": {"value": {"tensor": {"dtype": "DT_INT32", "tensorShape": {}}}, "dtype": {"type": "DT_INT32"}}}, {"name": "StatefulPartitionedCall/model_1/tf_op_layer_Reshape_4/Reshape_4/shape", "op": "Const", "input": ["^Func/StatefulPartitionedCall/input_control_node/_0"], "attr": {"value": {"tensor": {"dtype": "DT_INT32", "tensorShape": {"dim": [{"size": "3"}]}}}, "dtype": {"type": "DT_INT32"}}}, {"name": "StatefulPartitionedCall/model_1/model/conv1d_12/conv1d/ExpandDims_1", "op": "Const", "input": ["^Func/StatefulPartitionedCall/input_control_node/_0"], "attr": {"value": {"tensor": {"dtype": "DT_FLOAT", "tensorShape": {"dim": [{"size": "1"}, {"size": "1"}, {"size": "441"}, {"size": "512"}]}}}, "dtype": {"type": "DT_FLOAT"}}}, {"name": "StatefulPartitionedCall/model_1/model/conv1d_13/conv1d/ExpandDims_1", "op": "Const", "input": ["^Func/StatefulPartitionedCall/input_control_node/_0"], "attr": {"value": {"tensor": {"dtype": "DT_FLOAT", "tensorShape": {"dim": [{"size": "1"}, {"size": "3"}, {"size": "512"}, {"size": "256"}]}}}, "dtype": {"type": "DT_FLOAT"}}}, {"name": "StatefulPartitionedCall/model_1/model/conv1d_14/conv1d/ExpandDims_1", "op": "Const", "input": ["^Func/StatefulPartitionedCall/input_control_node/_0"], "attr": {"value": {"tensor": {"dtype": "DT_FLOAT", "tensorShape": {"dim": [{"size": "1"}, {"size": "1"}, {"size": "256"}, {"size": "256"}]}}}, "dtype": {"type": "DT_FLOAT"}}}, {"name": "StatefulPartitionedCall/model_1/conv1d_15/conv1d/ExpandDims_1", "op": "Const", "input": ["^Func/StatefulPartitionedCall/input_control_node/_0"], "attr": {"value": {"tensor": {"dtype": "DT_FLOAT", "tensorShape": {"dim": [{"size": "1"}, {"size": "3"}, {"size": "688"}, {"size": "128"}]}}}, "dtype": {"type": "DT_FLOAT"}}}, {"name": "StatefulPartitionedCall/model_1/batch_normalization_15/batchnorm/sub", "op": "Const", "input": ["^Func/StatefulPartitionedCall/input_control_node/_0"], "attr": {"value": {"tensor": {"dtype": "DT_FLOAT", "tensorShape": {"dim": [{"size": "128"}]}}}, "dtype": {"type": "DT_FLOAT"}}}, {"name": "StatefulPartitionedCall/model_1/conv1d_16/conv1d/ExpandDims_1", "op": "Const", "input": ["^Func/StatefulPartitionedCall/input_control_node/_0"], "attr": {"value": {"tensor": {"dtype": "DT_FLOAT", "tensorShape": {"dim": [{"size": "1"}, {"size": "3"}, {"size": "128"}, {"size": "128"}]}}}, "dtype": {"type": "DT_FLOAT"}}}, {"name": "StatefulPartitionedCall/model_1/batch_normalization_16/batchnorm/sub", "op": "Const", "input": ["^Func/StatefulPartitionedCall/input_control_node/_0"], "attr": {"value": {"tensor": {"dtype": "DT_FLOAT", "tensorShape": {"dim": [{"size": "128"}]}}}, "dtype": {"type": "DT_FLOAT"}}}, {"name": "StatefulPartitionedCall/model_1/conv1d_17/conv1d/ExpandDims_1", "op": "Const", "input": ["^Func/StatefulPartitionedCall/input_control_node/_0"], "attr": {"value": {"tensor": {"dtype": "DT_FLOAT", "tensorShape": {"dim": [{"size": "1"}, {"size": "3"}, {"size": "128"}, {"size": "256"}]}}}, "dtype": {"type": "DT_FLOAT"}}}, {"name": "StatefulPartitionedCall/model_1/batch_normalization_17/batchnorm/sub", "op": "Const", "input": ["^Func/StatefulPartitionedCall/input_control_node/_0"], "attr": {"value": {"tensor": {"dtype": "DT_FLOAT", "tensorShape": {"dim": [{"size": "256"}]}}}, "dtype": {"type": "DT_FLOAT"}}}, {"name": "StatefulPartitionedCall/model_1/conv1d_18/conv1d/ExpandDims_1", "op": "Const", "input": ["^Func/StatefulPartitionedCall/input_control_node/_0"], "attr": {"value": {"tensor": {"dtype": "DT_FLOAT", "tensorShape": {"dim": [{"size": "1"}, {"size": "3"}, {"size": "256"}, {"size": "256"}]}}}, "dtype": {"type": "DT_FLOAT"}}}, {"name": "StatefulPartitionedCall/model_1/batch_normalization_18/batchnorm/sub", "op": "Const", "input": ["^Func/StatefulPartitionedCall/input_control_node/_0"], "attr": {"value": {"tensor": {"dtype": "DT_FLOAT", "tensorShape": {"dim": [{"size": "256"}]}}}, "dtype": {"type": "DT_FLOAT"}}}, {"name": "StatefulPartitionedCall/model_1/tf_op_layer_ExpandDims/ExpandDims/dim", "op": "Const", "input": ["^Func/StatefulPartitionedCall/input_control_node/_0"], "attr": {"value": {"tensor": {"dtype": "DT_INT32", "tensorShape": {}}}, "dtype": {"type": "DT_INT32"}}}, {"name": "StatefulPartitionedCall/model_1/conv1d_19/conv1d/ExpandDims_1", "op": "Const", "input": ["^Func/StatefulPartitionedCall/input_control_node/_0"], "attr": {"value": {"tensor": {"dtype": "DT_FLOAT", "tensorShape": {"dim": [{"size": "1"}, {"size": "3"}, {"size": "256"}, {"size": "512"}]}}}, "dtype": {"type": "DT_FLOAT"}}}, {"name": "StatefulPartitionedCall/model_1/batch_normalization_19/batchnorm/sub", "op": "Const", "input": ["^Func/StatefulPartitionedCall/input_control_node/_0"], "attr": {"value": {"tensor": {"dtype": "DT_FLOAT", "tensorShape": {"dim": [{"size": "512"}]}}}, "dtype": {"type": "DT_FLOAT"}}}, {"name": "StatefulPartitionedCall/model_1/conv1d_20/conv1d/ExpandDims_1", "op": "Const", "input": ["^Func/StatefulPartitionedCall/input_control_node/_0"], "attr": {"value": {"tensor": {"dtype": "DT_FLOAT", "tensorShape": {"dim": [{"size": "1"}, {"size": "3"}, {"size": "512"}, {"size": "512"}]}}}, "dtype": {"type": "DT_FLOAT"}}}, {"name": "StatefulPartitionedCall/model_1/batch_normalization_20/batchnorm/sub", "op": "Const", "input": ["^Func/StatefulPartitionedCall/input_control_node/_0"], "attr": {"value": {"tensor": {"dtype": "DT_FLOAT", "tensorShape": {"dim": [{"size": "512"}]}}}, "dtype": {"type": "DT_FLOAT"}}}, {"name": "StatefulPartitionedCall/model_1/conv1d/conv1d/ExpandDims/dim", "op": "Const", "input": ["^Func/StatefulPartitionedCall/input_control_node/_0"], "attr": {"value": {"tensor": {"dtype": "DT_INT32", "tensorShape": {}}}, "dtype": {"type": "DT_INT32"}}}, {"name": "Func/StatefulPartitionedCall/input/_110", "op": "Const", "input": ["^Func/StatefulPartitionedCall/input_control_node/_0"], "attr": {"value": {"tensor": {"dtype": "DT_FLOAT", "tensorShape": {"dim": [{"size": "512"}, {"size": "812"}]}}}, "dtype": {"type": "DT_FLOAT"}}}, {"name": "StatefulPartitionedCall/model_1/batch_normalization_21/batchnorm/sub", "op": "Const", "input": ["^Func/StatefulPartitionedCall/input_control_node/_0"], "attr": {"value": {"tensor": {"dtype": "DT_FLOAT", "tensorShape": {"dim": [{"size": "812"}]}}}, "dtype": {"type": "DT_FLOAT"}}}, {"name": "Func/StatefulPartitionedCall/input/_115", "op": "Const", "input": ["^Func/StatefulPartitionedCall/input_control_node/_0"], "attr": {"value": {"tensor": {"dtype": "DT_FLOAT", "tensorShape": {"dim": [{"size": "812"}, {"size": "56"}]}}}, "dtype": {"type": "DT_FLOAT"}}}, {"name": "Func/StatefulPartitionedCall/input/_116", "op": "Const", "input": ["^Func/StatefulPartitionedCall/input_control_node/_0"], "attr": {"value": {"tensor": {"dtype": "DT_FLOAT", "tensorShape": {"dim": [{"size": "56"}]}}}, "dtype": {"type": "DT_FLOAT"}}}, {"name": "StatefulPartitionedCall/model_1/tf_op_layer_ExpandDims_1/ExpandDims_1", "op": "ExpandDims", "input": ["pose_frames_input", "StatefulPartitionedCall/model_1/tf_op_layer_ExpandDims_1/ExpandDims_1/dim"], "attr": {"_cloned": {"b": true}, "Tdim": {"type": "DT_INT32"}, "T": {"type": "DT_FLOAT"}}}, {"name": "StatefulPartitionedCall/model_1/tf_op_layer_ExpandDims_5/ExpandDims_5", "op": "ExpandDims", "input": ["face_frames_input", "StatefulPartitionedCall/model_1/tf_op_layer_ExpandDims_1/ExpandDims_1/dim"], "attr": {"_cloned": {"b": true}, "Tdim": {"type": "DT_INT32"}, "T": {"type": "DT_FLOAT"}}}, {"name": "StatefulPartitionedCall/model_1/tf_op_layer_ExpandDims_7/ExpandDims_7", "op": "ExpandDims", "input": ["Func/StatefulPartitionedCall/input/_3", "StatefulPartitionedCall/model_1/tf_op_layer_ExpandDims_1/ExpandDims_1/dim"], "attr": {"_cloned": {"b": true}, "Tdim": {"type": "DT_INT32"}, "T": {"type": "DT_FLOAT"}}}, {"name": "StatefulPartitionedCall/model_1/tf_op_layer_ExpandDims_9/ExpandDims_9", "op": "ExpandDims", "input": ["Func/StatefulPartitionedCall/input/_4", "StatefulPartitionedCall/model_1/tf_op_layer_ExpandDims_1/ExpandDims_1/dim"], "attr": {"_cloned": {"b": true}, "Tdim": {"type": "DT_INT32"}, "T": {"type": "DT_FLOAT"}}}, {"name": "StatefulPartitionedCall/model_1/tf_op_layer_ExpandDims/ExpandDims", "op": "ExpandDims", "input": ["pose_frames_input", "StatefulPartitionedCall/model_1/tf_op_layer_ExpandDims/ExpandDims/dim"], "attr": {"_cloned": {"b": true}, "Tdim": {"type": "DT_INT32"}, "T": {"type": "DT_FLOAT"}}}, {"name": "StatefulPartitionedCall/model_1/concatenate/concat", "op": "ConcatV2", "input": ["Func/StatefulPartitionedCall/input/_3", "Func/StatefulPartitionedCall/input/_4", "StatefulPartitionedCall/model_1/tf_op_layer_ExpandDims/ExpandDims/dim"], "attr": {"Tidx": {"type": "DT_INT32"}, "T": {"type": "DT_FLOAT"}, "N": {"i": "2"}}}, {"name": "StatefulPartitionedCall/model_1/tf_op_layer_ExpandDims_4/ExpandDims_4", "op": "ExpandDims", "input": ["face_frames_input", "StatefulPartitionedCall/model_1/tf_op_layer_ExpandDims/ExpandDims/dim"], "attr": {"_cloned": {"b": true}, "Tdim": {"type": "DT_INT32"}, "T": {"type": "DT_FLOAT"}}}, {"name": "StatefulPartitionedCall/model_1/tf_op_layer_ExpandDims_6/ExpandDims_6", "op": "ExpandDims", "input": ["Func/StatefulPartitionedCall/input/_3", "StatefulPartitionedCall/model_1/tf_op_layer_ExpandDims/ExpandDims/dim"], "attr": {"_cloned": {"b": true}, "Tdim": {"type": "DT_INT32"}, "T": {"type": "DT_FLOAT"}}}, {"name": "StatefulPartitionedCall/model_1/tf_op_layer_ExpandDims_8/ExpandDims_8", "op": "ExpandDims", "input": ["Func/StatefulPartitionedCall/input/_4", "StatefulPartitionedCall/model_1/tf_op_layer_ExpandDims/ExpandDims/dim"], "attr": {"_cloned": {"b": true}, "Tdim": {"type": "DT_INT32"}, "T": {"type": "DT_FLOAT"}}}, {"name": "StatefulPartitionedCall/model_1/tf_op_layer_sub/sub", "op": "SquaredDifference", "input": ["StatefulPartitionedCall/model_1/tf_op_layer_ExpandDims/ExpandDims", "StatefulPartitionedCall/model_1/tf_op_layer_ExpandDims_1/ExpandDims_1"], "attr": {"_cloned": {"b": true}, "T": {"type": "DT_FLOAT"}}}, {"name": "StatefulPartitionedCall/model_1/tf_op_layer_strided_slice/strided_slice", "op": "StridedSlice", "input": ["StatefulPartitionedCall/model_1/concatenate/concat", "StatefulPartitionedCall/model_1/tf_op_layer_strided_slice_2/strided_slice_2/stack_1", "StatefulPartitionedCall/model_1/tf_op_layer_strided_slice_2/strided_slice_2/stack", "StatefulPartitionedCall/model_1/tf_op_layer_strided_slice_2/strided_slice_2/stack_2"], "attr": {"_cloned": {"b": true}, "T": {"type": "DT_FLOAT"}, "Index": {"type": "DT_INT32"}, "shrink_axis_mask": {"i": "0"}, "ellipsis_mask": {"i": "0"}, "begin_mask": {"i": "13"}, "new_axis_mask": {"i": "0"}, "end_mask": {"i": "15"}}}, {"name": "StatefulPartitionedCall/model_1/tf_op_layer_strided_slice_1/strided_slice_1", "op": "StridedSlice", "input": ["StatefulPartitionedCall/model_1/concatenate/concat", "StatefulPartitionedCall/model_1/tf_op_layer_strided_slice_2/strided_slice_2/stack", "StatefulPartitionedCall/model_1/tf_op_layer_strided_slice_1/strided_slice_1/stack_1", "StatefulPartitionedCall/model_1/tf_op_layer_strided_slice_2/strided_slice_2/stack_2"], "attr": {"_cloned": {"b": true}, "T": {"type": "DT_FLOAT"}, "Index": {"type": "DT_INT32"}, "shrink_axis_mask": {"i": "0"}, "ellipsis_mask": {"i": "0"}, "begin_mask": {"i": "15"}, "new_axis_mask": {"i": "0"}, "end_mask": {"i": "13"}}}, {"name": "StatefulPartitionedCall/model_1/tf_op_layer_strided_slice_3/strided_slice_3", "op": "StridedSlice", "input": ["StatefulPartitionedCall/model_1/concatenate/concat", "StatefulPartitionedCall/model_1/tf_op_layer_strided_slice_2/strided_slice_2/stack", "StatefulPartitionedCall/model_1/tf_op_layer_strided_slice_2/strided_slice_2/stack", "StatefulPartitionedCall/model_1/tf_op_layer_strided_slice_3/strided_slice_3/stack_2"], "attr": {"_cloned": {"b": true}, "T": {"type": "DT_FLOAT"}, "Index": {"type": "DT_INT32"}, "shrink_axis_mask": {"i": "0"}, "ellipsis_mask": {"i": "0"}, "begin_mask": {"i": "15"}, "new_axis_mask": {"i": "0"}, "end_mask": {"i": "15"}}}, {"name": "StatefulPartitionedCall/model_1/tf_op_layer_sub_3/sub_3", "op": "SquaredDifference", "input": ["StatefulPartitionedCall/model_1/tf_op_layer_ExpandDims_4/ExpandDims_4", "StatefulPartitionedCall/model_1/tf_op_layer_ExpandDims_5/ExpandDims_5"], "attr": {"_cloned": {"b": true}, "T": {"type": "DT_FLOAT"}}}, {"name": "StatefulPartitionedCall/model_1/tf_op_layer_sub_4/sub_4", "op": "SquaredDifference", "input": ["StatefulPartitionedCall/model_1/tf_op_layer_ExpandDims_6/ExpandDims_6", "StatefulPartitionedCall/model_1/tf_op_layer_ExpandDims_7/ExpandDims_7"], "attr": {"_cloned": {"b": true}, "T": {"type": "DT_FLOAT"}}}, {"name": "StatefulPartitionedCall/model_1/tf_op_layer_sub_5/sub_5", "op": "SquaredDifference", "input": ["StatefulPartitionedCall/model_1/tf_op_layer_ExpandDims_8/ExpandDims_8", "StatefulPartitionedCall/model_1/tf_op_layer_ExpandDims_9/ExpandDims_9"], "attr": {"_cloned": {"b": true}, "T": {"type": "DT_FLOAT"}}}, {"name": "StatefulPartitionedCall/model_1/tf_op_layer_Sum/Sum", "op": "Sum", "input": ["StatefulPartitionedCall/model_1/tf_op_layer_sub/sub", "StatefulPartitionedCall/model_1/tf_op_layer_Sum/Sum/reduction_indices"], "attr": {"_cloned": {"b": true}, "Tidx": {"type": "DT_INT32"}, "keep_dims": {"b": false}, "T": {"type": "DT_FLOAT"}}}, {"name": "StatefulPartitionedCall/model_1/tf_op_layer_sub_1/sub_1", "op": "Sub", "input": ["StatefulPartitionedCall/model_1/tf_op_layer_strided_slice/strided_slice", "StatefulPartitionedCall/model_1/tf_op_layer_strided_slice_1/strided_slice_1"], "attr": {"_cloned": {"b": true}, "T": {"type": "DT_FLOAT"}}}, {"name": "StatefulPartitionedCall/model_1/tf_op_layer_strided_slice_4/strided_slice_4", "op": "StridedSlice", "input": ["StatefulPartitionedCall/model_1/tf_op_layer_strided_slice_3/strided_slice_3", "StatefulPartitionedCall/model_1/tf_op_layer_strided_slice_2/strided_slice_2/stack_1", "StatefulPartitionedCall/model_1/tf_op_layer_strided_slice_2/strided_slice_2/stack", "StatefulPartitionedCall/model_1/tf_op_layer_strided_slice_2/strided_slice_2/stack_2"], "attr": {"_cloned": {"b": true}, "T": {"type": "DT_FLOAT"}, "Index": {"type": "DT_INT32"}, "shrink_axis_mask": {"i": "0"}, "ellipsis_mask": {"i": "0"}, "begin_mask": {"i": "13"}, "new_axis_mask": {"i": "0"}, "end_mask": {"i": "15"}}}, {"name": "StatefulPartitionedCall/model_1/tf_op_layer_strided_slice_5/strided_slice_5", "op": "StridedSlice", "input": ["StatefulPartitionedCall/model_1/tf_op_layer_strided_slice_3/strided_slice_3", "StatefulPartitionedCall/model_1/tf_op_layer_strided_slice_2/strided_slice_2/stack", "StatefulPartitionedCall/model_1/tf_op_layer_strided_slice_1/strided_slice_1/stack_1", "StatefulPartitionedCall/model_1/tf_op_layer_strided_slice_2/strided_slice_2/stack_2"], "attr": {"_cloned": {"b": true}, "T": {"type": "DT_FLOAT"}, "Index": {"type": "DT_INT32"}, "shrink_axis_mask": {"i": "0"}, "ellipsis_mask": {"i": "0"}, "begin_mask": {"i": "15"}, "new_axis_mask": {"i": "0"}, "end_mask": {"i": "13"}}}, {"name": "StatefulPartitionedCall/model_1/tf_op_layer_Sum_1/Sum_1", "op": "Sum", "input": ["StatefulPartitionedCall/model_1/tf_op_layer_sub_3/sub_3", "StatefulPartitionedCall/model_1/tf_op_layer_Sum/Sum/reduction_indices"], "attr": {"_cloned": {"b": true}, "Tidx": {"type": "DT_INT32"}, "keep_dims": {"b": false}, "T": {"type": "DT_FLOAT"}}}, {"name": "StatefulPartitionedCall/model_1/tf_op_layer_Sum_2/Sum_2", "op": "Sum", "input": ["StatefulPartitionedCall/model_1/tf_op_layer_sub_4/sub_4", "StatefulPartitionedCall/model_1/tf_op_layer_Sum/Sum/reduction_indices"], "attr": {"_cloned": {"b": true}, "Tidx": {"type": "DT_INT32"}, "keep_dims": {"b": false}, "T": {"type": "DT_FLOAT"}}}, {"name": "StatefulPartitionedCall/model_1/tf_op_layer_Sum_3/Sum_3", "op": "Sum", "input": ["StatefulPartitionedCall/model_1/tf_op_layer_sub_5/sub_5", "StatefulPartitionedCall/model_1/tf_op_layer_Sum/Sum/reduction_indices"], "attr": {"_cloned": {"b": true}, "Tidx": {"type": "DT_INT32"}, "keep_dims": {"b": false}, "T": {"type": "DT_FLOAT"}}}, {"name": "StatefulPartitionedCall/model_1/tf_op_layer_Sqrt/Sqrt", "op": "Sqrt", "input": ["StatefulPartitionedCall/model_1/tf_op_layer_Sum/Sum"], "attr": {"_cloned": {"b": true}, "T": {"type": "DT_FLOAT"}}}, {"name": "StatefulPartitionedCall/model_1/tf_op_layer_strided_slice_2/strided_slice_2", "op": "StridedSlice", "input": ["StatefulPartitionedCall/model_1/tf_op_layer_sub_1/sub_1", "StatefulPartitionedCall/model_1/tf_op_layer_strided_slice_2/strided_slice_2/stack", "StatefulPartitionedCall/model_1/tf_op_layer_strided_slice_2/strided_slice_2/stack_1", "StatefulPartitionedCall/model_1/tf_op_layer_strided_slice_2/strided_slice_2/stack_2"], "attr": {"_cloned": {"b": true}, "T": {"type": "DT_FLOAT"}, "Index": {"type": "DT_INT32"}, "shrink_axis_mask": {"i": "2"}, "ellipsis_mask": {"i": "0"}, "begin_mask": {"i": "13"}, "new_axis_mask": {"i": "0"}, "end_mask": {"i": "13"}}}, {"name": "StatefulPartitionedCall/model_1/tf_op_layer_sub_2/sub_2", "op": "Sub", "input": ["StatefulPartitionedCall/model_1/tf_op_layer_strided_slice_4/strided_slice_4", "StatefulPartitionedCall/model_1/tf_op_layer_strided_slice_5/strided_slice_5"], "attr": {"_cloned": {"b": true}, "T": {"type": "DT_FLOAT"}}}, {"name": "StatefulPartitionedCall/model_1/tf_op_layer_Sqrt_1/Sqrt_1", "op": "Sqrt", "input": ["StatefulPartitionedCall/model_1/tf_op_layer_Sum_1/Sum_1"], "attr": {"_cloned": {"b": true}, "T": {"type": "DT_FLOAT"}}}, {"name": "StatefulPartitionedCall/model_1/tf_op_layer_Sqrt_2/Sqrt_2", "op": "Sqrt", "input": ["StatefulPartitionedCall/model_1/tf_op_layer_Sum_2/Sum_2"], "attr": {"_cloned": {"b": true}, "T": {"type": "DT_FLOAT"}}}, {"name": "StatefulPartitionedCall/model_1/tf_op_layer_Sqrt_3/Sqrt_3", "op": "Sqrt", "input": ["StatefulPartitionedCall/model_1/tf_op_layer_Sum_3/Sum_3"], "attr": {"_cloned": {"b": true}, "T": {"type": "DT_FLOAT"}}}, {"name": "StatefulPartitionedCall/model_1/tf_op_layer_Reshape/Reshape", "op": "Reshape", "input": ["StatefulPartitionedCall/model_1/tf_op_layer_Sqrt/Sqrt", "StatefulPartitionedCall/model_1/tf_op_layer_Reshape/Reshape/shape"], "attr": {"_cloned": {"b": true}, "T": {"type": "DT_FLOAT"}, "Tshape": {"type": "DT_INT32"}}}, {"name": "StatefulPartitionedCall/model_1/tf_op_layer_ExpandDims_2/ExpandDims_2", "op": "ExpandDims", "input": ["StatefulPartitionedCall/model_1/tf_op_layer_strided_slice_2/strided_slice_2", "StatefulPartitionedCall/model_1/conv1d/conv1d/ExpandDims/dim"], "attr": {"_cloned": {"b": true}, "Tdim": {"type": "DT_INT32"}, "T": {"type": "DT_FLOAT"}}}, {"name": "StatefulPartitionedCall/model_1/tf_op_layer_strided_slice_6/strided_slice_6", "op": "StridedSlice", "input": ["StatefulPartitionedCall/model_1/tf_op_layer_sub_2/sub_2", "StatefulPartitionedCall/model_1/tf_op_layer_strided_slice_2/strided_slice_2/stack", "StatefulPartitionedCall/model_1/tf_op_layer_strided_slice_2/strided_slice_2/stack_1", "StatefulPartitionedCall/model_1/tf_op_layer_strided_slice_2/strided_slice_2/stack_2"], "attr": {"_cloned": {"b": true}, "T": {"type": "DT_FLOAT"}, "Index": {"type": "DT_INT32"}, "shrink_axis_mask": {"i": "2"}, "ellipsis_mask": {"i": "0"}, "begin_mask": {"i": "13"}, "new_axis_mask": {"i": "0"}, "end_mask": {"i": "13"}}}, {"name": "StatefulPartitionedCall/model_1/tf_op_layer_Reshape_3/Reshape_3", "op": "Reshape", "input": ["StatefulPartitionedCall/model_1/tf_op_layer_Sqrt_1/Sqrt_1", "StatefulPartitionedCall/model_1/tf_op_layer_Reshape_3/Reshape_3/shape"], "attr": {"_cloned": {"b": true}, "T": {"type": "DT_FLOAT"}, "Tshape": {"type": "DT_INT32"}}}, {"name": "StatefulPartitionedCall/model_1/tf_op_layer_Reshape_4/Reshape_4", "op": "Reshape", "input": ["StatefulPartitionedCall/model_1/tf_op_layer_Sqrt_2/Sqrt_2", "StatefulPartitionedCall/model_1/tf_op_layer_Reshape_4/Reshape_4/shape"], "attr": {"_cloned": {"b": true}, "T": {"type": "DT_FLOAT"}, "Tshape": {"type": "DT_INT32"}}}, {"name": "StatefulPartitionedCall/model_1/tf_op_layer_Reshape_5/Reshape_5", "op": "Reshape", "input": ["StatefulPartitionedCall/model_1/tf_op_layer_Sqrt_3/Sqrt_3", "StatefulPartitionedCall/model_1/tf_op_layer_Reshape_4/Reshape_4/shape"], "attr": {"_cloned": {"b": true}, "T": {"type": "DT_FLOAT"}, "Tshape": {"type": "DT_INT32"}}}, {"name": "StatefulPartitionedCall/model_1/conv1d/conv1d/ExpandDims", "op": "ExpandDims", "input": ["StatefulPartitionedCall/model_1/tf_op_layer_Reshape/Reshape", "StatefulPartitionedCall/model_1/conv1d/conv1d/ExpandDims/dim"], "attr": {"Tdim": {"type": "DT_INT32"}, "T": {"type": "DT_FLOAT"}}}, {"name": "StatefulPartitionedCall/model_1/tf_op_layer_concat/concat", "op": "ConcatV2", "input": ["StatefulPartitionedCall/model_1/tf_op_layer_ExpandDims_2/ExpandDims_2", "StatefulPartitionedCall/model_1/tf_op_layer_sub_1/sub_1", "StatefulPartitionedCall/model_1/conv1d/conv1d/ExpandDims/dim"], "attr": {"_cloned": {"b": true}, "Tidx": {"type": "DT_INT32"}, "T": {"type": "DT_FLOAT"}, "N": {"i": "2"}}}, {"name": "StatefulPartitionedCall/model_1/tf_op_layer_ExpandDims_3/ExpandDims_3", "op": "ExpandDims", "input": ["StatefulPartitionedCall/model_1/tf_op_layer_strided_slice_6/strided_slice_6", "StatefulPartitionedCall/model_1/conv1d/conv1d/ExpandDims/dim"], "attr": {"_cloned": {"b": true}, "Tdim": {"type": "DT_INT32"}, "T": {"type": "DT_FLOAT"}}}, {"name": "StatefulPartitionedCall/model_1/conv1d_9/conv1d/ExpandDims", "op": "ExpandDims", "input": ["StatefulPartitionedCall/model_1/tf_op_layer_Reshape_3/Reshape_3", "StatefulPartitionedCall/model_1/conv1d/conv1d/ExpandDims/dim"], "attr": {"Tdim": {"type": "DT_INT32"}, "T": {"type": "DT_FLOAT"}}}, {"name": "StatefulPartitionedCall/model_1/model/conv1d_12/conv1d/ExpandDims", "op": "ExpandDims", "input": ["StatefulPartitionedCall/model_1/tf_op_layer_Reshape_4/Reshape_4", "StatefulPartitionedCall/model_1/conv1d/conv1d/ExpandDims/dim"], "attr": {"Tdim": {"type": "DT_INT32"}, "T": {"type": "DT_FLOAT"}}}, {"name": "StatefulPartitionedCall/model_1/model_1/conv1d_12/conv1d/ExpandDims", "op": "ExpandDims", "input": ["StatefulPartitionedCall/model_1/tf_op_layer_Reshape_5/Reshape_5", "StatefulPartitionedCall/model_1/conv1d/conv1d/ExpandDims/dim"], "attr": {"Tdim": {"type": "DT_INT32"}, "T": {"type": "DT_FLOAT"}}}, {"name": "StatefulPartitionedCall/model_1/conv1d/conv1d", "op": "Conv2D", "input": ["StatefulPartitionedCall/model_1/conv1d/conv1d/ExpandDims", "StatefulPartitionedCall/model_1/conv1d/conv1d/ExpandDims_1"], "device": "/device:CPU:0", "attr": {"dilations": {"list": {"i": ["1", "1", "1", "1"]}}, "T": {"type": "DT_FLOAT"}, "data_format": {"s": "TkhXQw=="}, "strides": {"list": {"i": ["1", "1", "1", "1"]}}, "explicit_paddings": {"list": {}}, "use_cudnn_on_gpu": {"b": true}, "padding": {"s": "U0FNRQ=="}}}, {"name": "StatefulPartitionedCall/model_1/tf_op_layer_Reshape_1/Reshape_1", "op": "Reshape", "input": ["StatefulPartitionedCall/model_1/tf_op_layer_concat/concat", "StatefulPartitionedCall/model_1/tf_op_layer_Reshape_1/Reshape_1/shape"], "attr": {"_cloned": {"b": true}, "T": {"type": "DT_FLOAT"}, "Tshape": {"type": "DT_INT32"}}}, {"name": "StatefulPartitionedCall/model_1/tf_op_layer_concat_1/concat_1", "op": "ConcatV2", "input": ["StatefulPartitionedCall/model_1/tf_op_layer_ExpandDims_3/ExpandDims_3", "StatefulPartitionedCall/model_1/tf_op_layer_sub_2/sub_2", "StatefulPartitionedCall/model_1/conv1d/conv1d/ExpandDims/dim"], "attr": {"_cloned": {"b": true}, "Tidx": {"type": "DT_INT32"}, "T": {"type": "DT_FLOAT"}, "N": {"i": "2"}}}, {"name": "StatefulPartitionedCall/model_1/conv1d_9/conv1d", "op": "Conv2D", "input": ["StatefulPartitionedCall/model_1/conv1d_9/conv1d/ExpandDims", "StatefulPartitionedCall/model_1/conv1d_9/conv1d/ExpandDims_1"], "device": "/device:CPU:0", "attr": {"dilations": {"list": {"i": ["1", "1", "1", "1"]}}, "T": {"type": "DT_FLOAT"}, "data_format": {"s": "TkhXQw=="}, "strides": {"list": {"i": ["1", "1", "1", "1"]}}, "explicit_paddings": {"list": {}}, "use_cudnn_on_gpu": {"b": true}, "padding": {"s": "U0FNRQ=="}}}, {"name": "StatefulPartitionedCall/model_1/model/conv1d_12/conv1d", "op": "Conv2D", "input": ["StatefulPartitionedCall/model_1/model/conv1d_12/conv1d/ExpandDims", "StatefulPartitionedCall/model_1/model/conv1d_12/conv1d/ExpandDims_1"], "device": "/device:CPU:0", "attr": {"dilations": {"list": {"i": ["1", "1", "1", "1"]}}, "T": {"type": "DT_FLOAT"}, "data_format": {"s": "TkhXQw=="}, "strides": {"list": {"i": ["1", "1", "1", "1"]}}, "explicit_paddings": {"list": {}}, "use_cudnn_on_gpu": {"b": true}, "padding": {"s": "U0FNRQ=="}}}, {"name": "StatefulPartitionedCall/model_1/model_1/conv1d_12/conv1d", "op": "Conv2D", "input": ["StatefulPartitionedCall/model_1/model_1/conv1d_12/conv1d/ExpandDims", "StatefulPartitionedCall/model_1/model/conv1d_12/conv1d/ExpandDims_1"], "device": "/device:CPU:0", "attr": {"dilations": {"list": {"i": ["1", "1", "1", "1"]}}, "T": {"type": "DT_FLOAT"}, "data_format": {"s": "TkhXQw=="}, "strides": {"list": {"i": ["1", "1", "1", "1"]}}, "explicit_paddings": {"list": {}}, "use_cudnn_on_gpu": {"b": true}, "padding": {"s": "U0FNRQ=="}}}, {"name": "StatefulPartitionedCall/model_1/conv1d/conv1d/Squeeze", "op": "Squeeze", "input": ["StatefulPartitionedCall/model_1/conv1d/conv1d"], "attr": {"squeeze_dims": {"list": {"i": ["1"]}}, "T": {"type": "DT_FLOAT"}}}, {"name": "StatefulPartitionedCall/model_1/conv1d_3/conv1d/ExpandDims", "op": "ExpandDims", "input": ["StatefulPartitionedCall/model_1/tf_op_layer_Reshape_1/Reshape_1", "StatefulPartitionedCall/model_1/conv1d/conv1d/ExpandDims/dim"], "attr": {"Tdim": {"type": "DT_INT32"}, "T": {"type": "DT_FLOAT"}}}, {"name": "StatefulPartitionedCall/model_1/tf_op_layer_Reshape_2/Reshape_2", "op": "Reshape", "input": ["StatefulPartitionedCall/model_1/tf_op_layer_concat_1/concat_1", "StatefulPartitionedCall/model_1/tf_op_layer_Reshape_2/Reshape_2/shape"], "attr": {"_cloned": {"b": true}, "T": {"type": "DT_FLOAT"}, "Tshape": {"type": "DT_INT32"}}}, {"name": "StatefulPartitionedCall/model_1/conv1d_9/conv1d/Squeeze", "op": "Squeeze", "input": ["StatefulPartitionedCall/model_1/conv1d_9/conv1d"], "attr": {"squeeze_dims": {"list": {"i": ["1"]}}, "T": {"type": "DT_FLOAT"}}}, {"name": "StatefulPartitionedCall/model_1/model/conv1d_12/conv1d/Squeeze", "op": "Squeeze", "input": ["StatefulPartitionedCall/model_1/model/conv1d_12/conv1d"], "attr": {"squeeze_dims": {"list": {"i": ["1"]}}, "T": {"type": "DT_FLOAT"}}}, {"name": "StatefulPartitionedCall/model_1/model_1/conv1d_12/conv1d/Squeeze", "op": "Squeeze", "input": ["StatefulPartitionedCall/model_1/model_1/conv1d_12/conv1d"], "attr": {"squeeze_dims": {"list": {"i": ["1"]}}, "T": {"type": "DT_FLOAT"}}}, {"name": "StatefulPartitionedCall/model_1/batch_normalization/batchnorm/mul_1", "op": "Mul", "input": ["StatefulPartitionedCall/model_1/batch_normalization/batchnorm/mul", "StatefulPartitionedCall/model_1/conv1d/conv1d/Squeeze"], "attr": {"T": {"type": "DT_FLOAT"}}}, {"name": "StatefulPartitionedCall/model_1/conv1d_3/conv1d", "op": "Conv2D", "input": ["StatefulPartitionedCall/model_1/conv1d_3/conv1d/ExpandDims", "StatefulPartitionedCall/model_1/conv1d_3/conv1d/ExpandDims_1"], "device": "/device:CPU:0", "attr": {"dilations": {"list": {"i": ["1", "1", "1", "1"]}}, "T": {"type": "DT_FLOAT"}, "data_format": {"s": "TkhXQw=="}, "strides": {"list": {"i": ["1", "1", "1", "1"]}}, "explicit_paddings": {"list": {}}, "use_cudnn_on_gpu": {"b": true}, "padding": {"s": "U0FNRQ=="}}}, {"name": "StatefulPartitionedCall/model_1/conv1d_6/conv1d/ExpandDims", "op": "ExpandDims", "input": ["StatefulPartitionedCall/model_1/tf_op_layer_Reshape_2/Reshape_2", "StatefulPartitionedCall/model_1/conv1d/conv1d/ExpandDims/dim"], "attr": {"Tdim": {"type": "DT_INT32"}, "T": {"type": "DT_FLOAT"}}}, {"name": "StatefulPartitionedCall/model_1/batch_normalization_9/batchnorm/mul_1", "op": "Mul", "input": ["StatefulPartitionedCall/model_1/batch_normalization_9/batchnorm/mul", "StatefulPartitionedCall/model_1/conv1d_9/conv1d/Squeeze"], "attr": {"T": {"type": "DT_FLOAT"}}}, {"name": "StatefulPartitionedCall/model_1/model/batch_normalization_12/batchnorm/mul_1", "op": "Mul", "input": ["StatefulPartitionedCall/model_1/model/batch_normalization_12/batchnorm/mul", "StatefulPartitionedCall/model_1/model/conv1d_12/conv1d/Squeeze"], "attr": {"T": {"type": "DT_FLOAT"}}}, {"name": "StatefulPartitionedCall/model_1/model_1/batch_normalization_12/batchnorm/mul_1", "op": "Mul", "input": ["StatefulPartitionedCall/model_1/model/batch_normalization_12/batchnorm/mul", "StatefulPartitionedCall/model_1/model_1/conv1d_12/conv1d/Squeeze"], "attr": {"T": {"type": "DT_FLOAT"}}}, {"name": "StatefulPartitionedCall/model_1/batch_normalization/batchnorm/add_1", "op": "AddV2", "input": ["StatefulPartitionedCall/model_1/batch_normalization/batchnorm/mul_1", "StatefulPartitionedCall/model_1/batch_normalization/batchnorm/sub"], "attr": {"T": {"type": "DT_FLOAT"}}}, {"name": "StatefulPartitionedCall/model_1/conv1d_3/conv1d/Squeeze", "op": "Squeeze", "input": ["StatefulPartitionedCall/model_1/conv1d_3/conv1d"], "attr": {"squeeze_dims": {"list": {"i": ["1"]}}, "T": {"type": "DT_FLOAT"}}}, {"name": "StatefulPartitionedCall/model_1/conv1d_6/conv1d", "op": "Conv2D", "input": ["StatefulPartitionedCall/model_1/conv1d_6/conv1d/ExpandDims", "StatefulPartitionedCall/model_1/conv1d_6/conv1d/ExpandDims_1"], "device": "/device:CPU:0", "attr": {"dilations": {"list": {"i": ["1", "1", "1", "1"]}}, "T": {"type": "DT_FLOAT"}, "data_format": {"s": "TkhXQw=="}, "strides": {"list": {"i": ["1", "1", "1", "1"]}}, "explicit_paddings": {"list": {}}, "use_cudnn_on_gpu": {"b": true}, "padding": {"s": "U0FNRQ=="}}}, {"name": "StatefulPartitionedCall/model_1/batch_normalization_9/batchnorm/add_1", "op": "AddV2", "input": ["StatefulPartitionedCall/model_1/batch_normalization_9/batchnorm/mul_1", "StatefulPartitionedCall/model_1/batch_normalization_9/batchnorm/sub"], "attr": {"T": {"type": "DT_FLOAT"}}}, {"name": "StatefulPartitionedCall/model_1/model/batch_normalization_12/batchnorm/add_1", "op": "AddV2", "input": ["StatefulPartitionedCall/model_1/model/batch_normalization_12/batchnorm/mul_1", "StatefulPartitionedCall/model_1/model/batch_normalization_12/batchnorm/sub"], "attr": {"T": {"type": "DT_FLOAT"}}}, {"name": "StatefulPartitionedCall/model_1/model_1/batch_normalization_12/batchnorm/add_1", "op": "AddV2", "input": ["StatefulPartitionedCall/model_1/model/batch_normalization_12/batchnorm/sub", "StatefulPartitionedCall/model_1/model_1/batch_normalization_12/batchnorm/mul_1"], "attr": {"T": {"type": "DT_FLOAT"}}}, {"name": "StatefulPartitionedCall/model_1/leaky_re_lu/LeakyRelu", "op": "LeakyRelu", "input": ["StatefulPartitionedCall/model_1/batch_normalization/batchnorm/add_1"], "attr": {"T": {"type": "DT_FLOAT"}, "alpha": {"f": 0.2}}}, {"name": "StatefulPartitionedCall/model_1/batch_normalization_3/batchnorm/mul_1", "op": "Mul", "input": ["StatefulPartitionedCall/model_1/batch_normalization_3/batchnorm/mul", "StatefulPartitionedCall/model_1/conv1d_3/conv1d/Squeeze"], "attr": {"T": {"type": "DT_FLOAT"}}}, {"name": "StatefulPartitionedCall/model_1/conv1d_6/conv1d/Squeeze", "op": "Squeeze", "input": ["StatefulPartitionedCall/model_1/conv1d_6/conv1d"], "attr": {"squeeze_dims": {"list": {"i": ["1"]}}, "T": {"type": "DT_FLOAT"}}}, {"name": "StatefulPartitionedCall/model_1/leaky_re_lu_9/LeakyRelu", "op": "LeakyRelu", "input": ["StatefulPartitionedCall/model_1/batch_normalization_9/batchnorm/add_1"], "attr": {"T": {"type": "DT_FLOAT"}, "alpha": {"f": 0.2}}}, {"name": "StatefulPartitionedCall/model_1/model/leaky_re_lu_12/LeakyRelu", "op": "LeakyRelu", "input": ["StatefulPartitionedCall/model_1/model/batch_normalization_12/batchnorm/add_1"], "attr": {"T": {"type": "DT_FLOAT"}, "alpha": {"f": 0.2}}}, {"name": "StatefulPartitionedCall/model_1/model_1/leaky_re_lu_12/LeakyRelu", "op": "LeakyRelu", "input": ["StatefulPartitionedCall/model_1/model_1/batch_normalization_12/batchnorm/add_1"], "attr": {"T": {"type": "DT_FLOAT"}, "alpha": {"f": 0.2}}}, {"name": "StatefulPartitionedCall/model_1/conv1d_1/conv1d/ExpandDims", "op": "ExpandDims", "input": ["StatefulPartitionedCall/model_1/leaky_re_lu/LeakyRelu", "StatefulPartitionedCall/model_1/conv1d/conv1d/ExpandDims/dim"], "attr": {"Tdim": {"type": "DT_INT32"}, "T": {"type": "DT_FLOAT"}}}, {"name": "StatefulPartitionedCall/model_1/batch_normalization_3/batchnorm/add_1", "op": "AddV2", "input": ["StatefulPartitionedCall/model_1/batch_normalization_3/batchnorm/mul_1", "StatefulPartitionedCall/model_1/batch_normalization_3/batchnorm/sub"], "attr": {"T": {"type": "DT_FLOAT"}}}, {"name": "StatefulPartitionedCall/model_1/batch_normalization_6/batchnorm/mul_1", "op": "Mul", "input": ["StatefulPartitionedCall/model_1/batch_normalization_6/batchnorm/mul", "StatefulPartitionedCall/model_1/conv1d_6/conv1d/Squeeze"], "attr": {"T": {"type": "DT_FLOAT"}}}, {"name": "StatefulPartitionedCall/model_1/conv1d_10/conv1d/ExpandDims", "op": "ExpandDims", "input": ["StatefulPartitionedCall/model_1/leaky_re_lu_9/LeakyRelu", "StatefulPartitionedCall/model_1/conv1d/conv1d/ExpandDims/dim"], "attr": {"Tdim": {"type": "DT_INT32"}, "T": {"type": "DT_FLOAT"}}}, {"name": "StatefulPartitionedCall/model_1/model/conv1d_13/conv1d/ExpandDims", "op": "ExpandDims", "input": ["StatefulPartitionedCall/model_1/model/leaky_re_lu_12/LeakyRelu", "StatefulPartitionedCall/model_1/conv1d/conv1d/ExpandDims/dim"], "attr": {"Tdim": {"type": "DT_INT32"}, "T": {"type": "DT_FLOAT"}}}, {"name": "StatefulPartitionedCall/model_1/model_1/conv1d_13/conv1d/ExpandDims", "op": "ExpandDims", "input": ["StatefulPartitionedCall/model_1/model_1/leaky_re_lu_12/LeakyRelu", "StatefulPartitionedCall/model_1/conv1d/conv1d/ExpandDims/dim"], "attr": {"Tdim": {"type": "DT_INT32"}, "T": {"type": "DT_FLOAT"}}}, {"name": "StatefulPartitionedCall/model_1/conv1d_1/conv1d", "op": "Conv2D", "input": ["StatefulPartitionedCall/model_1/conv1d_1/conv1d/ExpandDims", "StatefulPartitionedCall/model_1/conv1d_1/conv1d/ExpandDims_1"], "device": "/device:CPU:0", "attr": {"dilations": {"list": {"i": ["1", "1", "1", "1"]}}, "T": {"type": "DT_FLOAT"}, "data_format": {"s": "TkhXQw=="}, "strides": {"list": {"i": ["1", "1", "1", "1"]}}, "explicit_paddings": {"list": {}}, "use_cudnn_on_gpu": {"b": true}, "padding": {"s": "U0FNRQ=="}}}, {"name": "StatefulPartitionedCall/model_1/leaky_re_lu_3/LeakyRelu", "op": "LeakyRelu", "input": ["StatefulPartitionedCall/model_1/batch_normalization_3/batchnorm/add_1"], "attr": {"T": {"type": "DT_FLOAT"}, "alpha": {"f": 0.2}}}, {"name": "StatefulPartitionedCall/model_1/batch_normalization_6/batchnorm/add_1", "op": "AddV2", "input": ["StatefulPartitionedCall/model_1/batch_normalization_6/batchnorm/mul_1", "StatefulPartitionedCall/model_1/batch_normalization_6/batchnorm/sub"], "attr": {"T": {"type": "DT_FLOAT"}}}, {"name": "StatefulPartitionedCall/model_1/conv1d_10/conv1d", "op": "Conv2D", "input": ["StatefulPartitionedCall/model_1/conv1d_10/conv1d/ExpandDims", "StatefulPartitionedCall/model_1/conv1d_10/conv1d/ExpandDims_1"], "device": "/device:CPU:0", "attr": {"dilations": {"list": {"i": ["1", "1", "1", "1"]}}, "T": {"type": "DT_FLOAT"}, "data_format": {"s": "TkhXQw=="}, "strides": {"list": {"i": ["1", "1", "1", "1"]}}, "explicit_paddings": {"list": {}}, "use_cudnn_on_gpu": {"b": true}, "padding": {"s": "U0FNRQ=="}}}, {"name": "StatefulPartitionedCall/model_1/model/conv1d_13/conv1d", "op": "Conv2D", "input": ["StatefulPartitionedCall/model_1/model/conv1d_13/conv1d/ExpandDims", "StatefulPartitionedCall/model_1/model/conv1d_13/conv1d/ExpandDims_1"], "device": "/device:CPU:0", "attr": {"dilations": {"list": {"i": ["1", "1", "1", "1"]}}, "T": {"type": "DT_FLOAT"}, "data_format": {"s": "TkhXQw=="}, "strides": {"list": {"i": ["1", "1", "1", "1"]}}, "explicit_paddings": {"list": {}}, "use_cudnn_on_gpu": {"b": true}, "padding": {"s": "U0FNRQ=="}}}, {"name": "StatefulPartitionedCall/model_1/model_1/conv1d_13/conv1d", "op": "Conv2D", "input": ["StatefulPartitionedCall/model_1/model_1/conv1d_13/conv1d/ExpandDims", "StatefulPartitionedCall/model_1/model/conv1d_13/conv1d/ExpandDims_1"], "device": "/device:CPU:0", "attr": {"dilations": {"list": {"i": ["1", "1", "1", "1"]}}, "T": {"type": "DT_FLOAT"}, "data_format": {"s": "TkhXQw=="}, "strides": {"list": {"i": ["1", "1", "1", "1"]}}, "explicit_paddings": {"list": {}}, "use_cudnn_on_gpu": {"b": true}, "padding": {"s": "U0FNRQ=="}}}, {"name": "StatefulPartitionedCall/model_1/conv1d_1/conv1d/Squeeze", "op": "Squeeze", "input": ["StatefulPartitionedCall/model_1/conv1d_1/conv1d"], "attr": {"squeeze_dims": {"list": {"i": ["1"]}}, "T": {"type": "DT_FLOAT"}}}, {"name": "StatefulPartitionedCall/model_1/conv1d_4/conv1d/ExpandDims", "op": "ExpandDims", "input": ["StatefulPartitionedCall/model_1/leaky_re_lu_3/LeakyRelu", "StatefulPartitionedCall/model_1/conv1d/conv1d/ExpandDims/dim"], "attr": {"Tdim": {"type": "DT_INT32"}, "T": {"type": "DT_FLOAT"}}}, {"name": "StatefulPartitionedCall/model_1/leaky_re_lu_6/LeakyRelu", "op": "LeakyRelu", "input": ["StatefulPartitionedCall/model_1/batch_normalization_6/batchnorm/add_1"], "attr": {"T": {"type": "DT_FLOAT"}, "alpha": {"f": 0.2}}}, {"name": "StatefulPartitionedCall/model_1/conv1d_10/conv1d/Squeeze", "op": "Squeeze", "input": ["StatefulPartitionedCall/model_1/conv1d_10/conv1d"], "attr": {"squeeze_dims": {"list": {"i": ["1"]}}, "T": {"type": "DT_FLOAT"}}}, {"name": "StatefulPartitionedCall/model_1/model/conv1d_13/conv1d/Squeeze", "op": "Squeeze", "input": ["StatefulPartitionedCall/model_1/model/conv1d_13/conv1d"], "attr": {"squeeze_dims": {"list": {"i": ["1"]}}, "T": {"type": "DT_FLOAT"}}}, {"name": "StatefulPartitionedCall/model_1/model_1/conv1d_13/conv1d/Squeeze", "op": "Squeeze", "input": ["StatefulPartitionedCall/model_1/model_1/conv1d_13/conv1d"], "attr": {"squeeze_dims": {"list": {"i": ["1"]}}, "T": {"type": "DT_FLOAT"}}}, {"name": "StatefulPartitionedCall/model_1/batch_normalization_1/batchnorm/mul_1", "op": "Mul", "input": ["StatefulPartitionedCall/model_1/batch_normalization_1/batchnorm/mul", "StatefulPartitionedCall/model_1/conv1d_1/conv1d/Squeeze"], "attr": {"T": {"type": "DT_FLOAT"}}}, {"name": "StatefulPartitionedCall/model_1/conv1d_4/conv1d", "op": "Conv2D", "input": ["StatefulPartitionedCall/model_1/conv1d_4/conv1d/ExpandDims", "StatefulPartitionedCall/model_1/conv1d_4/conv1d/ExpandDims_1"], "device": "/device:CPU:0", "attr": {"dilations": {"list": {"i": ["1", "1", "1", "1"]}}, "T": {"type": "DT_FLOAT"}, "data_format": {"s": "TkhXQw=="}, "strides": {"list": {"i": ["1", "1", "1", "1"]}}, "explicit_paddings": {"list": {}}, "use_cudnn_on_gpu": {"b": true}, "padding": {"s": "U0FNRQ=="}}}, {"name": "StatefulPartitionedCall/model_1/conv1d_7/conv1d/ExpandDims", "op": "ExpandDims", "input": ["StatefulPartitionedCall/model_1/leaky_re_lu_6/LeakyRelu", "StatefulPartitionedCall/model_1/conv1d/conv1d/ExpandDims/dim"], "attr": {"Tdim": {"type": "DT_INT32"}, "T": {"type": "DT_FLOAT"}}}, {"name": "StatefulPartitionedCall/model_1/batch_normalization_10/batchnorm/mul_1", "op": "Mul", "input": ["StatefulPartitionedCall/model_1/batch_normalization_10/batchnorm/mul", "StatefulPartitionedCall/model_1/conv1d_10/conv1d/Squeeze"], "attr": {"T": {"type": "DT_FLOAT"}}}, {"name": "StatefulPartitionedCall/model_1/model/batch_normalization_13/batchnorm/mul_1", "op": "Mul", "input": ["StatefulPartitionedCall/model_1/model/batch_normalization_13/batchnorm/mul", "StatefulPartitionedCall/model_1/model/conv1d_13/conv1d/Squeeze"], "attr": {"T": {"type": "DT_FLOAT"}}}, {"name": "StatefulPartitionedCall/model_1/model_1/batch_normalization_13/batchnorm/mul_1", "op": "Mul", "input": ["StatefulPartitionedCall/model_1/model/batch_normalization_13/batchnorm/mul", "StatefulPartitionedCall/model_1/model_1/conv1d_13/conv1d/Squeeze"], "attr": {"T": {"type": "DT_FLOAT"}}}, {"name": "StatefulPartitionedCall/model_1/batch_normalization_1/batchnorm/add_1", "op": "AddV2", "input": ["StatefulPartitionedCall/model_1/batch_normalization_1/batchnorm/mul_1", "StatefulPartitionedCall/model_1/batch_normalization_1/batchnorm/sub"], "attr": {"T": {"type": "DT_FLOAT"}}}, {"name": "StatefulPartitionedCall/model_1/conv1d_4/conv1d/Squeeze", "op": "Squeeze", "input": ["StatefulPartitionedCall/model_1/conv1d_4/conv1d"], "attr": {"squeeze_dims": {"list": {"i": ["1"]}}, "T": {"type": "DT_FLOAT"}}}, {"name": "StatefulPartitionedCall/model_1/conv1d_7/conv1d", "op": "Conv2D", "input": ["StatefulPartitionedCall/model_1/conv1d_7/conv1d/ExpandDims", "StatefulPartitionedCall/model_1/conv1d_7/conv1d/ExpandDims_1"], "device": "/device:CPU:0", "attr": {"dilations": {"list": {"i": ["1", "1", "1", "1"]}}, "T": {"type": "DT_FLOAT"}, "data_format": {"s": "TkhXQw=="}, "strides": {"list": {"i": ["1", "1", "1", "1"]}}, "explicit_paddings": {"list": {}}, "use_cudnn_on_gpu": {"b": true}, "padding": {"s": "U0FNRQ=="}}}, {"name": "StatefulPartitionedCall/model_1/batch_normalization_10/batchnorm/add_1", "op": "AddV2", "input": ["StatefulPartitionedCall/model_1/batch_normalization_10/batchnorm/mul_1", "StatefulPartitionedCall/model_1/batch_normalization_10/batchnorm/sub"], "attr": {"T": {"type": "DT_FLOAT"}}}, {"name": "StatefulPartitionedCall/model_1/model/batch_normalization_13/batchnorm/add_1", "op": "AddV2", "input": ["StatefulPartitionedCall/model_1/model/batch_normalization_13/batchnorm/mul_1", "StatefulPartitionedCall/model_1/model/batch_normalization_13/batchnorm/sub"], "attr": {"T": {"type": "DT_FLOAT"}}}, {"name": "StatefulPartitionedCall/model_1/model_1/batch_normalization_13/batchnorm/add_1", "op": "AddV2", "input": ["StatefulPartitionedCall/model_1/model/batch_normalization_13/batchnorm/sub", "StatefulPartitionedCall/model_1/model_1/batch_normalization_13/batchnorm/mul_1"], "attr": {"T": {"type": "DT_FLOAT"}}}, {"name": "StatefulPartitionedCall/model_1/leaky_re_lu_1/LeakyRelu", "op": "LeakyRelu", "input": ["StatefulPartitionedCall/model_1/batch_normalization_1/batchnorm/add_1"], "attr": {"T": {"type": "DT_FLOAT"}, "alpha": {"f": 0.2}}}, {"name": "StatefulPartitionedCall/model_1/batch_normalization_4/batchnorm/mul_1", "op": "Mul", "input": ["StatefulPartitionedCall/model_1/batch_normalization_4/batchnorm/mul", "StatefulPartitionedCall/model_1/conv1d_4/conv1d/Squeeze"], "attr": {"T": {"type": "DT_FLOAT"}}}, {"name": "StatefulPartitionedCall/model_1/conv1d_7/conv1d/Squeeze", "op": "Squeeze", "input": ["StatefulPartitionedCall/model_1/conv1d_7/conv1d"], "attr": {"squeeze_dims": {"list": {"i": ["1"]}}, "T": {"type": "DT_FLOAT"}}}, {"name": "StatefulPartitionedCall/model_1/leaky_re_lu_10/LeakyRelu", "op": "LeakyRelu", "input": ["StatefulPartitionedCall/model_1/batch_normalization_10/batchnorm/add_1"], "attr": {"T": {"type": "DT_FLOAT"}, "alpha": {"f": 0.2}}}, {"name": "StatefulPartitionedCall/model_1/model/leaky_re_lu_13/LeakyRelu", "op": "LeakyRelu", "input": ["StatefulPartitionedCall/model_1/model/batch_normalization_13/batchnorm/add_1"], "attr": {"T": {"type": "DT_FLOAT"}, "alpha": {"f": 0.2}}}, {"name": "StatefulPartitionedCall/model_1/model_1/leaky_re_lu_13/LeakyRelu", "op": "LeakyRelu", "input": ["StatefulPartitionedCall/model_1/model_1/batch_normalization_13/batchnorm/add_1"], "attr": {"T": {"type": "DT_FLOAT"}, "alpha": {"f": 0.2}}}, {"name": "StatefulPartitionedCall/model_1/conv1d_2/conv1d/ExpandDims", "op": "ExpandDims", "input": ["StatefulPartitionedCall/model_1/leaky_re_lu_1/LeakyRelu", "StatefulPartitionedCall/model_1/conv1d/conv1d/ExpandDims/dim"], "attr": {"Tdim": {"type": "DT_INT32"}, "T": {"type": "DT_FLOAT"}}}, {"name": "StatefulPartitionedCall/model_1/batch_normalization_4/batchnorm/add_1", "op": "AddV2", "input": ["StatefulPartitionedCall/model_1/batch_normalization_4/batchnorm/mul_1", "StatefulPartitionedCall/model_1/batch_normalization_4/batchnorm/sub"], "attr": {"T": {"type": "DT_FLOAT"}}}, {"name": "StatefulPartitionedCall/model_1/batch_normalization_7/batchnorm/mul_1", "op": "Mul", "input": ["StatefulPartitionedCall/model_1/batch_normalization_7/batchnorm/mul", "StatefulPartitionedCall/model_1/conv1d_7/conv1d/Squeeze"], "attr": {"T": {"type": "DT_FLOAT"}}}, {"name": "StatefulPartitionedCall/model_1/conv1d_11/conv1d/ExpandDims", "op": "ExpandDims", "input": ["StatefulPartitionedCall/model_1/leaky_re_lu_10/LeakyRelu", "StatefulPartitionedCall/model_1/conv1d/conv1d/ExpandDims/dim"], "attr": {"Tdim": {"type": "DT_INT32"}, "T": {"type": "DT_FLOAT"}}}, {"name": "StatefulPartitionedCall/model_1/model/conv1d_14/conv1d/ExpandDims", "op": "ExpandDims", "input": ["StatefulPartitionedCall/model_1/model/leaky_re_lu_13/LeakyRelu", "StatefulPartitionedCall/model_1/conv1d/conv1d/ExpandDims/dim"], "attr": {"Tdim": {"type": "DT_INT32"}, "T": {"type": "DT_FLOAT"}}}, {"name": "StatefulPartitionedCall/model_1/model_1/conv1d_14/conv1d/ExpandDims", "op": "ExpandDims", "input": ["StatefulPartitionedCall/model_1/model_1/leaky_re_lu_13/LeakyRelu", "StatefulPartitionedCall/model_1/conv1d/conv1d/ExpandDims/dim"], "attr": {"Tdim": {"type": "DT_INT32"}, "T": {"type": "DT_FLOAT"}}}, {"name": "StatefulPartitionedCall/model_1/conv1d_2/conv1d", "op": "Conv2D", "input": ["StatefulPartitionedCall/model_1/conv1d_2/conv1d/ExpandDims", "StatefulPartitionedCall/model_1/conv1d_2/conv1d/ExpandDims_1"], "device": "/device:CPU:0", "attr": {"dilations": {"list": {"i": ["1", "1", "1", "1"]}}, "T": {"type": "DT_FLOAT"}, "data_format": {"s": "TkhXQw=="}, "strides": {"list": {"i": ["1", "1", "1", "1"]}}, "explicit_paddings": {"list": {}}, "use_cudnn_on_gpu": {"b": true}, "padding": {"s": "U0FNRQ=="}}}, {"name": "StatefulPartitionedCall/model_1/leaky_re_lu_4/LeakyRelu", "op": "LeakyRelu", "input": ["StatefulPartitionedCall/model_1/batch_normalization_4/batchnorm/add_1"], "attr": {"T": {"type": "DT_FLOAT"}, "alpha": {"f": 0.2}}}, {"name": "StatefulPartitionedCall/model_1/batch_normalization_7/batchnorm/add_1", "op": "AddV2", "input": ["StatefulPartitionedCall/model_1/batch_normalization_7/batchnorm/mul_1", "StatefulPartitionedCall/model_1/batch_normalization_7/batchnorm/sub"], "attr": {"T": {"type": "DT_FLOAT"}}}, {"name": "StatefulPartitionedCall/model_1/conv1d_11/conv1d", "op": "Conv2D", "input": ["StatefulPartitionedCall/model_1/conv1d_11/conv1d/ExpandDims", "StatefulPartitionedCall/model_1/conv1d_11/conv1d/ExpandDims_1"], "device": "/device:CPU:0", "attr": {"dilations": {"list": {"i": ["1", "1", "1", "1"]}}, "T": {"type": "DT_FLOAT"}, "data_format": {"s": "TkhXQw=="}, "strides": {"list": {"i": ["1", "1", "1", "1"]}}, "explicit_paddings": {"list": {}}, "use_cudnn_on_gpu": {"b": true}, "padding": {"s": "U0FNRQ=="}}}, {"name": "StatefulPartitionedCall/model_1/model/conv1d_14/conv1d", "op": "Conv2D", "input": ["StatefulPartitionedCall/model_1/model/conv1d_14/conv1d/ExpandDims", "StatefulPartitionedCall/model_1/model/conv1d_14/conv1d/ExpandDims_1"], "device": "/device:CPU:0", "attr": {"dilations": {"list": {"i": ["1", "1", "1", "1"]}}, "T": {"type": "DT_FLOAT"}, "data_format": {"s": "TkhXQw=="}, "strides": {"list": {"i": ["1", "1", "1", "1"]}}, "explicit_paddings": {"list": {}}, "use_cudnn_on_gpu": {"b": true}, "padding": {"s": "U0FNRQ=="}}}, {"name": "StatefulPartitionedCall/model_1/model_1/conv1d_14/conv1d", "op": "Conv2D", "input": ["StatefulPartitionedCall/model_1/model_1/conv1d_14/conv1d/ExpandDims", "StatefulPartitionedCall/model_1/model/conv1d_14/conv1d/ExpandDims_1"], "device": "/device:CPU:0", "attr": {"dilations": {"list": {"i": ["1", "1", "1", "1"]}}, "T": {"type": "DT_FLOAT"}, "data_format": {"s": "TkhXQw=="}, "strides": {"list": {"i": ["1", "1", "1", "1"]}}, "explicit_paddings": {"list": {}}, "use_cudnn_on_gpu": {"b": true}, "padding": {"s": "U0FNRQ=="}}}, {"name": "StatefulPartitionedCall/model_1/conv1d_2/conv1d/Squeeze", "op": "Squeeze", "input": ["StatefulPartitionedCall/model_1/conv1d_2/conv1d"], "attr": {"squeeze_dims": {"list": {"i": ["1"]}}, "T": {"type": "DT_FLOAT"}}}, {"name": "StatefulPartitionedCall/model_1/conv1d_5/conv1d/ExpandDims", "op": "ExpandDims", "input": ["StatefulPartitionedCall/model_1/leaky_re_lu_4/LeakyRelu", "StatefulPartitionedCall/model_1/conv1d/conv1d/ExpandDims/dim"], "attr": {"Tdim": {"type": "DT_INT32"}, "T": {"type": "DT_FLOAT"}}}, {"name": "StatefulPartitionedCall/model_1/leaky_re_lu_7/LeakyRelu", "op": "LeakyRelu", "input": ["StatefulPartitionedCall/model_1/batch_normalization_7/batchnorm/add_1"], "attr": {"T": {"type": "DT_FLOAT"}, "alpha": {"f": 0.2}}}, {"name": "StatefulPartitionedCall/model_1/conv1d_11/conv1d/Squeeze", "op": "Squeeze", "input": ["StatefulPartitionedCall/model_1/conv1d_11/conv1d"], "attr": {"squeeze_dims": {"list": {"i": ["1"]}}, "T": {"type": "DT_FLOAT"}}}, {"name": "StatefulPartitionedCall/model_1/model/conv1d_14/conv1d/Squeeze", "op": "Squeeze", "input": ["StatefulPartitionedCall/model_1/model/conv1d_14/conv1d"], "attr": {"squeeze_dims": {"list": {"i": ["1"]}}, "T": {"type": "DT_FLOAT"}}}, {"name": "StatefulPartitionedCall/model_1/model_1/conv1d_14/conv1d/Squeeze", "op": "Squeeze", "input": ["StatefulPartitionedCall/model_1/model_1/conv1d_14/conv1d"], "attr": {"squeeze_dims": {"list": {"i": ["1"]}}, "T": {"type": "DT_FLOAT"}}}, {"name": "StatefulPartitionedCall/model_1/batch_normalization_2/batchnorm/mul_1", "op": "Mul", "input": ["StatefulPartitionedCall/model_1/batch_normalization_2/batchnorm/mul", "StatefulPartitionedCall/model_1/conv1d_2/conv1d/Squeeze"], "attr": {"T": {"type": "DT_FLOAT"}}}, {"name": "StatefulPartitionedCall/model_1/conv1d_5/conv1d", "op": "Conv2D", "input": ["StatefulPartitionedCall/model_1/conv1d_5/conv1d/ExpandDims", "StatefulPartitionedCall/model_1/conv1d_5/conv1d/ExpandDims_1"], "device": "/device:CPU:0", "attr": {"dilations": {"list": {"i": ["1", "1", "1", "1"]}}, "T": {"type": "DT_FLOAT"}, "data_format": {"s": "TkhXQw=="}, "strides": {"list": {"i": ["1", "1", "1", "1"]}}, "explicit_paddings": {"list": {}}, "use_cudnn_on_gpu": {"b": true}, "padding": {"s": "U0FNRQ=="}}}, {"name": "StatefulPartitionedCall/model_1/conv1d_8/conv1d/ExpandDims", "op": "ExpandDims", "input": ["StatefulPartitionedCall/model_1/leaky_re_lu_7/LeakyRelu", "StatefulPartitionedCall/model_1/conv1d/conv1d/ExpandDims/dim"], "attr": {"Tdim": {"type": "DT_INT32"}, "T": {"type": "DT_FLOAT"}}}, {"name": "StatefulPartitionedCall/model_1/batch_normalization_11/batchnorm/mul_1", "op": "Mul", "input": ["StatefulPartitionedCall/model_1/batch_normalization_11/batchnorm/mul", "StatefulPartitionedCall/model_1/conv1d_11/conv1d/Squeeze"], "attr": {"T": {"type": "DT_FLOAT"}}}, {"name": "StatefulPartitionedCall/model_1/model/batch_normalization_14/batchnorm/mul_1", "op": "Mul", "input": ["StatefulPartitionedCall/model_1/model/batch_normalization_14/batchnorm/mul", "StatefulPartitionedCall/model_1/model/conv1d_14/conv1d/Squeeze"], "attr": {"T": {"type": "DT_FLOAT"}}}, {"name": "StatefulPartitionedCall/model_1/model_1/batch_normalization_14/batchnorm/mul_1", "op": "Mul", "input": ["StatefulPartitionedCall/model_1/model/batch_normalization_14/batchnorm/mul", "StatefulPartitionedCall/model_1/model_1/conv1d_14/conv1d/Squeeze"], "attr": {"T": {"type": "DT_FLOAT"}}}, {"name": "StatefulPartitionedCall/model_1/batch_normalization_2/batchnorm/add_1", "op": "AddV2", "input": ["StatefulPartitionedCall/model_1/batch_normalization_2/batchnorm/mul_1", "StatefulPartitionedCall/model_1/batch_normalization_2/batchnorm/sub"], "attr": {"T": {"type": "DT_FLOAT"}}}, {"name": "StatefulPartitionedCall/model_1/conv1d_5/conv1d/Squeeze", "op": "Squeeze", "input": ["StatefulPartitionedCall/model_1/conv1d_5/conv1d"], "attr": {"squeeze_dims": {"list": {"i": ["1"]}}, "T": {"type": "DT_FLOAT"}}}, {"name": "StatefulPartitionedCall/model_1/conv1d_8/conv1d", "op": "Conv2D", "input": ["StatefulPartitionedCall/model_1/conv1d_8/conv1d/ExpandDims", "StatefulPartitionedCall/model_1/conv1d_8/conv1d/ExpandDims_1"], "device": "/device:CPU:0", "attr": {"dilations": {"list": {"i": ["1", "1", "1", "1"]}}, "T": {"type": "DT_FLOAT"}, "data_format": {"s": "TkhXQw=="}, "strides": {"list": {"i": ["1", "1", "1", "1"]}}, "explicit_paddings": {"list": {}}, "use_cudnn_on_gpu": {"b": true}, "padding": {"s": "U0FNRQ=="}}}, {"name": "StatefulPartitionedCall/model_1/batch_normalization_11/batchnorm/add_1", "op": "AddV2", "input": ["StatefulPartitionedCall/model_1/batch_normalization_11/batchnorm/mul_1", "StatefulPartitionedCall/model_1/batch_normalization_11/batchnorm/sub"], "attr": {"T": {"type": "DT_FLOAT"}}}, {"name": "StatefulPartitionedCall/model_1/model/batch_normalization_14/batchnorm/add_1", "op": "AddV2", "input": ["StatefulPartitionedCall/model_1/model/batch_normalization_14/batchnorm/mul_1", "StatefulPartitionedCall/model_1/model/batch_normalization_14/batchnorm/sub"], "attr": {"T": {"type": "DT_FLOAT"}}}, {"name": "StatefulPartitionedCall/model_1/model_1/batch_normalization_14/batchnorm/add_1", "op": "AddV2", "input": ["StatefulPartitionedCall/model_1/model/batch_normalization_14/batchnorm/sub", "StatefulPartitionedCall/model_1/model_1/batch_normalization_14/batchnorm/mul_1"], "attr": {"T": {"type": "DT_FLOAT"}}}, {"name": "StatefulPartitionedCall/model_1/leaky_re_lu_2/LeakyRelu", "op": "LeakyRelu", "input": ["StatefulPartitionedCall/model_1/batch_normalization_2/batchnorm/add_1"], "attr": {"T": {"type": "DT_FLOAT"}, "alpha": {"f": 0.2}}}, {"name": "StatefulPartitionedCall/model_1/batch_normalization_5/batchnorm/mul_1", "op": "Mul", "input": ["StatefulPartitionedCall/model_1/batch_normalization_5/batchnorm/mul", "StatefulPartitionedCall/model_1/conv1d_5/conv1d/Squeeze"], "attr": {"T": {"type": "DT_FLOAT"}}}, {"name": "StatefulPartitionedCall/model_1/conv1d_8/conv1d/Squeeze", "op": "Squeeze", "input": ["StatefulPartitionedCall/model_1/conv1d_8/conv1d"], "attr": {"squeeze_dims": {"list": {"i": ["1"]}}, "T": {"type": "DT_FLOAT"}}}, {"name": "StatefulPartitionedCall/model_1/leaky_re_lu_11/LeakyRelu", "op": "LeakyRelu", "input": ["StatefulPartitionedCall/model_1/batch_normalization_11/batchnorm/add_1"], "attr": {"T": {"type": "DT_FLOAT"}, "alpha": {"f": 0.2}}}, {"name": "StatefulPartitionedCall/model_1/model/leaky_re_lu_14/LeakyRelu", "op": "LeakyRelu", "input": ["StatefulPartitionedCall/model_1/model/batch_normalization_14/batchnorm/add_1"], "attr": {"T": {"type": "DT_FLOAT"}, "alpha": {"f": 0.2}}}, {"name": "StatefulPartitionedCall/model_1/model_1/leaky_re_lu_14/LeakyRelu", "op": "LeakyRelu", "input": ["StatefulPartitionedCall/model_1/model_1/batch_normalization_14/batchnorm/add_1"], "attr": {"T": {"type": "DT_FLOAT"}, "alpha": {"f": 0.2}}}, {"name": "StatefulPartitionedCall/model_1/max_pooling1d/ExpandDims", "op": "ExpandDims", "input": ["StatefulPartitionedCall/model_1/leaky_re_lu_2/LeakyRelu", "StatefulPartitionedCall/model_1/tf_op_layer_ExpandDims/ExpandDims/dim"], "attr": {"Tdim": {"type": "DT_INT32"}, "T": {"type": "DT_FLOAT"}}}, {"name": "StatefulPartitionedCall/model_1/batch_normalization_5/batchnorm/add_1", "op": "AddV2", "input": ["StatefulPartitionedCall/model_1/batch_normalization_5/batchnorm/mul_1", "StatefulPartitionedCall/model_1/batch_normalization_5/batchnorm/sub"], "attr": {"T": {"type": "DT_FLOAT"}}}, {"name": "StatefulPartitionedCall/model_1/batch_normalization_8/batchnorm/mul_1", "op": "Mul", "input": ["StatefulPartitionedCall/model_1/batch_normalization_8/batchnorm/mul", "StatefulPartitionedCall/model_1/conv1d_8/conv1d/Squeeze"], "attr": {"T": {"type": "DT_FLOAT"}}}, {"name": "StatefulPartitionedCall/model_1/max_pooling1d_2/ExpandDims", "op": "ExpandDims", "input": ["StatefulPartitionedCall/model_1/leaky_re_lu_11/LeakyRelu", "StatefulPartitionedCall/model_1/tf_op_layer_ExpandDims/ExpandDims/dim"], "attr": {"Tdim": {"type": "DT_INT32"}, "T": {"type": "DT_FLOAT"}}}, {"name": "StatefulPartitionedCall/model_1/model/max_pooling1d_3/ExpandDims", "op": "ExpandDims", "input": ["StatefulPartitionedCall/model_1/model/leaky_re_lu_14/LeakyRelu", "StatefulPartitionedCall/model_1/tf_op_layer_ExpandDims/ExpandDims/dim"], "attr": {"Tdim": {"type": "DT_INT32"}, "T": {"type": "DT_FLOAT"}}}, {"name": "StatefulPartitionedCall/model_1/model_1/max_pooling1d_3/ExpandDims", "op": "ExpandDims", "input": ["StatefulPartitionedCall/model_1/model_1/leaky_re_lu_14/LeakyRelu", "StatefulPartitionedCall/model_1/tf_op_layer_ExpandDims/ExpandDims/dim"], "attr": {"Tdim": {"type": "DT_INT32"}, "T": {"type": "DT_FLOAT"}}}, {"name": "StatefulPartitionedCall/model_1/max_pooling1d/MaxPool", "op": "MaxPool", "input": ["StatefulPartitionedCall/model_1/max_pooling1d/ExpandDims"], "attr": {"ksize": {"list": {"i": ["1", "2", "1", "1"]}}, "padding": {"s": "VkFMSUQ="}, "T": {"type": "DT_FLOAT"}, "data_format": {"s": "TkhXQw=="}, "strides": {"list": {"i": ["1", "2", "1", "1"]}}}}, {"name": "StatefulPartitionedCall/model_1/leaky_re_lu_5/LeakyRelu", "op": "LeakyRelu", "input": ["StatefulPartitionedCall/model_1/batch_normalization_5/batchnorm/add_1"], "attr": {"T": {"type": "DT_FLOAT"}, "alpha": {"f": 0.2}}}, {"name": "StatefulPartitionedCall/model_1/batch_normalization_8/batchnorm/add_1", "op": "AddV2", "input": ["StatefulPartitionedCall/model_1/batch_normalization_8/batchnorm/mul_1", "StatefulPartitionedCall/model_1/batch_normalization_8/batchnorm/sub"], "attr": {"T": {"type": "DT_FLOAT"}}}, {"name": "StatefulPartitionedCall/model_1/max_pooling1d_2/MaxPool", "op": "MaxPool", "input": ["StatefulPartitionedCall/model_1/max_pooling1d_2/ExpandDims"], "attr": {"ksize": {"list": {"i": ["1", "2", "1", "1"]}}, "padding": {"s": "VkFMSUQ="}, "T": {"type": "DT_FLOAT"}, "data_format": {"s": "TkhXQw=="}, "strides": {"list": {"i": ["1", "2", "1", "1"]}}}}, {"name": "StatefulPartitionedCall/model_1/model/max_pooling1d_3/MaxPool", "op": "MaxPool", "input": ["StatefulPartitionedCall/model_1/model/max_pooling1d_3/ExpandDims"], "attr": {"ksize": {"list": {"i": ["1", "2", "1", "1"]}}, "padding": {"s": "VkFMSUQ="}, "T": {"type": "DT_FLOAT"}, "data_format": {"s": "TkhXQw=="}, "strides": {"list": {"i": ["1", "2", "1", "1"]}}}}, {"name": "StatefulPartitionedCall/model_1/model_1/max_pooling1d_3/MaxPool", "op": "MaxPool", "input": ["StatefulPartitionedCall/model_1/model_1/max_pooling1d_3/ExpandDims"], "attr": {"ksize": {"list": {"i": ["1", "2", "1", "1"]}}, "padding": {"s": "VkFMSUQ="}, "T": {"type": "DT_FLOAT"}, "data_format": {"s": "TkhXQw=="}, "strides": {"list": {"i": ["1", "2", "1", "1"]}}}}, {"name": "StatefulPartitionedCall/model_1/max_pooling1d/Squeeze", "op": "Squeeze", "input": ["StatefulPartitionedCall/model_1/max_pooling1d/MaxPool"], "attr": {"squeeze_dims": {"list": {"i": ["2"]}}, "T": {"type": "DT_FLOAT"}}}, {"name": "StatefulPartitionedCall/model_1/max_pooling1d_1/ExpandDims", "op": "ExpandDims", "input": ["StatefulPartitionedCall/model_1/leaky_re_lu_5/LeakyRelu", "StatefulPartitionedCall/model_1/tf_op_layer_ExpandDims/ExpandDims/dim"], "attr": {"Tdim": {"type": "DT_INT32"}, "T": {"type": "DT_FLOAT"}}}, {"name": "StatefulPartitionedCall/model_1/leaky_re_lu_8/LeakyRelu", "op": "LeakyRelu", "input": ["StatefulPartitionedCall/model_1/batch_normalization_8/batchnorm/add_1"], "attr": {"T": {"type": "DT_FLOAT"}, "alpha": {"f": 0.2}}}, {"name": "StatefulPartitionedCall/model_1/max_pooling1d_2/Squeeze", "op": "Squeeze", "input": ["StatefulPartitionedCall/model_1/max_pooling1d_2/MaxPool"], "attr": {"squeeze_dims": {"list": {"i": ["2"]}}, "T": {"type": "DT_FLOAT"}}}, {"name": "StatefulPartitionedCall/model_1/model/max_pooling1d_3/Squeeze", "op": "Squeeze", "input": ["StatefulPartitionedCall/model_1/model/max_pooling1d_3/MaxPool"], "attr": {"squeeze_dims": {"list": {"i": ["2"]}}, "T": {"type": "DT_FLOAT"}}}, {"name": "StatefulPartitionedCall/model_1/model_1/max_pooling1d_3/Squeeze", "op": "Squeeze", "input": ["StatefulPartitionedCall/model_1/model_1/max_pooling1d_3/MaxPool"], "attr": {"squeeze_dims": {"list": {"i": ["2"]}}, "T": {"type": "DT_FLOAT"}}}, {"name": "StatefulPartitionedCall/model_1/max_pooling1d_1/MaxPool", "op": "MaxPool", "input": ["StatefulPartitionedCall/model_1/max_pooling1d_1/ExpandDims"], "attr": {"ksize": {"list": {"i": ["1", "2", "1", "1"]}}, "padding": {"s": "VkFMSUQ="}, "T": {"type": "DT_FLOAT"}, "data_format": {"s": "TkhXQw=="}, "strides": {"list": {"i": ["1", "2", "1", "1"]}}}}, {"name": "StatefulPartitionedCall/model_1/max_pooling1d_1/Squeeze", "op": "Squeeze", "input": ["StatefulPartitionedCall/model_1/max_pooling1d_1/MaxPool"], "attr": {"squeeze_dims": {"list": {"i": ["2"]}}, "T": {"type": "DT_FLOAT"}}}, {"name": "StatefulPartitionedCall/model_1/concatenate_2/concat", "op": "ConcatV2", "input": ["StatefulPartitionedCall/model_1/max_pooling1d/Squeeze", "StatefulPartitionedCall/model_1/max_pooling1d_1/Squeeze", "StatefulPartitionedCall/model_1/leaky_re_lu_8/LeakyRelu", "StatefulPartitionedCall/model_1/max_pooling1d_2/Squeeze", "StatefulPartitionedCall/model_1/model/max_pooling1d_3/Squeeze", "StatefulPartitionedCall/model_1/model_1/max_pooling1d_3/Squeeze", "StatefulPartitionedCall/model_1/tf_op_layer_ExpandDims/ExpandDims/dim"], "attr": {"Tidx": {"type": "DT_INT32"}, "T": {"type": "DT_FLOAT"}, "N": {"i": "6"}}}, {"name": "StatefulPartitionedCall/model_1/conv1d_15/conv1d/ExpandDims", "op": "ExpandDims", "input": ["StatefulPartitionedCall/model_1/concatenate_2/concat", "StatefulPartitionedCall/model_1/conv1d/conv1d/ExpandDims/dim"], "attr": {"Tdim": {"type": "DT_INT32"}, "T": {"type": "DT_FLOAT"}}}, {"name": "StatefulPartitionedCall/model_1/conv1d_15/conv1d", "op": "Conv2D", "input": ["StatefulPartitionedCall/model_1/conv1d_15/conv1d/ExpandDims", "StatefulPartitionedCall/model_1/conv1d_15/conv1d/ExpandDims_1"], "device": "/device:CPU:0", "attr": {"dilations": {"list": {"i": ["1", "1", "1", "1"]}}, "T": {"type": "DT_FLOAT"}, "data_format": {"s": "TkhXQw=="}, "strides": {"list": {"i": ["1", "1", "1", "1"]}}, "explicit_paddings": {"list": {}}, "use_cudnn_on_gpu": {"b": true}, "padding": {"s": "U0FNRQ=="}}}, {"name": "StatefulPartitionedCall/model_1/conv1d_15/conv1d/Squeeze", "op": "Squeeze", "input": ["StatefulPartitionedCall/model_1/conv1d_15/conv1d"], "attr": {"squeeze_dims": {"list": {"i": ["1"]}}, "T": {"type": "DT_FLOAT"}}}, {"name": "StatefulPartitionedCall/model_1/batch_normalization_15/batchnorm/mul_1", "op": "Mul", "input": ["StatefulPartitionedCall/model_1/batch_normalization_15/batchnorm/mul", "StatefulPartitionedCall/model_1/conv1d_15/conv1d/Squeeze"], "attr": {"T": {"type": "DT_FLOAT"}}}, {"name": "StatefulPartitionedCall/model_1/batch_normalization_15/batchnorm/add_1", "op": "AddV2", "input": ["StatefulPartitionedCall/model_1/batch_normalization_15/batchnorm/mul_1", "StatefulPartitionedCall/model_1/batch_normalization_15/batchnorm/sub"], "attr": {"T": {"type": "DT_FLOAT"}}}, {"name": "StatefulPartitionedCall/model_1/leaky_re_lu_15/LeakyRelu", "op": "LeakyRelu", "input": ["StatefulPartitionedCall/model_1/batch_normalization_15/batchnorm/add_1"], "attr": {"T": {"type": "DT_FLOAT"}, "alpha": {"f": 0.2}}}, {"name": "StatefulPartitionedCall/model_1/conv1d_16/conv1d/ExpandDims", "op": "ExpandDims", "input": ["StatefulPartitionedCall/model_1/leaky_re_lu_15/LeakyRelu", "StatefulPartitionedCall/model_1/conv1d/conv1d/ExpandDims/dim"], "attr": {"Tdim": {"type": "DT_INT32"}, "T": {"type": "DT_FLOAT"}}}, {"name": "StatefulPartitionedCall/model_1/conv1d_16/conv1d", "op": "Conv2D", "input": ["StatefulPartitionedCall/model_1/conv1d_16/conv1d/ExpandDims", "StatefulPartitionedCall/model_1/conv1d_16/conv1d/ExpandDims_1"], "device": "/device:CPU:0", "attr": {"dilations": {"list": {"i": ["1", "1", "1", "1"]}}, "T": {"type": "DT_FLOAT"}, "data_format": {"s": "TkhXQw=="}, "strides": {"list": {"i": ["1", "1", "1", "1"]}}, "explicit_paddings": {"list": {}}, "use_cudnn_on_gpu": {"b": true}, "padding": {"s": "U0FNRQ=="}}}, {"name": "StatefulPartitionedCall/model_1/conv1d_16/conv1d/Squeeze", "op": "Squeeze", "input": ["StatefulPartitionedCall/model_1/conv1d_16/conv1d"], "attr": {"squeeze_dims": {"list": {"i": ["1"]}}, "T": {"type": "DT_FLOAT"}}}, {"name": "StatefulPartitionedCall/model_1/batch_normalization_16/batchnorm/mul_1", "op": "Mul", "input": ["StatefulPartitionedCall/model_1/batch_normalization_16/batchnorm/mul", "StatefulPartitionedCall/model_1/conv1d_16/conv1d/Squeeze"], "attr": {"T": {"type": "DT_FLOAT"}}}, {"name": "StatefulPartitionedCall/model_1/batch_normalization_16/batchnorm/add_1", "op": "AddV2", "input": ["StatefulPartitionedCall/model_1/batch_normalization_16/batchnorm/mul_1", "StatefulPartitionedCall/model_1/batch_normalization_16/batchnorm/sub"], "attr": {"T": {"type": "DT_FLOAT"}}}, {"name": "StatefulPartitionedCall/model_1/leaky_re_lu_16/LeakyRelu", "op": "LeakyRelu", "input": ["StatefulPartitionedCall/model_1/batch_normalization_16/batchnorm/add_1"], "attr": {"T": {"type": "DT_FLOAT"}, "alpha": {"f": 0.2}}}, {"name": "StatefulPartitionedCall/model_1/max_pooling1d_4/ExpandDims", "op": "ExpandDims", "input": ["StatefulPartitionedCall/model_1/leaky_re_lu_16/LeakyRelu", "StatefulPartitionedCall/model_1/tf_op_layer_ExpandDims/ExpandDims/dim"], "attr": {"Tdim": {"type": "DT_INT32"}, "T": {"type": "DT_FLOAT"}}}, {"name": "StatefulPartitionedCall/model_1/max_pooling1d_4/MaxPool", "op": "MaxPool", "input": ["StatefulPartitionedCall/model_1/max_pooling1d_4/ExpandDims"], "attr": {"ksize": {"list": {"i": ["1", "2", "1", "1"]}}, "padding": {"s": "VkFMSUQ="}, "T": {"type": "DT_FLOAT"}, "data_format": {"s": "TkhXQw=="}, "strides": {"list": {"i": ["1", "2", "1", "1"]}}}}, {"name": "StatefulPartitionedCall/model_1/max_pooling1d_4/Squeeze", "op": "Squeeze", "input": ["StatefulPartitionedCall/model_1/max_pooling1d_4/MaxPool"], "attr": {"squeeze_dims": {"list": {"i": ["2"]}}, "T": {"type": "DT_FLOAT"}}}, {"name": "StatefulPartitionedCall/model_1/conv1d_17/conv1d/ExpandDims", "op": "ExpandDims", "input": ["StatefulPartitionedCall/model_1/max_pooling1d_4/Squeeze", "StatefulPartitionedCall/model_1/conv1d/conv1d/ExpandDims/dim"], "attr": {"Tdim": {"type": "DT_INT32"}, "T": {"type": "DT_FLOAT"}}}, {"name": "StatefulPartitionedCall/model_1/conv1d_17/conv1d", "op": "Conv2D", "input": ["StatefulPartitionedCall/model_1/conv1d_17/conv1d/ExpandDims", "StatefulPartitionedCall/model_1/conv1d_17/conv1d/ExpandDims_1"], "device": "/device:CPU:0", "attr": {"dilations": {"list": {"i": ["1", "1", "1", "1"]}}, "T": {"type": "DT_FLOAT"}, "data_format": {"s": "TkhXQw=="}, "strides": {"list": {"i": ["1", "1", "1", "1"]}}, "explicit_paddings": {"list": {}}, "use_cudnn_on_gpu": {"b": true}, "padding": {"s": "U0FNRQ=="}}}, {"name": "StatefulPartitionedCall/model_1/conv1d_17/conv1d/Squeeze", "op": "Squeeze", "input": ["StatefulPartitionedCall/model_1/conv1d_17/conv1d"], "attr": {"squeeze_dims": {"list": {"i": ["1"]}}, "T": {"type": "DT_FLOAT"}}}, {"name": "StatefulPartitionedCall/model_1/batch_normalization_17/batchnorm/mul_1", "op": "Mul", "input": ["StatefulPartitionedCall/model_1/batch_normalization_17/batchnorm/mul", "StatefulPartitionedCall/model_1/conv1d_17/conv1d/Squeeze"], "attr": {"T": {"type": "DT_FLOAT"}}}, {"name": "StatefulPartitionedCall/model_1/batch_normalization_17/batchnorm/add_1", "op": "AddV2", "input": ["StatefulPartitionedCall/model_1/batch_normalization_17/batchnorm/mul_1", "StatefulPartitionedCall/model_1/batch_normalization_17/batchnorm/sub"], "attr": {"T": {"type": "DT_FLOAT"}}}, {"name": "StatefulPartitionedCall/model_1/leaky_re_lu_17/LeakyRelu", "op": "LeakyRelu", "input": ["StatefulPartitionedCall/model_1/batch_normalization_17/batchnorm/add_1"], "attr": {"T": {"type": "DT_FLOAT"}, "alpha": {"f": 0.2}}}, {"name": "StatefulPartitionedCall/model_1/conv1d_18/conv1d/ExpandDims", "op": "ExpandDims", "input": ["StatefulPartitionedCall/model_1/leaky_re_lu_17/LeakyRelu", "StatefulPartitionedCall/model_1/conv1d/conv1d/ExpandDims/dim"], "attr": {"Tdim": {"type": "DT_INT32"}, "T": {"type": "DT_FLOAT"}}}, {"name": "StatefulPartitionedCall/model_1/conv1d_18/conv1d", "op": "Conv2D", "input": ["StatefulPartitionedCall/model_1/conv1d_18/conv1d/ExpandDims", "StatefulPartitionedCall/model_1/conv1d_18/conv1d/ExpandDims_1"], "device": "/device:CPU:0", "attr": {"dilations": {"list": {"i": ["1", "1", "1", "1"]}}, "T": {"type": "DT_FLOAT"}, "data_format": {"s": "TkhXQw=="}, "strides": {"list": {"i": ["1", "1", "1", "1"]}}, "explicit_paddings": {"list": {}}, "use_cudnn_on_gpu": {"b": true}, "padding": {"s": "U0FNRQ=="}}}, {"name": "StatefulPartitionedCall/model_1/conv1d_18/conv1d/Squeeze", "op": "Squeeze", "input": ["StatefulPartitionedCall/model_1/conv1d_18/conv1d"], "attr": {"squeeze_dims": {"list": {"i": ["1"]}}, "T": {"type": "DT_FLOAT"}}}, {"name": "StatefulPartitionedCall/model_1/batch_normalization_18/batchnorm/mul_1", "op": "Mul", "input": ["StatefulPartitionedCall/model_1/batch_normalization_18/batchnorm/mul", "StatefulPartitionedCall/model_1/conv1d_18/conv1d/Squeeze"], "attr": {"T": {"type": "DT_FLOAT"}}}, {"name": "StatefulPartitionedCall/model_1/batch_normalization_18/batchnorm/add_1", "op": "AddV2", "input": ["StatefulPartitionedCall/model_1/batch_normalization_18/batchnorm/mul_1", "StatefulPartitionedCall/model_1/batch_normalization_18/batchnorm/sub"], "attr": {"T": {"type": "DT_FLOAT"}}}, {"name": "StatefulPartitionedCall/model_1/leaky_re_lu_18/LeakyRelu", "op": "LeakyRelu", "input": ["StatefulPartitionedCall/model_1/batch_normalization_18/batchnorm/add_1"], "attr": {"T": {"type": "DT_FLOAT"}, "alpha": {"f": 0.2}}}, {"name": "StatefulPartitionedCall/model_1/max_pooling1d_5/ExpandDims", "op": "ExpandDims", "input": ["StatefulPartitionedCall/model_1/leaky_re_lu_18/LeakyRelu", "StatefulPartitionedCall/model_1/tf_op_layer_ExpandDims/ExpandDims/dim"], "attr": {"Tdim": {"type": "DT_INT32"}, "T": {"type": "DT_FLOAT"}}}, {"name": "StatefulPartitionedCall/model_1/max_pooling1d_5/MaxPool", "op": "MaxPool", "input": ["StatefulPartitionedCall/model_1/max_pooling1d_5/ExpandDims"], "attr": {"ksize": {"list": {"i": ["1", "2", "1", "1"]}}, "padding": {"s": "VkFMSUQ="}, "T": {"type": "DT_FLOAT"}, "data_format": {"s": "TkhXQw=="}, "strides": {"list": {"i": ["1", "2", "1", "1"]}}}}, {"name": "StatefulPartitionedCall/model_1/max_pooling1d_5/Squeeze", "op": "Squeeze", "input": ["StatefulPartitionedCall/model_1/max_pooling1d_5/MaxPool"], "attr": {"squeeze_dims": {"list": {"i": ["2"]}}, "T": {"type": "DT_FLOAT"}}}, {"name": "StatefulPartitionedCall/model_1/conv1d_19/conv1d/ExpandDims", "op": "ExpandDims", "input": ["StatefulPartitionedCall/model_1/max_pooling1d_5/Squeeze", "StatefulPartitionedCall/model_1/conv1d/conv1d/ExpandDims/dim"], "attr": {"Tdim": {"type": "DT_INT32"}, "T": {"type": "DT_FLOAT"}}}, {"name": "StatefulPartitionedCall/model_1/conv1d_19/conv1d", "op": "Conv2D", "input": ["StatefulPartitionedCall/model_1/conv1d_19/conv1d/ExpandDims", "StatefulPartitionedCall/model_1/conv1d_19/conv1d/ExpandDims_1"], "device": "/device:CPU:0", "attr": {"dilations": {"list": {"i": ["1", "1", "1", "1"]}}, "T": {"type": "DT_FLOAT"}, "data_format": {"s": "TkhXQw=="}, "strides": {"list": {"i": ["1", "1", "1", "1"]}}, "explicit_paddings": {"list": {}}, "use_cudnn_on_gpu": {"b": true}, "padding": {"s": "U0FNRQ=="}}}, {"name": "StatefulPartitionedCall/model_1/conv1d_19/conv1d/Squeeze", "op": "Squeeze", "input": ["StatefulPartitionedCall/model_1/conv1d_19/conv1d"], "attr": {"squeeze_dims": {"list": {"i": ["1"]}}, "T": {"type": "DT_FLOAT"}}}, {"name": "StatefulPartitionedCall/model_1/batch_normalization_19/batchnorm/mul_1", "op": "Mul", "input": ["StatefulPartitionedCall/model_1/batch_normalization_19/batchnorm/mul", "StatefulPartitionedCall/model_1/conv1d_19/conv1d/Squeeze"], "attr": {"T": {"type": "DT_FLOAT"}}}, {"name": "StatefulPartitionedCall/model_1/batch_normalization_19/batchnorm/add_1", "op": "AddV2", "input": ["StatefulPartitionedCall/model_1/batch_normalization_19/batchnorm/mul_1", "StatefulPartitionedCall/model_1/batch_normalization_19/batchnorm/sub"], "attr": {"T": {"type": "DT_FLOAT"}}}, {"name": "StatefulPartitionedCall/model_1/leaky_re_lu_19/LeakyRelu", "op": "LeakyRelu", "input": ["StatefulPartitionedCall/model_1/batch_normalization_19/batchnorm/add_1"], "attr": {"T": {"type": "DT_FLOAT"}, "alpha": {"f": 0.2}}}, {"name": "StatefulPartitionedCall/model_1/conv1d_20/conv1d/ExpandDims", "op": "ExpandDims", "input": ["StatefulPartitionedCall/model_1/leaky_re_lu_19/LeakyRelu", "StatefulPartitionedCall/model_1/conv1d/conv1d/ExpandDims/dim"], "attr": {"Tdim": {"type": "DT_INT32"}, "T": {"type": "DT_FLOAT"}}}, {"name": "StatefulPartitionedCall/model_1/conv1d_20/conv1d", "op": "Conv2D", "input": ["StatefulPartitionedCall/model_1/conv1d_20/conv1d/ExpandDims", "StatefulPartitionedCall/model_1/conv1d_20/conv1d/ExpandDims_1"], "device": "/device:CPU:0", "attr": {"dilations": {"list": {"i": ["1", "1", "1", "1"]}}, "T": {"type": "DT_FLOAT"}, "data_format": {"s": "TkhXQw=="}, "strides": {"list": {"i": ["1", "1", "1", "1"]}}, "explicit_paddings": {"list": {}}, "use_cudnn_on_gpu": {"b": true}, "padding": {"s": "U0FNRQ=="}}}, {"name": "StatefulPartitionedCall/model_1/conv1d_20/conv1d/Squeeze", "op": "Squeeze", "input": ["StatefulPartitionedCall/model_1/conv1d_20/conv1d"], "attr": {"squeeze_dims": {"list": {"i": ["1"]}}, "T": {"type": "DT_FLOAT"}}}, {"name": "StatefulPartitionedCall/model_1/batch_normalization_20/batchnorm/mul_1", "op": "Mul", "input": ["StatefulPartitionedCall/model_1/batch_normalization_20/batchnorm/mul", "StatefulPartitionedCall/model_1/conv1d_20/conv1d/Squeeze"], "attr": {"T": {"type": "DT_FLOAT"}}}, {"name": "StatefulPartitionedCall/model_1/batch_normalization_20/batchnorm/add_1", "op": "AddV2", "input": ["StatefulPartitionedCall/model_1/batch_normalization_20/batchnorm/mul_1", "StatefulPartitionedCall/model_1/batch_normalization_20/batchnorm/sub"], "attr": {"T": {"type": "DT_FLOAT"}}}, {"name": "StatefulPartitionedCall/model_1/leaky_re_lu_20/LeakyRelu", "op": "LeakyRelu", "input": ["StatefulPartitionedCall/model_1/batch_normalization_20/batchnorm/add_1"], "attr": {"T": {"type": "DT_FLOAT"}, "alpha": {"f": 0.2}}}, {"name": "StatefulPartitionedCall/model_1/global_max_pooling1d/Max", "op": "Max", "input": ["StatefulPartitionedCall/model_1/leaky_re_lu_20/LeakyRelu", "StatefulPartitionedCall/model_1/conv1d/conv1d/ExpandDims/dim"], "attr": {"Tidx": {"type": "DT_INT32"}, "keep_dims": {"b": false}, "T": {"type": "DT_FLOAT"}}}, {"name": "StatefulPartitionedCall/model_1/dense/MatMul", "op": "MatMul", "input": ["StatefulPartitionedCall/model_1/global_max_pooling1d/Max", "Func/StatefulPartitionedCall/input/_110"], "device": "/device:CPU:0", "attr": {"transpose_b": {"b": false}, "T": {"type": "DT_FLOAT"}, "transpose_a": {"b": false}}}, {"name": "StatefulPartitionedCall/model_1/batch_normalization_21/batchnorm/mul_1", "op": "Mul", "input": ["StatefulPartitionedCall/model_1/batch_normalization_21/batchnorm/mul", "StatefulPartitionedCall/model_1/dense/MatMul"], "attr": {"T": {"type": "DT_FLOAT"}}}, {"name": "StatefulPartitionedCall/model_1/batch_normalization_21/batchnorm/add_1", "op": "AddV2", "input": ["StatefulPartitionedCall/model_1/batch_normalization_21/batchnorm/mul_1", "StatefulPartitionedCall/model_1/batch_normalization_21/batchnorm/sub"], "attr": {"T": {"type": "DT_FLOAT"}}}, {"name": "StatefulPartitionedCall/model_1/leaky_re_lu_21/LeakyRelu", "op": "LeakyRelu", "input": ["StatefulPartitionedCall/model_1/batch_normalization_21/batchnorm/add_1"], "attr": {"T": {"type": "DT_FLOAT"}, "alpha": {"f": 0.2}}}, {"name": "StatefulPartitionedCall/model_1/dense_1/BiasAdd", "op": "_FusedMatMul", "input": ["StatefulPartitionedCall/model_1/leaky_re_lu_21/LeakyRelu", "Func/StatefulPartitionedCall/input/_115", "Func/StatefulPartitionedCall/input/_116"], "device": "/device:CPU:0", "attr": {"transpose_b": {"b": false}, "T": {"type": "DT_FLOAT"}, "num_args": {"i": "1"}, "epsilon": {"f": 0.0}, "fused_ops": {"list": {"s": ["Qmlhc0FkZA=="]}}, "transpose_a": {"b": false}}}, {"name": "StatefulPartitionedCall/model_1/dense_1/Softmax", "op": "Softmax", "input": ["StatefulPartitionedCall/model_1/dense_1/BiasAdd"], "attr": {"T": {"type": "DT_FLOAT"}}}, {"name": "Identity", "op": "Identity", "input": ["StatefulPartitionedCall/model_1/dense_1/Softmax"], "attr": {"T": {"type": "DT_FLOAT"}}}], "library": {}, "versions": {"producer": 175}}, "weightsManifest": [{"paths": ["group1-shard1of2.bin", "group1-shard2of2.bin"], "weights": [{"name": "StatefulPartitionedCall/model_1/batch_normalization_21/batchnorm/mul", "shape": [812], "dtype": "float32", "quantization": {"dtype": "float16", "original_dtype": "float32"}}, {"name": "StatefulPartitionedCall/model_1/batch_normalization_20/batchnorm/mul", "shape": [512], "dtype": "float32", "quantization": {"dtype": "float16", "original_dtype": "float32"}}, {"name": "StatefulPartitionedCall/model_1/batch_normalization_19/batchnorm/mul", "shape": [512], "dtype": "float32", "quantization": {"dtype": "float16", "original_dtype": "float32"}}, {"name": "StatefulPartitionedCall/model_1/batch_normalization_18/batchnorm/mul", "shape": [256], "dtype": "float32", "quantization": {"dtype": "float16", "original_dtype": "float32"}}, {"name": "StatefulPartitionedCall/model_1/batch_normalization_17/batchnorm/mul", "shape": [256], "dtype": "float32", "quantization": {"dtype": "float16", "original_dtype": "float32"}}, {"name": "StatefulPartitionedCall/model_1/batch_normalization_16/batchnorm/mul", "shape": [128], "dtype": "float32", "quantization": {"dtype": "float16", "original_dtype": "float32"}}, {"name": "StatefulPartitionedCall/model_1/batch_normalization_15/batchnorm/mul", "shape": [128], "dtype": "float32", "quantization": {"dtype": "float16", "original_dtype": "float32"}}, {"name": "StatefulPartitionedCall/model_1/batch_normalization_2/batchnorm/mul", "shape": [32], "dtype": "float32", "quantization": {"dtype": "float16", "original_dtype": "float32"}}, {"name": "StatefulPartitionedCall/model_1/batch_normalization_1/batchnorm/mul", "shape": [32], "dtype": "float32", "quantization": {"dtype": "float16", "original_dtype": "float32"}}, {"name": "StatefulPartitionedCall/model_1/batch_normalization/batchnorm/mul", "shape": [64], "dtype": "float32", "quantization": {"dtype": "float16", "original_dtype": "float32"}}, {"name": "StatefulPartitionedCall/model_1/tf_op_layer_Reshape/Reshape/shape", "shape": [3], "dtype": "int32"}, {"name": "StatefulPartitionedCall/model_1/conv1d/conv1d/ExpandDims_1", "shape": [1, 1, 169, 64], "dtype": "float32", "quantization": {"dtype": "float16", "original_dtype": "float32"}}, {"name": "StatefulPartitionedCall/model_1/batch_normalization/batchnorm/sub", "shape": [64], "dtype": "float32", "quantization": {"dtype": "float16", "original_dtype": "float32"}}, {"name": "StatefulPartitionedCall/model_1/conv1d_1/conv1d/ExpandDims_1", "shape": [1, 3, 64, 32], "dtype": "float32", "quantization": {"dtype": "float16", "original_dtype": "float32"}}, {"name": "StatefulPartitionedCall/model_1/batch_normalization_1/batchnorm/sub", "shape": [32], "dtype": "float32", "quantization": {"dtype": "float16", "original_dtype": "float32"}}, {"name": "StatefulPartitionedCall/model_1/conv1d_2/conv1d/ExpandDims_1", "shape": [1, 1, 32, 32], "dtype": "float32", "quantization": {"dtype": "float16", "original_dtype": "float32"}}, {"name": "StatefulPartitionedCall/model_1/batch_normalization_2/batchnorm/sub", "shape": [32], "dtype": "float32", "quantization": {"dtype": "float16", "original_dtype": "float32"}}, {"name": "StatefulPartitionedCall/model_1/batch_normalization_5/batchnorm/mul", "shape": [64], "dtype": "float32", "quantization": {"dtype": "float16", "original_dtype": "float32"}}, {"name": "StatefulPartitionedCall/model_1/batch_normalization_4/batchnorm/mul", "shape": [64], "dtype": "float32", "quantization": {"dtype": "float16", "original_dtype": "float32"}}, {"name": "StatefulPartitionedCall/model_1/batch_normalization_3/batchnorm/mul", "shape": [128], "dtype": "float32", "quantization": {"dtype": "float16", "original_dtype": "float32"}}, {"name": "StatefulPartitionedCall/model_1/tf_op_layer_Reshape_1/Reshape_1/shape", "shape": [3], "dtype": "int32"}, {"name": "StatefulPartitionedCall/model_1/conv1d_3/conv1d/ExpandDims_1", "shape": [1, 1, 84, 128], "dtype": "float32", "quantization": {"dtype": "float16", "original_dtype": "float32"}}, {"name": "StatefulPartitionedCall/model_1/batch_normalization_3/batchnorm/sub", "shape": [128], "dtype": "float32", "quantization": {"dtype": "float16", "original_dtype": "float32"}}, {"name": "StatefulPartitionedCall/model_1/conv1d_4/conv1d/ExpandDims_1", "shape": [1, 3, 128, 64], "dtype": "float32", "quantization": {"dtype": "float16", "original_dtype": "float32"}}, {"name": "StatefulPartitionedCall/model_1/batch_normalization_4/batchnorm/sub", "shape": [64], "dtype": "float32", "quantization": {"dtype": "float16", "original_dtype": "float32"}}, {"name": "StatefulPartitionedCall/model_1/conv1d_5/conv1d/ExpandDims_1", "shape": [1, 1, 64, 64], "dtype": "float32", "quantization": {"dtype": "float16", "original_dtype": "float32"}}, {"name": "StatefulPartitionedCall/model_1/batch_normalization_5/batchnorm/sub", "shape": [64], "dtype": "float32", "quantization": {"dtype": "float16", "original_dtype": "float32"}}, {"name": "StatefulPartitionedCall/model_1/batch_normalization_8/batchnorm/mul", "shape": [64], "dtype": "float32", "quantization": {"dtype": "float16", "original_dtype": "float32"}}, {"name": "StatefulPartitionedCall/model_1/batch_normalization_7/batchnorm/mul", "shape": [64], "dtype": "float32", "quantization": {"dtype": "float16", "original_dtype": "float32"}}, {"name": "StatefulPartitionedCall/model_1/batch_normalization_6/batchnorm/mul", "shape": [128], "dtype": "float32", "quantization": {"dtype": "float16", "original_dtype": "float32"}}, {"name": "StatefulPartitionedCall/model_1/tf_op_layer_strided_slice_2/strided_slice_2/stack_1", "shape": [4], "dtype": "int32"}, {"name": "StatefulPartitionedCall/model_1/tf_op_layer_strided_slice_3/strided_slice_3/stack_2", "shape": [4], "dtype": "int32"}, {"name": "StatefulPartitionedCall/model_1/tf_op_layer_strided_slice_2/strided_slice_2/stack", "shape": [4], "dtype": "int32"}, {"name": "StatefulPartitionedCall/model_1/tf_op_layer_strided_slice_1/strided_slice_1/stack_1", "shape": [4], "dtype": "int32"}, {"name": "StatefulPartitionedCall/model_1/tf_op_layer_strided_slice_2/strided_slice_2/stack_2", "shape": [4], "dtype": "int32"}, {"name": "StatefulPartitionedCall/model_1/tf_op_layer_Reshape_2/Reshape_2/shape", "shape": [3], "dtype": "int32"}, {"name": "StatefulPartitionedCall/model_1/conv1d_6/conv1d/ExpandDims_1", "shape": [1, 1, 84, 128], "dtype": "float32", "quantization": {"dtype": "float16", "original_dtype": "float32"}}, {"name": "StatefulPartitionedCall/model_1/batch_normalization_6/batchnorm/sub", "shape": [128], "dtype": "float32", "quantization": {"dtype": "float16", "original_dtype": "float32"}}, {"name": "StatefulPartitionedCall/model_1/conv1d_7/conv1d/ExpandDims_1", "shape": [1, 3, 128, 64], "dtype": "float32", "quantization": {"dtype": "float16", "original_dtype": "float32"}}, {"name": "StatefulPartitionedCall/model_1/batch_normalization_7/batchnorm/sub", "shape": [64], "dtype": "float32", "quantization": {"dtype": "float16", "original_dtype": "float32"}}, {"name": "StatefulPartitionedCall/model_1/conv1d_8/conv1d/ExpandDims_1", "shape": [1, 1, 64, 64], "dtype": "float32", "quantization": {"dtype": "float16", "original_dtype": "float32"}}, {"name": "StatefulPartitionedCall/model_1/batch_normalization_8/batchnorm/sub", "shape": [64], "dtype": "float32", "quantization": {"dtype": "float16", "original_dtype": "float32"}}, {"name": "StatefulPartitionedCall/model_1/batch_normalization_11/batchnorm/mul", "shape": [16], "dtype": "float32", "quantization": {"dtype": "float16", "original_dtype": "float32"}}, {"name": "StatefulPartitionedCall/model_1/batch_normalization_10/batchnorm/mul", "shape": [16], "dtype": "float32", "quantization": {"dtype": "float16", "original_dtype": "float32"}}, {"name": "StatefulPartitionedCall/model_1/batch_normalization_9/batchnorm/mul", "shape": [32], "dtype": "float32", "quantization": {"dtype": "float16", "original_dtype": "float32"}}, {"name": "StatefulPartitionedCall/model_1/tf_op_layer_Reshape_3/Reshape_3/shape", "shape": [3], "dtype": "int32"}, {"name": "StatefulPartitionedCall/model_1/conv1d_9/conv1d/ExpandDims_1", "shape": [1, 1, 576, 32], "dtype": "float32", "quantization": {"dtype": "float16", "original_dtype": "float32"}}, {"name": "StatefulPartitionedCall/model_1/batch_normalization_9/batchnorm/sub", "shape": [32], "dtype": "float32", "quantization": {"dtype": "float16", "original_dtype": "float32"}}, {"name": "StatefulPartitionedCall/model_1/conv1d_10/conv1d/ExpandDims_1", "shape": [1, 3, 32, 16], "dtype": "float32", "quantization": {"dtype": "float16", "original_dtype": "float32"}}, {"name": "StatefulPartitionedCall/model_1/batch_normalization_10/batchnorm/sub", "shape": [16], "dtype": "float32", "quantization": {"dtype": "float16", "original_dtype": "float32"}}, {"name": "StatefulPartitionedCall/model_1/conv1d_11/conv1d/ExpandDims_1", "shape": [1, 1, 16, 16], "dtype": "float32", "quantization": {"dtype": "float16", "original_dtype": "float32"}}, {"name": "StatefulPartitionedCall/model_1/batch_normalization_11/batchnorm/sub", "shape": [16], "dtype": "float32", "quantization": {"dtype": "float16", "original_dtype": "float32"}}, {"name": "StatefulPartitionedCall/model_1/model/batch_normalization_14/batchnorm/sub", "shape": [256], "dtype": "float32", "quantization": {"dtype": "float16", "original_dtype": "float32"}}, {"name": "StatefulPartitionedCall/model_1/model/batch_normalization_14/batchnorm/mul", "shape": [256], "dtype": "float32", "quantization": {"dtype": "float16", "original_dtype": "float32"}}, {"name": "StatefulPartitionedCall/model_1/model/batch_normalization_13/batchnorm/sub", "shape": [256], "dtype": "float32", "quantization": {"dtype": "float16", "original_dtype": "float32"}}, {"name": "StatefulPartitionedCall/model_1/model/batch_normalization_13/batchnorm/mul", "shape": [256], "dtype": "float32", "quantization": {"dtype": "float16", "original_dtype": "float32"}}, {"name": "StatefulPartitionedCall/model_1/model/batch_normalization_12/batchnorm/sub", "shape": [512], "dtype": "float32", "quantization": {"dtype": "float16", "original_dtype": "float32"}}, {"name": "StatefulPartitionedCall/model_1/model/batch_normalization_12/batchnorm/mul", "shape": [512], "dtype": "float32", "quantization": {"dtype": "float16", "original_dtype": "float32"}}, {"name": "StatefulPartitionedCall/model_1/tf_op_layer_ExpandDims_1/ExpandDims_1/dim", "shape": [], "dtype": "int32"}, {"name": "StatefulPartitionedCall/model_1/tf_op_layer_Sum/Sum/reduction_indices", "shape": [], "dtype": "int32"}, {"name": "StatefulPartitionedCall/model_1/tf_op_layer_Reshape_4/Reshape_4/shape", "shape": [3], "dtype": "int32"}, {"name": "StatefulPartitionedCall/model_1/model/conv1d_12/conv1d/ExpandDims_1", "shape": [1, 1, 441, 512], "dtype": "float32", "quantization": {"dtype": "float16", "original_dtype": "float32"}}, {"name": "StatefulPartitionedCall/model_1/model/conv1d_13/conv1d/ExpandDims_1", "shape": [1, 3, 512, 256], "dtype": "float32", "quantization": {"dtype": "float16", "original_dtype": "float32"}}, {"name": "StatefulPartitionedCall/model_1/model/conv1d_14/conv1d/ExpandDims_1", "shape": [1, 1, 256, 256], "dtype": "float32", "quantization": {"dtype": "float16", "original_dtype": "float32"}}, {"name": "StatefulPartitionedCall/model_1/conv1d_15/conv1d/ExpandDims_1", "shape": [1, 3, 688, 128], "dtype": "float32", "quantization": {"dtype": "float16", "original_dtype": "float32"}}, {"name": "StatefulPartitionedCall/model_1/batch_normalization_15/batchnorm/sub", "shape": [128], "dtype": "float32", "quantization": {"dtype": "float16", "original_dtype": "float32"}}, {"name": "StatefulPartitionedCall/model_1/conv1d_16/conv1d/ExpandDims_1", "shape": [1, 3, 128, 128], "dtype": "float32", "quantization": {"dtype": "float16", "original_dtype": "float32"}}, {"name": "StatefulPartitionedCall/model_1/batch_normalization_16/batchnorm/sub", "shape": [128], "dtype": "float32", "quantization": {"dtype": "float16", "original_dtype": "float32"}}, {"name": "StatefulPartitionedCall/model_1/conv1d_17/conv1d/ExpandDims_1", "shape": [1, 3, 128, 256], "dtype": "float32", "quantization": {"dtype": "float16", "original_dtype": "float32"}}, {"name": "StatefulPartitionedCall/model_1/batch_normalization_17/batchnorm/sub", "shape": [256], "dtype": "float32", "quantization": {"dtype": "float16", "original_dtype": "float32"}}, {"name": "StatefulPartitionedCall/model_1/conv1d_18/conv1d/ExpandDims_1", "shape": [1, 3, 256, 256], "dtype": "float32", "quantization": {"dtype": "float16", "original_dtype": "float32"}}, {"name": "StatefulPartitionedCall/model_1/batch_normalization_18/batchnorm/sub", "shape": [256], "dtype": "float32", "quantization": {"dtype": "float16", "original_dtype": "float32"}}, {"name": "StatefulPartitionedCall/model_1/tf_op_layer_ExpandDims/ExpandDims/dim", "shape": [], "dtype": "int32"}, {"name": "StatefulPartitionedCall/model_1/conv1d_19/conv1d/ExpandDims_1", "shape": [1, 3, 256, 512], "dtype": "float32", "quantization": {"dtype": "float16", "original_dtype": "float32"}}, {"name": "StatefulPartitionedCall/model_1/batch_normalization_19/batchnorm/sub", "shape": [512], "dtype": "float32", "quantization": {"dtype": "float16", "original_dtype": "float32"}}, {"name": "StatefulPartitionedCall/model_1/conv1d_20/conv1d/ExpandDims_1", "shape": [1, 3, 512, 512], "dtype": "float32", "quantization": {"dtype": "float16", "original_dtype": "float32"}}, {"name": "StatefulPartitionedCall/model_1/batch_normalization_20/batchnorm/sub", "shape": [512], "dtype": "float32", "quantization": {"dtype": "float16", "original_dtype": "float32"}}, {"name": "StatefulPartitionedCall/model_1/conv1d/conv1d/ExpandDims/dim", "shape": [], "dtype": "int32"}, {"name": "Func/StatefulPartitionedCall/input/_110", "shape": [512, 812], "dtype": "float32", "quantization": {"dtype": "float16", "original_dtype": "float32"}}, {"name": "StatefulPartitionedCall/model_1/batch_normalization_21/batchnorm/sub", "shape": [812], "dtype": "float32", "quantization": {"dtype": "float16", "original_dtype": "float32"}}, {"name": "Func/StatefulPartitionedCall/input/_115", "shape": [812, 56], "dtype": "float32", "quantization": {"dtype": "float16", "original_dtype": "float32"}}, {"name": "Func/StatefulPartitionedCall/input/_116", "shape": [56], "dtype": "float32", "quantization": {"dtype": "float16", "original_dtype": "float32"}}]}]}