{"format": "graph-model", "generatedBy": "2.4.1", "convertedBy": "TensorFlow.js Converter v2.8.5", "signature": {"inputs": {"pose_frames_input:0": {"name": "pose_frames_input:0", "dtype": "DT_FLOAT", "tensorShape": {"dim": [{"size": "1"}, {"size": "16"}, {"size": "13"}, {"size": "2"}]}}, "face_frames_input:0": {"name": "face_frames_input:0", "dtype": "DT_FLOAT", "tensorShape": {"dim": [{"size": "1"}, {"size": "16"}, {"size": "24"}, {"size": "2"}]}}, "right_hand_frames_input:0": {"name": "right_hand_frames_input:0", "dtype": "DT_FLOAT", "tensorShape": {"dim": [{"size": "1"}, {"size": "16"}, {"size": "21"}, {"size": "2"}]}}, "left_hand_frames_input:0": {"name": "left_hand_frames_input:0", "dtype": "DT_FLOAT", "tensorShape": {"dim": [{"size": "1"}, {"size": "16"}, {"size": "21"}, {"size": "2"}]}}}, "outputs": {"Identity:0": {"name": "Identity:0", "dtype": "DT_FLOAT", "tensorShape": {"dim": [{"size": "1"}, {"size": "100"}]}}, "Identity_1:0": {"name": "Identity_1:0", "dtype": "DT_FLOAT", "tensorShape": {"dim": [{"size": "1"}, {"size": "832"}]}}}}, "modelTopology": {"node": [{"name": "StatefulPartitionedCall/model_2/cls_out/MatMul/ReadVariableOp", "op": "Const", "attr": {"value": {"tensor": {"dtype": "DT_FLOAT", "tensorShape": {"dim": [{"size": "832"}, {"size": "100"}]}}}, "dtype": {"type": "DT_FLOAT"}}}, {"name": "StatefulPartitionedCall/model_2/cls_out/BiasAdd/ReadVariableOp", "op": "Const", "attr": {"value": {"tensor": {"dtype": "DT_FLOAT", "tensorShape": {"dim": [{"size": "100"}]}}}, "dtype": {"type": "DT_FLOAT"}}}, {"name": "StatefulPartitionedCall/model_2/model_1/p_re_lu_4/Neg", "op": "Const", "attr": {"value": {"tensor": {"dtype": "DT_FLOAT", "tensorShape": {"dim": [{"size": "1"}, {"size": "256"}]}}}, "dtype": {"type": "DT_FLOAT"}}}, {"name": "StatefulPartitionedCall/model_2/model_1/p_re_lu_3/Neg", "op": "Const", "attr": {"value": {"tensor": {"dtype": "DT_FLOAT", "tensorShape": {"dim": [{"size": "1"}, {"size": "256"}]}}}, "dtype": {"type": "DT_FLOAT"}}}, {"name": "StatefulPartitionedCall/model_2/model_1/p_re_lu_2/Neg", "op": "Const", "attr": {"value": {"tensor": {"dtype": "DT_FLOAT", "tensorShape": {"dim": [{"size": "1"}, {"size": "32"}]}}}, "dtype": {"type": "DT_FLOAT"}}}, {"name": "StatefulPartitionedCall/model_2/model_1/p_re_lu_1/Neg", "op": "Const", "attr": {"value": {"tensor": {"dtype": "DT_FLOAT", "tensorShape": {"dim": [{"size": "1"}, {"size": "32"}]}}}, "dtype": {"type": "DT_FLOAT"}}}, {"name": "StatefulPartitionedCall/model_2/model_1/p_re_lu/Neg", "op": "Const", "attr": {"value": {"tensor": {"dtype": "DT_FLOAT", "tensorShape": {"dim": [{"size": "1"}, {"size": "64"}]}}}, "dtype": {"type": "DT_FLOAT"}}}, {"name": "StatefulPartitionedCall/model_2/model_1/tf.expand_dims/ExpandDims/dim", "op": "Const", "attr": {"value": {"tensor": {"dtype": "DT_INT32", "tensorShape": {}}}, "dtype": {"type": "DT_INT32"}}}, {"name": "StatefulPartitionedCall/model_2/model_1/tf.expand_dims_1/ExpandDims/dim", "op": "Const", "attr": {"value": {"tensor": {"dtype": "DT_INT32", "tensorShape": {}}}, "dtype": {"type": "DT_INT32"}}}, {"name": "StatefulPartitionedCall/model_2/model_1/tf.math.reduce_sum/Sum/reduction_indices", "op": "Const", "attr": {"value": {"tensor": {"dtype": "DT_INT32", "tensorShape": {}}}, "dtype": {"type": "DT_INT32"}}}, {"name": "StatefulPartitionedCall/model_2/model_1/tf.reshape/Reshape/shape", "op": "Const", "attr": {"value": {"tensor": {"dtype": "DT_INT32", "tensorShape": {"dim": [{"size": "3"}]}}}, "dtype": {"type": "DT_INT32"}}}, {"name": "StatefulPartitionedCall/model_2/model_1/conv1d/conv1d/ExpandDims/dim", "op": "Const", "attr": {"value": {"tensor": {"dtype": "DT_INT32", "tensorShape": {}}}, "dtype": {"type": "DT_INT32"}}}, {"name": "StatefulPartitionedCall/model_2/model_1/conv1d/conv1d/ExpandDims_1", "op": "Const", "attr": {"value": {"tensor": {"dtype": "DT_FLOAT", "tensorShape": {"dim": [{"size": "1"}, {"size": "1"}, {"size": "169"}, {"size": "64"}]}}}, "dtype": {"type": "DT_FLOAT"}}}, {"name": "StatefulPartitionedCall/model_2/model_1/batch_normalization/batchnorm/mul", "op": "Const", "attr": {"value": {"tensor": {"dtype": "DT_FLOAT", "tensorShape": {"dim": [{"size": "64"}]}}}, "dtype": {"type": "DT_FLOAT"}}}, {"name": "StatefulPartitionedCall/model_2/model_1/batch_normalization/batchnorm/sub", "op": "Const", "attr": {"value": {"tensor": {"dtype": "DT_FLOAT", "tensorShape": {"dim": [{"size": "64"}]}}}, "dtype": {"type": "DT_FLOAT"}}}, {"name": "StatefulPartitionedCall/model_2/model_1/conv1d_1/conv1d/ExpandDims/dim", "op": "Const", "attr": {"value": {"tensor": {"dtype": "DT_INT32", "tensorShape": {}}}, "dtype": {"type": "DT_INT32"}}}, {"name": "StatefulPartitionedCall/model_2/model_1/conv1d_1/conv1d/ExpandDims_1", "op": "Const", "attr": {"value": {"tensor": {"dtype": "DT_FLOAT", "tensorShape": {"dim": [{"size": "1"}, {"size": "3"}, {"size": "64"}, {"size": "32"}]}}}, "dtype": {"type": "DT_FLOAT"}}}, {"name": "StatefulPartitionedCall/model_2/model_1/batch_normalization_1/batchnorm/mul", "op": "Const", "attr": {"value": {"tensor": {"dtype": "DT_FLOAT", "tensorShape": {"dim": [{"size": "32"}]}}}, "dtype": {"type": "DT_FLOAT"}}}, {"name": "StatefulPartitionedCall/model_2/model_1/batch_normalization_1/batchnorm/sub", "op": "Const", "attr": {"value": {"tensor": {"dtype": "DT_FLOAT", "tensorShape": {"dim": [{"size": "32"}]}}}, "dtype": {"type": "DT_FLOAT"}}}, {"name": "StatefulPartitionedCall/model_2/model_1/conv1d_2/conv1d/ExpandDims/dim", "op": "Const", "attr": {"value": {"tensor": {"dtype": "DT_INT32", "tensorShape": {}}}, "dtype": {"type": "DT_INT32"}}}, {"name": "StatefulPartitionedCall/model_2/model_1/conv1d_2/conv1d/ExpandDims_1", "op": "Const", "attr": {"value": {"tensor": {"dtype": "DT_FLOAT", "tensorShape": {"dim": [{"size": "1"}, {"size": "1"}, {"size": "32"}, {"size": "32"}]}}}, "dtype": {"type": "DT_FLOAT"}}}, {"name": "StatefulPartitionedCall/model_2/model_1/batch_normalization_2/batchnorm/mul", "op": "Const", "attr": {"value": {"tensor": {"dtype": "DT_FLOAT", "tensorShape": {"dim": [{"size": "32"}]}}}, "dtype": {"type": "DT_FLOAT"}}}, {"name": "StatefulPartitionedCall/model_2/model_1/batch_normalization_2/batchnorm/sub", "op": "Const", "attr": {"value": {"tensor": {"dtype": "DT_FLOAT", "tensorShape": {"dim": [{"size": "32"}]}}}, "dtype": {"type": "DT_FLOAT"}}}, {"name": "StatefulPartitionedCall/model_2/model_1/max_pooling1d/ExpandDims/dim", "op": "Const", "attr": {"value": {"tensor": {"dtype": "DT_INT32", "tensorShape": {}}}, "dtype": {"type": "DT_INT32"}}}, {"name": "StatefulPartitionedCall/model_2/model_1/conv1d_3/conv1d/ExpandDims/dim", "op": "Const", "attr": {"value": {"tensor": {"dtype": "DT_INT32", "tensorShape": {}}}, "dtype": {"type": "DT_INT32"}}}, {"name": "StatefulPartitionedCall/model_2/model_1/conv1d_3/conv1d/ExpandDims_1", "op": "Const", "attr": {"value": {"tensor": {"dtype": "DT_FLOAT", "tensorShape": {"dim": [{"size": "1"}, {"size": "3"}, {"size": "32"}, {"size": "256"}]}}}, "dtype": {"type": "DT_FLOAT"}}}, {"name": "StatefulPartitionedCall/model_2/model_1/batch_normalization_3/batchnorm/mul", "op": "Const", "attr": {"value": {"tensor": {"dtype": "DT_FLOAT", "tensorShape": {"dim": [{"size": "256"}]}}}, "dtype": {"type": "DT_FLOAT"}}}, {"name": "StatefulPartitionedCall/model_2/model_1/batch_normalization_3/batchnorm/sub", "op": "Const", "attr": {"value": {"tensor": {"dtype": "DT_FLOAT", "tensorShape": {"dim": [{"size": "256"}]}}}, "dtype": {"type": "DT_FLOAT"}}}, {"name": "StatefulPartitionedCall/model_2/model_1/max_pooling1d_1/ExpandDims/dim", "op": "Const", "attr": {"value": {"tensor": {"dtype": "DT_INT32", "tensorShape": {}}}, "dtype": {"type": "DT_INT32"}}}, {"name": "StatefulPartitionedCall/model_2/model_1/conv1d_4/conv1d/ExpandDims/dim", "op": "Const", "attr": {"value": {"tensor": {"dtype": "DT_INT32", "tensorShape": {}}}, "dtype": {"type": "DT_INT32"}}}, {"name": "StatefulPartitionedCall/model_2/model_1/conv1d_4/conv1d/ExpandDims_1", "op": "Const", "attr": {"value": {"tensor": {"dtype": "DT_FLOAT", "tensorShape": {"dim": [{"size": "1"}, {"size": "3"}, {"size": "256"}, {"size": "256"}]}}}, "dtype": {"type": "DT_FLOAT"}}}, {"name": "StatefulPartitionedCall/model_2/model_1/batch_normalization_4/batchnorm/mul", "op": "Const", "attr": {"dtype": {"type": "DT_FLOAT"}, "value": {"tensor": {"dtype": "DT_FLOAT", "tensorShape": {"dim": [{"size": "256"}]}}}}}, {"name": "StatefulPartitionedCall/model_2/model_1/batch_normalization_4/batchnorm/sub", "op": "Const", "attr": {"dtype": {"type": "DT_FLOAT"}, "value": {"tensor": {"dtype": "DT_FLOAT", "tensorShape": {"dim": [{"size": "256"}]}}}}}, {"name": "StatefulPartitionedCall/model_2/model_1/max_pooling1d_2/ExpandDims/dim", "op": "Const", "attr": {"dtype": {"type": "DT_INT32"}, "value": {"tensor": {"dtype": "DT_INT32", "tensorShape": {}}}}}, {"name": "StatefulPartitionedCall/model_2/model_1/flatten/Const", "op": "Const", "attr": {"dtype": {"type": "DT_INT32"}, "value": {"tensor": {"dtype": "DT_INT32", "tensorShape": {"dim": [{"size": "2"}]}}}}}, {"name": "StatefulPartitionedCall/model_2/model_1/dense/MatMul/ReadVariableOp", "op": "Const", "attr": {"value": {"tensor": {"dtype": "DT_FLOAT", "tensorShape": {"dim": [{"size": "256"}, {"size": "256"}]}}}, "dtype": {"type": "DT_FLOAT"}}}, {"name": "StatefulPartitionedCall/model_2/model_1/dense/BiasAdd/ReadVariableOp", "op": "Const", "attr": {"value": {"tensor": {"dtype": "DT_FLOAT", "tensorShape": {"dim": [{"size": "256"}]}}}, "dtype": {"type": "DT_FLOAT"}}}, {"name": "StatefulPartitionedCall/model_2/model_1/tf.math.l2_normalize/l2_normalize/Sum/reduction_indices", "op": "Const", "attr": {"value": {"tensor": {"dtype": "DT_INT32", "tensorShape": {}}}, "dtype": {"type": "DT_INT32"}}}, {"name": "StatefulPartitionedCall/model_2/model_1/tf.math.l2_normalize/l2_normalize/Maximum/y", "op": "Const", "attr": {"value": {"tensor": {"dtype": "DT_FLOAT", "tensorShape": {}}}, "dtype": {"type": "DT_FLOAT"}}}, {"name": "StatefulPartitionedCall/model_2/model_1/p_re_lu_9/Neg", "op": "Const", "attr": {"value": {"tensor": {"dtype": "DT_FLOAT", "tensorShape": {"dim": [{"size": "1"}, {"size": "128"}]}}}, "dtype": {"type": "DT_FLOAT"}}}, {"name": "StatefulPartitionedCall/model_2/model_1/p_re_lu_8/Neg", "op": "Const", "attr": {"value": {"tensor": {"dtype": "DT_FLOAT", "tensorShape": {"dim": [{"size": "1"}, {"size": "128"}]}}}, "dtype": {"type": "DT_FLOAT"}}}, {"name": "StatefulPartitionedCall/model_2/model_1/p_re_lu_7/Neg", "op": "Const", "attr": {"value": {"tensor": {"dtype": "DT_FLOAT", "tensorShape": {"dim": [{"size": "1"}, {"size": "32"}]}}}, "dtype": {"type": "DT_FLOAT"}}}, {"name": "StatefulPartitionedCall/model_2/model_1/p_re_lu_6/Neg", "op": "Const", "attr": {"value": {"tensor": {"dtype": "DT_FLOAT", "tensorShape": {"dim": [{"size": "1"}, {"size": "32"}]}}}, "dtype": {"type": "DT_FLOAT"}}}, {"name": "StatefulPartitionedCall/model_2/model_1/p_re_lu_5/Neg", "op": "Const", "attr": {"value": {"tensor": {"dtype": "DT_FLOAT", "tensorShape": {"dim": [{"size": "1"}, {"size": "64"}]}}}, "dtype": {"type": "DT_FLOAT"}}}, {"name": "StatefulPartitionedCall/model_2/model_1/tf.expand_dims_4/ExpandDims/dim", "op": "Const", "attr": {"value": {"tensor": {"dtype": "DT_INT32", "tensorShape": {}}}, "dtype": {"type": "DT_INT32"}}}, {"name": "StatefulPartitionedCall/model_2/model_1/tf.expand_dims_5/ExpandDims/dim", "op": "Const", "attr": {"value": {"tensor": {"dtype": "DT_INT32", "tensorShape": {}}}, "dtype": {"type": "DT_INT32"}}}, {"name": "StatefulPartitionedCall/model_2/model_1/tf.math.reduce_sum_1/Sum/reduction_indices", "op": "Const", "attr": {"value": {"tensor": {"dtype": "DT_INT32", "tensorShape": {}}}, "dtype": {"type": "DT_INT32"}}}, {"name": "StatefulPartitionedCall/model_2/model_1/tf.reshape_3/Reshape/shape", "op": "Const", "attr": {"value": {"tensor": {"dtype": "DT_INT32", "tensorShape": {"dim": [{"size": "3"}]}}}, "dtype": {"type": "DT_INT32"}}}, {"name": "StatefulPartitionedCall/model_2/model_1/conv1d_5/conv1d/ExpandDims/dim", "op": "Const", "attr": {"value": {"tensor": {"dtype": "DT_INT32", "tensorShape": {}}}, "dtype": {"type": "DT_INT32"}}}, {"name": "StatefulPartitionedCall/model_2/model_1/conv1d_5/conv1d/ExpandDims_1", "op": "Const", "attr": {"value": {"tensor": {"dtype": "DT_FLOAT", "tensorShape": {"dim": [{"size": "1"}, {"size": "1"}, {"size": "576"}, {"size": "64"}]}}}, "dtype": {"type": "DT_FLOAT"}}}, {"name": "StatefulPartitionedCall/model_2/model_1/batch_normalization_5/batchnorm/mul", "op": "Const", "attr": {"value": {"tensor": {"dtype": "DT_FLOAT", "tensorShape": {"dim": [{"size": "64"}]}}}, "dtype": {"type": "DT_FLOAT"}}}, {"name": "StatefulPartitionedCall/model_2/model_1/batch_normalization_5/batchnorm/sub", "op": "Const", "attr": {"value": {"tensor": {"dtype": "DT_FLOAT", "tensorShape": {"dim": [{"size": "64"}]}}}, "dtype": {"type": "DT_FLOAT"}}}, {"name": "StatefulPartitionedCall/model_2/model_1/conv1d_6/conv1d/ExpandDims/dim", "op": "Const", "attr": {"value": {"tensor": {"dtype": "DT_INT32", "tensorShape": {}}}, "dtype": {"type": "DT_INT32"}}}, {"name": "StatefulPartitionedCall/model_2/model_1/conv1d_6/conv1d/ExpandDims_1", "op": "Const", "attr": {"value": {"tensor": {"dtype": "DT_FLOAT", "tensorShape": {"dim": [{"size": "1"}, {"size": "3"}, {"size": "64"}, {"size": "32"}]}}}, "dtype": {"type": "DT_FLOAT"}}}, {"name": "StatefulPartitionedCall/model_2/model_1/batch_normalization_6/batchnorm/mul", "op": "Const", "attr": {"value": {"tensor": {"dtype": "DT_FLOAT", "tensorShape": {"dim": [{"size": "32"}]}}}, "dtype": {"type": "DT_FLOAT"}}}, {"name": "StatefulPartitionedCall/model_2/model_1/batch_normalization_6/batchnorm/sub", "op": "Const", "attr": {"value": {"tensor": {"dtype": "DT_FLOAT", "tensorShape": {"dim": [{"size": "32"}]}}}, "dtype": {"type": "DT_FLOAT"}}}, {"name": "StatefulPartitionedCall/model_2/model_1/conv1d_7/conv1d/ExpandDims/dim", "op": "Const", "attr": {"value": {"tensor": {"dtype": "DT_INT32", "tensorShape": {}}}, "dtype": {"type": "DT_INT32"}}}, {"name": "StatefulPartitionedCall/model_2/model_1/conv1d_7/conv1d/ExpandDims_1", "op": "Const", "attr": {"value": {"tensor": {"dtype": "DT_FLOAT", "tensorShape": {"dim": [{"size": "1"}, {"size": "1"}, {"size": "32"}, {"size": "32"}]}}}, "dtype": {"type": "DT_FLOAT"}}}, {"name": "StatefulPartitionedCall/model_2/model_1/batch_normalization_7/batchnorm/mul", "op": "Const", "attr": {"value": {"tensor": {"dtype": "DT_FLOAT", "tensorShape": {"dim": [{"size": "32"}]}}}, "dtype": {"type": "DT_FLOAT"}}}, {"name": "StatefulPartitionedCall/model_2/model_1/batch_normalization_7/batchnorm/sub", "op": "Const", "attr": {"value": {"tensor": {"dtype": "DT_FLOAT", "tensorShape": {"dim": [{"size": "32"}]}}}, "dtype": {"type": "DT_FLOAT"}}}, {"name": "StatefulPartitionedCall/model_2/model_1/max_pooling1d_3/ExpandDims/dim", "op": "Const", "attr": {"value": {"tensor": {"dtype": "DT_INT32", "tensorShape": {}}}, "dtype": {"type": "DT_INT32"}}}, {"name": "StatefulPartitionedCall/model_2/model_1/conv1d_8/conv1d/ExpandDims/dim", "op": "Const", "attr": {"value": {"tensor": {"dtype": "DT_INT32", "tensorShape": {}}}, "dtype": {"type": "DT_INT32"}}}, {"name": "StatefulPartitionedCall/model_2/model_1/conv1d_8/conv1d/ExpandDims_1", "op": "Const", "attr": {"value": {"tensor": {"dtype": "DT_FLOAT", "tensorShape": {"dim": [{"size": "1"}, {"size": "3"}, {"size": "32"}, {"size": "128"}]}}}, "dtype": {"type": "DT_FLOAT"}}}, {"name": "StatefulPartitionedCall/model_2/model_1/batch_normalization_8/batchnorm/mul", "op": "Const", "attr": {"value": {"tensor": {"dtype": "DT_FLOAT", "tensorShape": {"dim": [{"size": "128"}]}}}, "dtype": {"type": "DT_FLOAT"}}}, {"name": "StatefulPartitionedCall/model_2/model_1/batch_normalization_8/batchnorm/sub", "op": "Const", "attr": {"value": {"tensor": {"dtype": "DT_FLOAT", "tensorShape": {"dim": [{"size": "128"}]}}}, "dtype": {"type": "DT_FLOAT"}}}, {"name": "StatefulPartitionedCall/model_2/model_1/max_pooling1d_4/ExpandDims/dim", "op": "Const", "attr": {"value": {"tensor": {"dtype": "DT_INT32", "tensorShape": {}}}, "dtype": {"type": "DT_INT32"}}}, {"name": "StatefulPartitionedCall/model_2/model_1/conv1d_9/conv1d/ExpandDims/dim", "op": "Const", "attr": {"value": {"tensor": {"dtype": "DT_INT32", "tensorShape": {}}}, "dtype": {"type": "DT_INT32"}}}, {"name": "StatefulPartitionedCall/model_2/model_1/conv1d_9/conv1d/ExpandDims_1", "op": "Const", "attr": {"value": {"tensor": {"dtype": "DT_FLOAT", "tensorShape": {"dim": [{"size": "1"}, {"size": "3"}, {"size": "128"}, {"size": "128"}]}}}, "dtype": {"type": "DT_FLOAT"}}}, {"name": "StatefulPartitionedCall/model_2/model_1/batch_normalization_9/batchnorm/mul", "op": "Const", "attr": {"value": {"tensor": {"dtype": "DT_FLOAT", "tensorShape": {"dim": [{"size": "128"}]}}}, "dtype": {"type": "DT_FLOAT"}}}, {"name": "StatefulPartitionedCall/model_2/model_1/batch_normalization_9/batchnorm/sub", "op": "Const", "attr": {"value": {"tensor": {"dtype": "DT_FLOAT", "tensorShape": {"dim": [{"size": "128"}]}}}, "dtype": {"type": "DT_FLOAT"}}}, {"name": "StatefulPartitionedCall/model_2/model_1/max_pooling1d_5/ExpandDims/dim", "op": "Const", "attr": {"value": {"tensor": {"dtype": "DT_INT32", "tensorShape": {}}}, "dtype": {"type": "DT_INT32"}}}, {"name": "StatefulPartitionedCall/model_2/model_1/flatten_1/Const", "op": "Const", "attr": {"value": {"tensor": {"dtype": "DT_INT32", "tensorShape": {"dim": [{"size": "2"}]}}}, "dtype": {"type": "DT_INT32"}}}, {"name": "StatefulPartitionedCall/model_2/model_1/dense_1/MatMul/ReadVariableOp", "op": "Const", "attr": {"value": {"tensor": {"dtype": "DT_FLOAT", "tensorShape": {"dim": [{"size": "128"}, {"size": "64"}]}}}, "dtype": {"type": "DT_FLOAT"}}}, {"name": "StatefulPartitionedCall/model_2/model_1/dense_1/BiasAdd/ReadVariableOp", "op": "Const", "attr": {"value": {"tensor": {"dtype": "DT_FLOAT", "tensorShape": {"dim": [{"size": "64"}]}}}, "dtype": {"type": "DT_FLOAT"}}}, {"name": "StatefulPartitionedCall/model_2/model_1/tf.math.l2_normalize_1/l2_normalize/Sum/reduction_indices", "op": "Const", "attr": {"value": {"tensor": {"dtype": "DT_INT32", "tensorShape": {}}}, "dtype": {"type": "DT_INT32"}}}, {"name": "StatefulPartitionedCall/model_2/model_1/tf.math.l2_normalize_1/l2_normalize/Maximum/y", "op": "Const", "attr": {"value": {"tensor": {"dtype": "DT_FLOAT", "tensorShape": {}}}, "dtype": {"type": "DT_FLOAT"}}}, {"name": "StatefulPartitionedCall/model_2/model_1/p_re_lu_20/Neg", "op": "Const", "attr": {"value": {"tensor": {"dtype": "DT_FLOAT", "tensorShape": {"dim": [{"size": "1"}, {"size": "512"}]}}}, "dtype": {"type": "DT_FLOAT"}}}, {"name": "StatefulPartitionedCall/model_2/model_1/p_re_lu_19/Neg", "op": "Const", "attr": {"dtype": {"type": "DT_FLOAT"}, "value": {"tensor": {"dtype": "DT_FLOAT", "tensorShape": {"dim": [{"size": "1"}, {"size": "256"}]}}}}}, {"name": "StatefulPartitionedCall/model_2/model_1/p_re_lu_12/Neg", "op": "Const", "attr": {"value": {"tensor": {"dtype": "DT_FLOAT", "tensorShape": {"dim": [{"size": "1"}, {"size": "64"}]}}}, "dtype": {"type": "DT_FLOAT"}}}, {"name": "StatefulPartitionedCall/model_2/model_1/p_re_lu_11/Neg", "op": "Const", "attr": {"value": {"tensor": {"dtype": "DT_FLOAT", "tensorShape": {"dim": [{"size": "1"}, {"size": "64"}]}}}, "dtype": {"type": "DT_FLOAT"}}}, {"name": "StatefulPartitionedCall/model_2/model_1/p_re_lu_10/Neg", "op": "Const", "attr": {"dtype": {"type": "DT_FLOAT"}, "value": {"tensor": {"dtype": "DT_FLOAT", "tensorShape": {"dim": [{"size": "1"}, {"size": "128"}]}}}}}, {"name": "StatefulPartitionedCall/model_2/model_1/tf.__operators__.getitem_2/strided_slice/stack", "op": "Const", "attr": {"dtype": {"type": "DT_INT32"}, "value": {"tensor": {"dtype": "DT_INT32", "tensorShape": {"dim": [{"size": "4"}]}}}}}, {"name": "StatefulPartitionedCall/model_2/model_1/tf.__operators__.getitem_2/strided_slice/stack_1", "op": "Const", "attr": {"dtype": {"type": "DT_INT32"}, "value": {"tensor": {"dtype": "DT_INT32", "tensorShape": {"dim": [{"size": "4"}]}}}}}, {"name": "StatefulPartitionedCall/model_2/model_1/tf.__operators__.getitem_2/strided_slice/stack_2", "op": "Const", "attr": {"dtype": {"type": "DT_INT32"}, "value": {"tensor": {"dtype": "DT_INT32", "tensorShape": {"dim": [{"size": "4"}]}}}}}, {"name": "StatefulPartitionedCall/model_2/model_1/tf.expand_dims_2/ExpandDims/dim", "op": "Const", "attr": {"dtype": {"type": "DT_INT32"}, "value": {"tensor": {"dtype": "DT_INT32", "tensorShape": {}}}}}, {"name": "StatefulPartitionedCall/model_2/model_1/tf.__operators__.getitem/strided_slice/stack", "op": "Const", "attr": {"dtype": {"type": "DT_INT32"}, "value": {"tensor": {"dtype": "DT_INT32", "tensorShape": {"dim": [{"size": "4"}]}}}}}, {"name": "StatefulPartitionedCall/model_2/model_1/tf.__operators__.getitem/strided_slice/stack_1", "op": "Const", "attr": {"dtype": {"type": "DT_INT32"}, "value": {"tensor": {"dtype": "DT_INT32", "tensorShape": {"dim": [{"size": "4"}]}}}}}, {"name": "StatefulPartitionedCall/model_2/model_1/tf.__operators__.getitem/strided_slice/stack_2", "op": "Const", "attr": {"dtype": {"type": "DT_INT32"}, "value": {"tensor": {"dtype": "DT_INT32", "tensorShape": {"dim": [{"size": "4"}]}}}}}, {"name": "StatefulPartitionedCall/model_2/model_1/tf.__operators__.getitem_1/strided_slice/stack", "op": "Const", "attr": {"dtype": {"type": "DT_INT32"}, "value": {"tensor": {"dtype": "DT_INT32", "tensorShape": {"dim": [{"size": "4"}]}}}}}, {"name": "StatefulPartitionedCall/model_2/model_1/tf.__operators__.getitem_1/strided_slice/stack_1", "op": "Const", "attr": {"dtype": {"type": "DT_INT32"}, "value": {"tensor": {"dtype": "DT_INT32", "tensorShape": {"dim": [{"size": "4"}]}}}}}, {"name": "StatefulPartitionedCall/model_2/model_1/tf.__operators__.getitem_1/strided_slice/stack_2", "op": "Const", "attr": {"dtype": {"type": "DT_INT32"}, "value": {"tensor": {"dtype": "DT_INT32", "tensorShape": {"dim": [{"size": "4"}]}}}}}, {"name": "StatefulPartitionedCall/model_2/model_1/tf.concat/concat/axis", "op": "Const", "attr": {"dtype": {"type": "DT_INT32"}, "value": {"tensor": {"dtype": "DT_INT32", "tensorShape": {}}}}}, {"name": "StatefulPartitionedCall/model_2/model_1/tf.reshape_1/Reshape/shape", "op": "Const", "attr": {"dtype": {"type": "DT_INT32"}, "value": {"tensor": {"dtype": "DT_INT32", "tensorShape": {"dim": [{"size": "3"}]}}}}}, {"name": "StatefulPartitionedCall/model_2/model_1/conv1d_10/conv1d/ExpandDims/dim", "op": "Const", "attr": {"dtype": {"type": "DT_INT32"}, "value": {"tensor": {"dtype": "DT_INT32", "tensorShape": {}}}}}, {"name": "StatefulPartitionedCall/model_2/model_1/conv1d_10/conv1d/ExpandDims_1", "op": "Const", "attr": {"dtype": {"type": "DT_FLOAT"}, "value": {"tensor": {"dtype": "DT_FLOAT", "tensorShape": {"dim": [{"size": "1"}, {"size": "1"}, {"size": "84"}, {"size": "128"}]}}}}}, {"name": "StatefulPartitionedCall/model_2/model_1/batch_normalization_10/batchnorm/mul", "op": "Const", "attr": {"dtype": {"type": "DT_FLOAT"}, "value": {"tensor": {"dtype": "DT_FLOAT", "tensorShape": {"dim": [{"size": "128"}]}}}}}, {"name": "StatefulPartitionedCall/model_2/model_1/batch_normalization_10/batchnorm/sub", "op": "Const", "attr": {"dtype": {"type": "DT_FLOAT"}, "value": {"tensor": {"dtype": "DT_FLOAT", "tensorShape": {"dim": [{"size": "128"}]}}}}}, {"name": "StatefulPartitionedCall/model_2/model_1/conv1d_11/conv1d/ExpandDims/dim", "op": "Const", "attr": {"dtype": {"type": "DT_INT32"}, "value": {"tensor": {"dtype": "DT_INT32", "tensorShape": {}}}}}, {"name": "StatefulPartitionedCall/model_2/model_1/conv1d_11/conv1d/ExpandDims_1", "op": "Const", "attr": {"dtype": {"type": "DT_FLOAT"}, "value": {"tensor": {"dtype": "DT_FLOAT", "tensorShape": {"dim": [{"size": "1"}, {"size": "3"}, {"size": "128"}, {"size": "64"}]}}}}}, {"name": "StatefulPartitionedCall/model_2/model_1/batch_normalization_11/batchnorm/mul", "op": "Const", "attr": {"dtype": {"type": "DT_FLOAT"}, "value": {"tensor": {"dtype": "DT_FLOAT", "tensorShape": {"dim": [{"size": "64"}]}}}}}, {"name": "StatefulPartitionedCall/model_2/model_1/batch_normalization_11/batchnorm/sub", "op": "Const", "attr": {"dtype": {"type": "DT_FLOAT"}, "value": {"tensor": {"dtype": "DT_FLOAT", "tensorShape": {"dim": [{"size": "64"}]}}}}}, {"name": "StatefulPartitionedCall/model_2/model_1/conv1d_12/conv1d/ExpandDims/dim", "op": "Const", "attr": {"dtype": {"type": "DT_INT32"}, "value": {"tensor": {"dtype": "DT_INT32", "tensorShape": {}}}}}, {"name": "StatefulPartitionedCall/model_2/model_1/conv1d_12/conv1d/ExpandDims_1", "op": "Const", "attr": {"dtype": {"type": "DT_FLOAT"}, "value": {"tensor": {"dtype": "DT_FLOAT", "tensorShape": {"dim": [{"size": "1"}, {"size": "1"}, {"size": "64"}, {"size": "64"}]}}}}}, {"name": "StatefulPartitionedCall/model_2/model_1/batch_normalization_12/batchnorm/mul", "op": "Const", "attr": {"dtype": {"type": "DT_FLOAT"}, "value": {"tensor": {"dtype": "DT_FLOAT", "tensorShape": {"dim": [{"size": "64"}]}}}}}, {"name": "StatefulPartitionedCall/model_2/model_1/batch_normalization_12/batchnorm/sub", "op": "Const", "attr": {"dtype": {"type": "DT_FLOAT"}, "value": {"tensor": {"dtype": "DT_FLOAT", "tensorShape": {"dim": [{"size": "64"}]}}}}}, {"name": "StatefulPartitionedCall/model_2/model_1/max_pooling1d_6/ExpandDims/dim", "op": "Const", "attr": {"dtype": {"type": "DT_INT32"}, "value": {"tensor": {"dtype": "DT_INT32", "tensorShape": {}}}}}, {"name": "StatefulPartitionedCall/model_2/model_1/p_re_lu_15/Neg", "op": "Const", "attr": {"dtype": {"type": "DT_FLOAT"}, "value": {"tensor": {"dtype": "DT_FLOAT", "tensorShape": {"dim": [{"size": "1"}, {"size": "64"}]}}}}}, {"name": "StatefulPartitionedCall/model_2/model_1/p_re_lu_14/Neg", "op": "Const", "attr": {"dtype": {"type": "DT_FLOAT"}, "value": {"tensor": {"dtype": "DT_FLOAT", "tensorShape": {"dim": [{"size": "1"}, {"size": "64"}]}}}}}, {"name": "StatefulPartitionedCall/model_2/model_1/p_re_lu_13/Neg", "op": "Const", "attr": {"dtype": {"type": "DT_FLOAT"}, "value": {"tensor": {"dtype": "DT_FLOAT", "tensorShape": {"dim": [{"size": "1"}, {"size": "128"}]}}}}}, {"name": "StatefulPartitionedCall/model_2/model_1/tf.__operators__.getitem_6/strided_slice/stack", "op": "Const", "attr": {"dtype": {"type": "DT_INT32"}, "value": {"tensor": {"dtype": "DT_INT32", "tensorShape": {"dim": [{"size": "4"}]}}}}}, {"name": "StatefulPartitionedCall/model_2/model_1/tf.__operators__.getitem_6/strided_slice/stack_1", "op": "Const", "attr": {"dtype": {"type": "DT_INT32"}, "value": {"tensor": {"dtype": "DT_INT32", "tensorShape": {"dim": [{"size": "4"}]}}}}}, {"name": "StatefulPartitionedCall/model_2/model_1/tf.__operators__.getitem_6/strided_slice/stack_2", "op": "Const", "attr": {"dtype": {"type": "DT_INT32"}, "value": {"tensor": {"dtype": "DT_INT32", "tensorShape": {"dim": [{"size": "4"}]}}}}}, {"name": "StatefulPartitionedCall/model_2/model_1/tf.expand_dims_3/ExpandDims/dim", "op": "Const", "attr": {"value": {"tensor": {"dtype": "DT_INT32", "tensorShape": {}}}, "dtype": {"type": "DT_INT32"}}}, {"name": "StatefulPartitionedCall/model_2/model_1/tf.__operators__.getitem_4/strided_slice/stack", "op": "Const", "attr": {"value": {"tensor": {"dtype": "DT_INT32", "tensorShape": {"dim": [{"size": "4"}]}}}, "dtype": {"type": "DT_INT32"}}}, {"name": "StatefulPartitionedCall/model_2/model_1/tf.__operators__.getitem_4/strided_slice/stack_1", "op": "Const", "attr": {"value": {"tensor": {"dtype": "DT_INT32", "tensorShape": {"dim": [{"size": "4"}]}}}, "dtype": {"type": "DT_INT32"}}}, {"name": "StatefulPartitionedCall/model_2/model_1/tf.__operators__.getitem_4/strided_slice/stack_2", "op": "Const", "attr": {"value": {"tensor": {"dtype": "DT_INT32", "tensorShape": {"dim": [{"size": "4"}]}}}, "dtype": {"type": "DT_INT32"}}}, {"name": "StatefulPartitionedCall/model_2/model_1/concatenate/concat/axis", "op": "Const", "attr": {"value": {"tensor": {"dtype": "DT_INT32", "tensorShape": {}}}, "dtype": {"type": "DT_INT32"}}}, {"name": "StatefulPartitionedCall/model_2/model_1/tf.__operators__.getitem_3/strided_slice/stack", "op": "Const", "attr": {"value": {"tensor": {"dtype": "DT_INT32", "tensorShape": {"dim": [{"size": "4"}]}}}, "dtype": {"type": "DT_INT32"}}}, {"name": "StatefulPartitionedCall/model_2/model_1/tf.__operators__.getitem_3/strided_slice/stack_1", "op": "Const", "attr": {"value": {"tensor": {"dtype": "DT_INT32", "tensorShape": {"dim": [{"size": "4"}]}}}, "dtype": {"type": "DT_INT32"}}}, {"name": "StatefulPartitionedCall/model_2/model_1/tf.__operators__.getitem_3/strided_slice/stack_2", "op": "Const", "attr": {"value": {"tensor": {"dtype": "DT_INT32", "tensorShape": {"dim": [{"size": "4"}]}}}, "dtype": {"type": "DT_INT32"}}}, {"name": "StatefulPartitionedCall/model_2/model_1/tf.__operators__.getitem_5/strided_slice/stack", "op": "Const", "attr": {"value": {"tensor": {"dtype": "DT_INT32", "tensorShape": {"dim": [{"size": "4"}]}}}, "dtype": {"type": "DT_INT32"}}}, {"name": "StatefulPartitionedCall/model_2/model_1/tf.__operators__.getitem_5/strided_slice/stack_1", "op": "Const", "attr": {"value": {"tensor": {"dtype": "DT_INT32", "tensorShape": {"dim": [{"size": "4"}]}}}, "dtype": {"type": "DT_INT32"}}}, {"name": "StatefulPartitionedCall/model_2/model_1/tf.__operators__.getitem_5/strided_slice/stack_2", "op": "Const", "attr": {"value": {"tensor": {"dtype": "DT_INT32", "tensorShape": {"dim": [{"size": "4"}]}}}, "dtype": {"type": "DT_INT32"}}}, {"name": "StatefulPartitionedCall/model_2/model_1/tf.concat_1/concat/axis", "op": "Const", "attr": {"value": {"tensor": {"dtype": "DT_INT32", "tensorShape": {}}}, "dtype": {"type": "DT_INT32"}}}, {"name": "StatefulPartitionedCall/model_2/model_1/tf.reshape_2/Reshape/shape", "op": "Const", "attr": {"value": {"tensor": {"dtype": "DT_INT32", "tensorShape": {"dim": [{"size": "3"}]}}}, "dtype": {"type": "DT_INT32"}}}, {"name": "StatefulPartitionedCall/model_2/model_1/conv1d_13/conv1d/ExpandDims/dim", "op": "Const", "attr": {"value": {"tensor": {"dtype": "DT_INT32", "tensorShape": {}}}, "dtype": {"type": "DT_INT32"}}}, {"name": "StatefulPartitionedCall/model_2/model_1/conv1d_13/conv1d/ExpandDims_1", "op": "Const", "attr": {"value": {"tensor": {"dtype": "DT_FLOAT", "tensorShape": {"dim": [{"size": "1"}, {"size": "1"}, {"size": "84"}, {"size": "128"}]}}}, "dtype": {"type": "DT_FLOAT"}}}, {"name": "StatefulPartitionedCall/model_2/model_1/batch_normalization_13/batchnorm/mul", "op": "Const", "attr": {"value": {"tensor": {"dtype": "DT_FLOAT", "tensorShape": {"dim": [{"size": "128"}]}}}, "dtype": {"type": "DT_FLOAT"}}}, {"name": "StatefulPartitionedCall/model_2/model_1/batch_normalization_13/batchnorm/sub", "op": "Const", "attr": {"value": {"tensor": {"dtype": "DT_FLOAT", "tensorShape": {"dim": [{"size": "128"}]}}}, "dtype": {"type": "DT_FLOAT"}}}, {"name": "StatefulPartitionedCall/model_2/model_1/conv1d_14/conv1d/ExpandDims/dim", "op": "Const", "attr": {"value": {"tensor": {"dtype": "DT_INT32", "tensorShape": {}}}, "dtype": {"type": "DT_INT32"}}}, {"name": "StatefulPartitionedCall/model_2/model_1/conv1d_14/conv1d/ExpandDims_1", "op": "Const", "attr": {"value": {"tensor": {"dtype": "DT_FLOAT", "tensorShape": {"dim": [{"size": "1"}, {"size": "3"}, {"size": "128"}, {"size": "64"}]}}}, "dtype": {"type": "DT_FLOAT"}}}, {"name": "StatefulPartitionedCall/model_2/model_1/batch_normalization_14/batchnorm/mul", "op": "Const", "attr": {"value": {"tensor": {"dtype": "DT_FLOAT", "tensorShape": {"dim": [{"size": "64"}]}}}, "dtype": {"type": "DT_FLOAT"}}}, {"name": "StatefulPartitionedCall/model_2/model_1/batch_normalization_14/batchnorm/sub", "op": "Const", "attr": {"value": {"tensor": {"dtype": "DT_FLOAT", "tensorShape": {"dim": [{"size": "64"}]}}}, "dtype": {"type": "DT_FLOAT"}}}, {"name": "StatefulPartitionedCall/model_2/model_1/conv1d_15/conv1d/ExpandDims/dim", "op": "Const", "attr": {"value": {"tensor": {"dtype": "DT_INT32", "tensorShape": {}}}, "dtype": {"type": "DT_INT32"}}}, {"name": "StatefulPartitionedCall/model_2/model_1/conv1d_15/conv1d/ExpandDims_1", "op": "Const", "attr": {"value": {"tensor": {"dtype": "DT_FLOAT", "tensorShape": {"dim": [{"size": "1"}, {"size": "1"}, {"size": "64"}, {"size": "64"}]}}}, "dtype": {"type": "DT_FLOAT"}}}, {"name": "StatefulPartitionedCall/model_2/model_1/batch_normalization_15/batchnorm/mul", "op": "Const", "attr": {"dtype": {"type": "DT_FLOAT"}, "value": {"tensor": {"dtype": "DT_FLOAT", "tensorShape": {"dim": [{"size": "64"}]}}}}}, {"name": "StatefulPartitionedCall/model_2/model_1/batch_normalization_15/batchnorm/sub", "op": "Const", "attr": {"dtype": {"type": "DT_FLOAT"}, "value": {"tensor": {"dtype": "DT_FLOAT", "tensorShape": {"dim": [{"size": "64"}]}}}}}, {"name": "StatefulPartitionedCall/model_2/model_1/model/p_re_lu_18/Neg", "op": "Const", "attr": {"dtype": {"type": "DT_FLOAT"}, "value": {"tensor": {"dtype": "DT_FLOAT", "tensorShape": {"dim": [{"size": "1"}, {"size": "256"}]}}}}}, {"name": "StatefulPartitionedCall/model_2/model_1/model/p_re_lu_17/Neg", "op": "Const", "attr": {"dtype": {"type": "DT_FLOAT"}, "value": {"tensor": {"dtype": "DT_FLOAT", "tensorShape": {"dim": [{"size": "1"}, {"size": "256"}]}}}}}, {"name": "StatefulPartitionedCall/model_2/model_1/model/p_re_lu_16/Neg", "op": "Const", "attr": {"dtype": {"type": "DT_FLOAT"}, "value": {"tensor": {"dtype": "DT_FLOAT", "tensorShape": {"dim": [{"size": "1"}, {"size": "512"}]}}}}}, {"name": "StatefulPartitionedCall/model_2/model_1/tf.expand_dims_6/ExpandDims/dim", "op": "Const", "attr": {"value": {"tensor": {"dtype": "DT_INT32", "tensorShape": {}}}, "dtype": {"type": "DT_INT32"}}}, {"name": "StatefulPartitionedCall/model_2/model_1/tf.expand_dims_7/ExpandDims/dim", "op": "Const", "attr": {"dtype": {"type": "DT_INT32"}, "value": {"tensor": {"dtype": "DT_INT32", "tensorShape": {}}}}}, {"name": "StatefulPartitionedCall/model_2/model_1/tf.math.reduce_sum_2/Sum/reduction_indices", "op": "Const", "attr": {"dtype": {"type": "DT_INT32"}, "value": {"tensor": {"dtype": "DT_INT32", "tensorShape": {}}}}}, {"name": "StatefulPartitionedCall/model_2/model_1/tf.reshape_4/Reshape/shape", "op": "Const", "attr": {"dtype": {"type": "DT_INT32"}, "value": {"tensor": {"dtype": "DT_INT32", "tensorShape": {"dim": [{"size": "3"}]}}}}}, {"name": "StatefulPartitionedCall/model_2/model_1/model/conv1d_16/conv1d/ExpandDims/dim", "op": "Const", "attr": {"dtype": {"type": "DT_INT32"}, "value": {"tensor": {"dtype": "DT_INT32", "tensorShape": {}}}}}, {"name": "StatefulPartitionedCall/model_2/model_1/model/conv1d_16/conv1d/ExpandDims_1", "op": "Const", "attr": {"dtype": {"type": "DT_FLOAT"}, "value": {"tensor": {"dtype": "DT_FLOAT", "tensorShape": {"dim": [{"size": "1"}, {"size": "1"}, {"size": "441"}, {"size": "512"}]}}}}}, {"name": "StatefulPartitionedCall/model_2/model_1/model/batch_normalization_16/batchnorm/mul", "op": "Const", "attr": {"value": {"tensor": {"dtype": "DT_FLOAT", "tensorShape": {"dim": [{"size": "512"}]}}}, "dtype": {"type": "DT_FLOAT"}}}, {"name": "StatefulPartitionedCall/model_2/model_1/model/batch_normalization_16/batchnorm/sub", "op": "Const", "attr": {"value": {"tensor": {"dtype": "DT_FLOAT", "tensorShape": {"dim": [{"size": "512"}]}}}, "dtype": {"type": "DT_FLOAT"}}}, {"name": "StatefulPartitionedCall/model_2/model_1/model/conv1d_17/conv1d/ExpandDims/dim", "op": "Const", "attr": {"value": {"tensor": {"dtype": "DT_INT32", "tensorShape": {}}}, "dtype": {"type": "DT_INT32"}}}, {"name": "StatefulPartitionedCall/model_2/model_1/model/conv1d_17/conv1d/ExpandDims_1", "op": "Const", "attr": {"value": {"tensor": {"dtype": "DT_FLOAT", "tensorShape": {"dim": [{"size": "1"}, {"size": "3"}, {"size": "512"}, {"size": "256"}]}}}, "dtype": {"type": "DT_FLOAT"}}}, {"name": "StatefulPartitionedCall/model_2/model_1/model/batch_normalization_17/batchnorm/mul", "op": "Const", "attr": {"value": {"tensor": {"dtype": "DT_FLOAT", "tensorShape": {"dim": [{"size": "256"}]}}}, "dtype": {"type": "DT_FLOAT"}}}, {"name": "StatefulPartitionedCall/model_2/model_1/model/batch_normalization_17/batchnorm/sub", "op": "Const", "attr": {"value": {"tensor": {"dtype": "DT_FLOAT", "tensorShape": {"dim": [{"size": "256"}]}}}, "dtype": {"type": "DT_FLOAT"}}}, {"name": "StatefulPartitionedCall/model_2/model_1/model/conv1d_18/conv1d/ExpandDims/dim", "op": "Const", "attr": {"value": {"tensor": {"dtype": "DT_INT32", "tensorShape": {}}}, "dtype": {"type": "DT_INT32"}}}, {"name": "StatefulPartitionedCall/model_2/model_1/model/conv1d_18/conv1d/ExpandDims_1", "op": "Const", "attr": {"value": {"tensor": {"dtype": "DT_FLOAT", "tensorShape": {"dim": [{"size": "1"}, {"size": "1"}, {"size": "256"}, {"size": "256"}]}}}, "dtype": {"type": "DT_FLOAT"}}}, {"name": "StatefulPartitionedCall/model_2/model_1/model/batch_normalization_18/batchnorm/mul", "op": "Const", "attr": {"value": {"tensor": {"dtype": "DT_FLOAT", "tensorShape": {"dim": [{"size": "256"}]}}}, "dtype": {"type": "DT_FLOAT"}}}, {"name": "StatefulPartitionedCall/model_2/model_1/model/batch_normalization_18/batchnorm/sub", "op": "Const", "attr": {"value": {"tensor": {"dtype": "DT_FLOAT", "tensorShape": {"dim": [{"size": "256"}]}}}, "dtype": {"type": "DT_FLOAT"}}}, {"name": "StatefulPartitionedCall/model_2/model_1/model/max_pooling1d_7/ExpandDims/dim", "op": "Const", "attr": {"value": {"tensor": {"dtype": "DT_INT32", "tensorShape": {}}}, "dtype": {"type": "DT_INT32"}}}, {"name": "StatefulPartitionedCall/model_2/model_1/model/p_re_lu_18/Neg_2", "op": "Const", "attr": {"value": {"tensor": {"dtype": "DT_FLOAT", "tensorShape": {"dim": [{"size": "1"}, {"size": "256"}]}}}, "dtype": {"type": "DT_FLOAT"}}}, {"name": "StatefulPartitionedCall/model_2/model_1/model/p_re_lu_17/Neg_2", "op": "Const", "attr": {"value": {"tensor": {"dtype": "DT_FLOAT", "tensorShape": {"dim": [{"size": "1"}, {"size": "256"}]}}}, "dtype": {"type": "DT_FLOAT"}}}, {"name": "StatefulPartitionedCall/model_2/model_1/model/p_re_lu_16/Neg_2", "op": "Const", "attr": {"value": {"tensor": {"dtype": "DT_FLOAT", "tensorShape": {"dim": [{"size": "1"}, {"size": "512"}]}}}, "dtype": {"type": "DT_FLOAT"}}}, {"name": "StatefulPartitionedCall/model_2/model_1/tf.expand_dims_8/ExpandDims/dim", "op": "Const", "attr": {"value": {"tensor": {"dtype": "DT_INT32", "tensorShape": {}}}, "dtype": {"type": "DT_INT32"}}}, {"name": "StatefulPartitionedCall/model_2/model_1/tf.expand_dims_9/ExpandDims/dim", "op": "Const", "attr": {"value": {"tensor": {"dtype": "DT_INT32", "tensorShape": {}}}, "dtype": {"type": "DT_INT32"}}}, {"name": "StatefulPartitionedCall/model_2/model_1/tf.math.reduce_sum_3/Sum/reduction_indices", "op": "Const", "attr": {"value": {"tensor": {"dtype": "DT_INT32", "tensorShape": {}}}, "dtype": {"type": "DT_INT32"}}}, {"name": "StatefulPartitionedCall/model_2/model_1/tf.reshape_5/Reshape/shape", "op": "Const", "attr": {"value": {"tensor": {"dtype": "DT_INT32", "tensorShape": {"dim": [{"size": "3"}]}}}, "dtype": {"type": "DT_INT32"}}}, {"name": "StatefulPartitionedCall/model_2/model_1/model/conv1d_16/conv1d_1/ExpandDims/dim", "op": "Const", "attr": {"value": {"tensor": {"dtype": "DT_INT32", "tensorShape": {}}}, "dtype": {"type": "DT_INT32"}}}, {"name": "StatefulPartitionedCall/model_2/model_1/model/conv1d_16/conv1d_1/ExpandDims_1", "op": "Const", "attr": {"value": {"tensor": {"dtype": "DT_FLOAT", "tensorShape": {"dim": [{"size": "1"}, {"size": "1"}, {"size": "441"}, {"size": "512"}]}}}, "dtype": {"type": "DT_FLOAT"}}}, {"name": "StatefulPartitionedCall/model_2/model_1/model/batch_normalization_16/batchnorm_1/mul", "op": "Const", "attr": {"value": {"tensor": {"dtype": "DT_FLOAT", "tensorShape": {"dim": [{"size": "512"}]}}}, "dtype": {"type": "DT_FLOAT"}}}, {"name": "StatefulPartitionedCall/model_2/model_1/model/batch_normalization_16/batchnorm_1/sub", "op": "Const", "attr": {"value": {"tensor": {"dtype": "DT_FLOAT", "tensorShape": {"dim": [{"size": "512"}]}}}, "dtype": {"type": "DT_FLOAT"}}}, {"name": "StatefulPartitionedCall/model_2/model_1/model/conv1d_17/conv1d_1/ExpandDims/dim", "op": "Const", "attr": {"value": {"tensor": {"dtype": "DT_INT32", "tensorShape": {}}}, "dtype": {"type": "DT_INT32"}}}, {"name": "StatefulPartitionedCall/model_2/model_1/model/conv1d_17/conv1d_1/ExpandDims_1", "op": "Const", "attr": {"value": {"tensor": {"dtype": "DT_FLOAT", "tensorShape": {"dim": [{"size": "1"}, {"size": "3"}, {"size": "512"}, {"size": "256"}]}}}, "dtype": {"type": "DT_FLOAT"}}}, {"name": "StatefulPartitionedCall/model_2/model_1/model/batch_normalization_17/batchnorm_1/mul", "op": "Const", "attr": {"value": {"tensor": {"dtype": "DT_FLOAT", "tensorShape": {"dim": [{"size": "256"}]}}}, "dtype": {"type": "DT_FLOAT"}}}, {"name": "StatefulPartitionedCall/model_2/model_1/model/batch_normalization_17/batchnorm_1/sub", "op": "Const", "attr": {"value": {"tensor": {"dtype": "DT_FLOAT", "tensorShape": {"dim": [{"size": "256"}]}}}, "dtype": {"type": "DT_FLOAT"}}}, {"name": "StatefulPartitionedCall/model_2/model_1/model/conv1d_18/conv1d_1/ExpandDims/dim", "op": "Const", "attr": {"value": {"tensor": {"dtype": "DT_INT32", "tensorShape": {}}}, "dtype": {"type": "DT_INT32"}}}, {"name": "StatefulPartitionedCall/model_2/model_1/model/conv1d_18/conv1d_1/ExpandDims_1", "op": "Const", "attr": {"value": {"tensor": {"dtype": "DT_FLOAT", "tensorShape": {"dim": [{"size": "1"}, {"size": "1"}, {"size": "256"}, {"size": "256"}]}}}, "dtype": {"type": "DT_FLOAT"}}}, {"name": "StatefulPartitionedCall/model_2/model_1/model/batch_normalization_18/batchnorm_1/mul", "op": "Const", "attr": {"value": {"tensor": {"dtype": "DT_FLOAT", "tensorShape": {"dim": [{"size": "256"}]}}}, "dtype": {"type": "DT_FLOAT"}}}, {"name": "StatefulPartitionedCall/model_2/model_1/model/batch_normalization_18/batchnorm_1/sub", "op": "Const", "attr": {"value": {"tensor": {"dtype": "DT_FLOAT", "tensorShape": {"dim": [{"size": "256"}]}}}, "dtype": {"type": "DT_FLOAT"}}}, {"name": "StatefulPartitionedCall/model_2/model_1/model/max_pooling1d_7/ExpandDims_1/dim", "op": "Const", "attr": {"value": {"tensor": {"dtype": "DT_INT32", "tensorShape": {}}}, "dtype": {"type": "DT_INT32"}}}, {"name": "StatefulPartitionedCall/model_2/model_1/concatenate_1/concat/axis", "op": "Const", "attr": {"value": {"tensor": {"dtype": "DT_INT32", "tensorShape": {}}}, "dtype": {"type": "DT_INT32"}}}, {"name": "StatefulPartitionedCall/model_2/model_1/conv1d_19/conv1d/ExpandDims/dim", "op": "Const", "attr": {"value": {"tensor": {"dtype": "DT_INT32", "tensorShape": {}}}, "dtype": {"type": "DT_INT32"}}}, {"name": "StatefulPartitionedCall/model_2/model_1/conv1d_19/conv1d/ExpandDims_1", "op": "Const", "attr": {"value": {"tensor": {"dtype": "DT_FLOAT", "tensorShape": {"dim": [{"size": "1"}, {"size": "3"}, {"size": "640"}, {"size": "256"}]}}}, "dtype": {"type": "DT_FLOAT"}}}, {"name": "StatefulPartitionedCall/model_2/model_1/batch_normalization_19/batchnorm/mul", "op": "Const", "attr": {"value": {"tensor": {"dtype": "DT_FLOAT", "tensorShape": {"dim": [{"size": "256"}]}}}, "dtype": {"type": "DT_FLOAT"}}}, {"name": "StatefulPartitionedCall/model_2/model_1/batch_normalization_19/batchnorm/sub", "op": "Const", "attr": {"value": {"tensor": {"dtype": "DT_FLOAT", "tensorShape": {"dim": [{"size": "256"}]}}}, "dtype": {"type": "DT_FLOAT"}}}, {"name": "StatefulPartitionedCall/model_2/model_1/max_pooling1d_8/ExpandDims/dim", "op": "Const", "attr": {"value": {"tensor": {"dtype": "DT_INT32", "tensorShape": {}}}, "dtype": {"type": "DT_INT32"}}}, {"name": "StatefulPartitionedCall/model_2/model_1/conv1d_20/conv1d/ExpandDims/dim", "op": "Const", "attr": {"value": {"tensor": {"dtype": "DT_INT32", "tensorShape": {}}}, "dtype": {"type": "DT_INT32"}}}, {"name": "StatefulPartitionedCall/model_2/model_1/conv1d_20/conv1d/ExpandDims_1", "op": "Const", "attr": {"value": {"tensor": {"dtype": "DT_FLOAT", "tensorShape": {"dim": [{"size": "1"}, {"size": "3"}, {"size": "256"}, {"size": "512"}]}}}, "dtype": {"type": "DT_FLOAT"}}}, {"name": "StatefulPartitionedCall/model_2/model_1/batch_normalization_20/batchnorm/mul", "op": "Const", "attr": {"value": {"tensor": {"dtype": "DT_FLOAT", "tensorShape": {"dim": [{"size": "512"}]}}}, "dtype": {"type": "DT_FLOAT"}}}, {"name": "StatefulPartitionedCall/model_2/model_1/batch_normalization_20/batchnorm/sub", "op": "Const", "attr": {"value": {"tensor": {"dtype": "DT_FLOAT", "tensorShape": {"dim": [{"size": "512"}]}}}, "dtype": {"type": "DT_FLOAT"}}}, {"name": "StatefulPartitionedCall/model_2/model_1/max_pooling1d_9/ExpandDims/dim", "op": "Const", "attr": {"value": {"tensor": {"dtype": "DT_INT32", "tensorShape": {}}}, "dtype": {"type": "DT_INT32"}}}, {"name": "StatefulPartitionedCall/model_2/model_1/flatten_2/Const", "op": "Const", "attr": {"value": {"tensor": {"dtype": "DT_INT32", "tensorShape": {"dim": [{"size": "2"}]}}}, "dtype": {"type": "DT_INT32"}}}, {"name": "StatefulPartitionedCall/model_2/model_1/dense_2/MatMul/ReadVariableOp", "op": "Const", "attr": {"value": {"tensor": {"dtype": "DT_FLOAT", "tensorShape": {"dim": [{"size": "512"}, {"size": "512"}]}}}, "dtype": {"type": "DT_FLOAT"}}}, {"name": "StatefulPartitionedCall/model_2/model_1/dense_2/BiasAdd/ReadVariableOp", "op": "Const", "attr": {"value": {"tensor": {"dtype": "DT_FLOAT", "tensorShape": {"dim": [{"size": "512"}]}}}, "dtype": {"type": "DT_FLOAT"}}}, {"name": "StatefulPartitionedCall/model_2/model_1/tf.math.l2_normalize_2/l2_normalize/Sum/reduction_indices", "op": "Const", "attr": {"value": {"tensor": {"dtype": "DT_INT32", "tensorShape": {}}}, "dtype": {"type": "DT_INT32"}}}, {"name": "StatefulPartitionedCall/model_2/model_1/tf.math.l2_normalize_2/l2_normalize/Maximum/y", "op": "Const", "attr": {"value": {"tensor": {"dtype": "DT_FLOAT", "tensorShape": {}}}, "dtype": {"type": "DT_FLOAT"}}}, {"name": "StatefulPartitionedCall/model_2/model_1/concatenate_2/concat/axis", "op": "Const", "attr": {"value": {"tensor": {"dtype": "DT_INT32", "tensorShape": {}}}, "dtype": {"type": "DT_INT32"}}}, {"name": "face_frames_input", "op": "Placeholder", "attr": {"shape": {"shape": {"dim": [{"size": "1"}, {"size": "16"}, {"size": "24"}, {"size": "2"}]}}, "dtype": {"type": "DT_FLOAT"}}}, {"name": "left_hand_frames_input", "op": "Placeholder", "attr": {"dtype": {"type": "DT_FLOAT"}, "shape": {"shape": {"dim": [{"size": "1"}, {"size": "16"}, {"size": "21"}, {"size": "2"}]}}}}, {"name": "pose_frames_input", "op": "Placeholder", "attr": {"dtype": {"type": "DT_FLOAT"}, "shape": {"shape": {"dim": [{"size": "1"}, {"size": "16"}, {"size": "13"}, {"size": "2"}]}}}}, {"name": "right_hand_frames_input", "op": "Placeholder", "attr": {"dtype": {"type": "DT_FLOAT"}, "shape": {"shape": {"dim": [{"size": "1"}, {"size": "16"}, {"size": "21"}, {"size": "2"}]}}}}, {"name": "StatefulPartitionedCall/model_2/model_1/tf.expand_dims_4/ExpandDims", "op": "ExpandDims", "input": ["face_frames_input", "StatefulPartitionedCall/model_2/model_1/tf.expand_dims_4/ExpandDims/dim"], "attr": {"Tdim": {"type": "DT_INT32"}, "T": {"type": "DT_FLOAT"}}}, {"name": "StatefulPartitionedCall/model_2/model_1/tf.expand_dims_5/ExpandDims", "op": "ExpandDims", "input": ["face_frames_input", "StatefulPartitionedCall/model_2/model_1/tf.expand_dims_5/ExpandDims/dim"], "attr": {"Tdim": {"type": "DT_INT32"}, "T": {"type": "DT_FLOAT"}}}, {"name": "StatefulPartitionedCall/model_2/model_1/tf.expand_dims_6/ExpandDims", "op": "ExpandDims", "input": ["left_hand_frames_input", "StatefulPartitionedCall/model_2/model_1/tf.expand_dims_6/ExpandDims/dim"], "attr": {"Tdim": {"type": "DT_INT32"}, "T": {"type": "DT_FLOAT"}}}, {"name": "StatefulPartitionedCall/model_2/model_1/tf.expand_dims_7/ExpandDims", "op": "ExpandDims", "input": ["left_hand_frames_input", "StatefulPartitionedCall/model_2/model_1/tf.expand_dims_7/ExpandDims/dim"], "attr": {"Tdim": {"type": "DT_INT32"}, "T": {"type": "DT_FLOAT"}}}, {"name": "StatefulPartitionedCall/model_2/model_1/tf.expand_dims/ExpandDims", "op": "ExpandDims", "input": ["pose_frames_input", "StatefulPartitionedCall/model_2/model_1/tf.expand_dims/ExpandDims/dim"], "attr": {"T": {"type": "DT_FLOAT"}, "Tdim": {"type": "DT_INT32"}}}, {"name": "StatefulPartitionedCall/model_2/model_1/tf.expand_dims_1/ExpandDims", "op": "ExpandDims", "input": ["pose_frames_input", "StatefulPartitionedCall/model_2/model_1/tf.expand_dims_1/ExpandDims/dim"], "attr": {"Tdim": {"type": "DT_INT32"}, "T": {"type": "DT_FLOAT"}}}, {"name": "StatefulPartitionedCall/model_2/model_1/concatenate/concat", "op": "ConcatV2", "input": ["left_hand_frames_input", "right_hand_frames_input", "StatefulPartitionedCall/model_2/model_1/concatenate/concat/axis"], "attr": {"Tidx": {"type": "DT_INT32"}, "N": {"i": "2"}, "T": {"type": "DT_FLOAT"}}}, {"name": "StatefulPartitionedCall/model_2/model_1/tf.expand_dims_8/ExpandDims", "op": "ExpandDims", "input": ["right_hand_frames_input", "StatefulPartitionedCall/model_2/model_1/tf.expand_dims_8/ExpandDims/dim"], "attr": {"T": {"type": "DT_FLOAT"}, "Tdim": {"type": "DT_INT32"}}}, {"name": "StatefulPartitionedCall/model_2/model_1/tf.expand_dims_9/ExpandDims", "op": "ExpandDims", "input": ["right_hand_frames_input", "StatefulPartitionedCall/model_2/model_1/tf.expand_dims_9/ExpandDims/dim"], "attr": {"T": {"type": "DT_FLOAT"}, "Tdim": {"type": "DT_INT32"}}}, {"name": "StatefulPartitionedCall/model_2/model_1/tf.math.subtract_3/Sub", "op": "SquaredDifference", "input": ["StatefulPartitionedCall/model_2/model_1/tf.expand_dims_4/ExpandDims", "StatefulPartitionedCall/model_2/model_1/tf.expand_dims_5/ExpandDims"], "attr": {"T": {"type": "DT_FLOAT"}}}, {"name": "StatefulPartitionedCall/model_2/model_1/tf.math.subtract_4/Sub", "op": "SquaredDifference", "input": ["StatefulPartitionedCall/model_2/model_1/tf.expand_dims_6/ExpandDims", "StatefulPartitionedCall/model_2/model_1/tf.expand_dims_7/ExpandDims"], "attr": {"T": {"type": "DT_FLOAT"}}}, {"name": "StatefulPartitionedCall/model_2/model_1/tf.math.subtract/Sub", "op": "SquaredDifference", "input": ["StatefulPartitionedCall/model_2/model_1/tf.expand_dims/ExpandDims", "StatefulPartitionedCall/model_2/model_1/tf.expand_dims_1/ExpandDims"], "attr": {"T": {"type": "DT_FLOAT"}}}, {"name": "StatefulPartitionedCall/model_2/model_1/tf.__operators__.getitem/strided_slice", "op": "StridedSlice", "input": ["StatefulPartitionedCall/model_2/model_1/concatenate/concat", "StatefulPartitionedCall/model_2/model_1/tf.__operators__.getitem/strided_slice/stack", "StatefulPartitionedCall/model_2/model_1/tf.__operators__.getitem/strided_slice/stack_1", "StatefulPartitionedCall/model_2/model_1/tf.__operators__.getitem/strided_slice/stack_2"], "attr": {"end_mask": {"i": "15"}, "new_axis_mask": {"i": "0"}, "T": {"type": "DT_FLOAT"}, "shrink_axis_mask": {"i": "0"}, "Index": {"type": "DT_INT32"}, "begin_mask": {"i": "13"}, "ellipsis_mask": {"i": "0"}}}, {"name": "StatefulPartitionedCall/model_2/model_1/tf.__operators__.getitem_1/strided_slice", "op": "StridedSlice", "input": ["StatefulPartitionedCall/model_2/model_1/concatenate/concat", "StatefulPartitionedCall/model_2/model_1/tf.__operators__.getitem_1/strided_slice/stack", "StatefulPartitionedCall/model_2/model_1/tf.__operators__.getitem_1/strided_slice/stack_1", "StatefulPartitionedCall/model_2/model_1/tf.__operators__.getitem_1/strided_slice/stack_2"], "attr": {"end_mask": {"i": "13"}, "new_axis_mask": {"i": "0"}, "T": {"type": "DT_FLOAT"}, "shrink_axis_mask": {"i": "0"}, "Index": {"type": "DT_INT32"}, "begin_mask": {"i": "15"}, "ellipsis_mask": {"i": "0"}}}, {"name": "StatefulPartitionedCall/model_2/model_1/tf.__operators__.getitem_3/strided_slice", "op": "StridedSlice", "input": ["StatefulPartitionedCall/model_2/model_1/concatenate/concat", "StatefulPartitionedCall/model_2/model_1/tf.__operators__.getitem_3/strided_slice/stack", "StatefulPartitionedCall/model_2/model_1/tf.__operators__.getitem_3/strided_slice/stack_1", "StatefulPartitionedCall/model_2/model_1/tf.__operators__.getitem_3/strided_slice/stack_2"], "attr": {"end_mask": {"i": "15"}, "new_axis_mask": {"i": "0"}, "T": {"type": "DT_FLOAT"}, "shrink_axis_mask": {"i": "0"}, "Index": {"type": "DT_INT32"}, "begin_mask": {"i": "15"}, "ellipsis_mask": {"i": "0"}}}, {"name": "StatefulPartitionedCall/model_2/model_1/tf.math.subtract_5/Sub", "op": "SquaredDifference", "input": ["StatefulPartitionedCall/model_2/model_1/tf.expand_dims_8/ExpandDims", "StatefulPartitionedCall/model_2/model_1/tf.expand_dims_9/ExpandDims"], "attr": {"T": {"type": "DT_FLOAT"}}}, {"name": "StatefulPartitionedCall/model_2/model_1/tf.math.reduce_sum_1/Sum", "op": "Sum", "input": ["StatefulPartitionedCall/model_2/model_1/tf.math.subtract_3/Sub", "StatefulPartitionedCall/model_2/model_1/tf.math.reduce_sum_1/Sum/reduction_indices"], "attr": {"Tidx": {"type": "DT_INT32"}, "T": {"type": "DT_FLOAT"}, "keep_dims": {"b": false}}}, {"name": "StatefulPartitionedCall/model_2/model_1/tf.math.reduce_sum_2/Sum", "op": "Sum", "input": ["StatefulPartitionedCall/model_2/model_1/tf.math.subtract_4/Sub", "StatefulPartitionedCall/model_2/model_1/tf.math.reduce_sum_2/Sum/reduction_indices"], "attr": {"Tidx": {"type": "DT_INT32"}, "T": {"type": "DT_FLOAT"}, "keep_dims": {"b": false}}}, {"name": "StatefulPartitionedCall/model_2/model_1/tf.math.reduce_sum/Sum", "op": "Sum", "input": ["StatefulPartitionedCall/model_2/model_1/tf.math.subtract/Sub", "StatefulPartitionedCall/model_2/model_1/tf.math.reduce_sum/Sum/reduction_indices"], "attr": {"Tidx": {"type": "DT_INT32"}, "T": {"type": "DT_FLOAT"}, "keep_dims": {"b": false}}}, {"name": "StatefulPartitionedCall/model_2/model_1/tf.math.subtract_1/Sub", "op": "Sub", "input": ["StatefulPartitionedCall/model_2/model_1/tf.__operators__.getitem/strided_slice", "StatefulPartitionedCall/model_2/model_1/tf.__operators__.getitem_1/strided_slice"], "attr": {"T": {"type": "DT_FLOAT"}}}, {"name": "StatefulPartitionedCall/model_2/model_1/tf.__operators__.getitem_4/strided_slice", "op": "StridedSlice", "input": ["StatefulPartitionedCall/model_2/model_1/tf.__operators__.getitem_3/strided_slice", "StatefulPartitionedCall/model_2/model_1/tf.__operators__.getitem_4/strided_slice/stack", "StatefulPartitionedCall/model_2/model_1/tf.__operators__.getitem_4/strided_slice/stack_1", "StatefulPartitionedCall/model_2/model_1/tf.__operators__.getitem_4/strided_slice/stack_2"], "attr": {"end_mask": {"i": "15"}, "new_axis_mask": {"i": "0"}, "T": {"type": "DT_FLOAT"}, "shrink_axis_mask": {"i": "0"}, "Index": {"type": "DT_INT32"}, "begin_mask": {"i": "13"}, "ellipsis_mask": {"i": "0"}}}, {"name": "StatefulPartitionedCall/model_2/model_1/tf.__operators__.getitem_5/strided_slice", "op": "StridedSlice", "input": ["StatefulPartitionedCall/model_2/model_1/tf.__operators__.getitem_3/strided_slice", "StatefulPartitionedCall/model_2/model_1/tf.__operators__.getitem_5/strided_slice/stack", "StatefulPartitionedCall/model_2/model_1/tf.__operators__.getitem_5/strided_slice/stack_1", "StatefulPartitionedCall/model_2/model_1/tf.__operators__.getitem_5/strided_slice/stack_2"], "attr": {"Index": {"type": "DT_INT32"}, "new_axis_mask": {"i": "0"}, "begin_mask": {"i": "15"}, "T": {"type": "DT_FLOAT"}, "end_mask": {"i": "13"}, "ellipsis_mask": {"i": "0"}, "shrink_axis_mask": {"i": "0"}}}, {"name": "StatefulPartitionedCall/model_2/model_1/tf.math.reduce_sum_3/Sum", "op": "Sum", "input": ["StatefulPartitionedCall/model_2/model_1/tf.math.subtract_5/Sub", "StatefulPartitionedCall/model_2/model_1/tf.math.reduce_sum_3/Sum/reduction_indices"], "attr": {"Tidx": {"type": "DT_INT32"}, "keep_dims": {"b": false}, "T": {"type": "DT_FLOAT"}}}, {"name": "StatefulPartitionedCall/model_2/model_1/tf.math.sqrt_1/Sqrt", "op": "Sqrt", "input": ["StatefulPartitionedCall/model_2/model_1/tf.math.reduce_sum_1/Sum"], "attr": {"T": {"type": "DT_FLOAT"}}}, {"name": "StatefulPartitionedCall/model_2/model_1/tf.math.sqrt_2/Sqrt", "op": "Sqrt", "input": ["StatefulPartitionedCall/model_2/model_1/tf.math.reduce_sum_2/Sum"], "attr": {"T": {"type": "DT_FLOAT"}}}, {"name": "StatefulPartitionedCall/model_2/model_1/tf.math.sqrt/Sqrt", "op": "Sqrt", "input": ["StatefulPartitionedCall/model_2/model_1/tf.math.reduce_sum/Sum"], "attr": {"T": {"type": "DT_FLOAT"}}}, {"name": "StatefulPartitionedCall/model_2/model_1/tf.__operators__.getitem_2/strided_slice", "op": "StridedSlice", "input": ["StatefulPartitionedCall/model_2/model_1/tf.math.subtract_1/Sub", "StatefulPartitionedCall/model_2/model_1/tf.__operators__.getitem_2/strided_slice/stack", "StatefulPartitionedCall/model_2/model_1/tf.__operators__.getitem_2/strided_slice/stack_1", "StatefulPartitionedCall/model_2/model_1/tf.__operators__.getitem_2/strided_slice/stack_2"], "attr": {"new_axis_mask": {"i": "0"}, "end_mask": {"i": "13"}, "shrink_axis_mask": {"i": "2"}, "ellipsis_mask": {"i": "0"}, "Index": {"type": "DT_INT32"}, "T": {"type": "DT_FLOAT"}, "begin_mask": {"i": "13"}}}, {"name": "StatefulPartitionedCall/model_2/model_1/tf.math.subtract_2/Sub", "op": "Sub", "input": ["StatefulPartitionedCall/model_2/model_1/tf.__operators__.getitem_4/strided_slice", "StatefulPartitionedCall/model_2/model_1/tf.__operators__.getitem_5/strided_slice"], "attr": {"T": {"type": "DT_FLOAT"}}}, {"name": "StatefulPartitionedCall/model_2/model_1/tf.math.sqrt_3/Sqrt", "op": "Sqrt", "input": ["StatefulPartitionedCall/model_2/model_1/tf.math.reduce_sum_3/Sum"], "attr": {"T": {"type": "DT_FLOAT"}}}, {"name": "StatefulPartitionedCall/model_2/model_1/tf.reshape_3/Reshape", "op": "Reshape", "input": ["StatefulPartitionedCall/model_2/model_1/tf.math.sqrt_1/Sqrt", "StatefulPartitionedCall/model_2/model_1/tf.reshape_3/Reshape/shape"], "attr": {"Tshape": {"type": "DT_INT32"}, "T": {"type": "DT_FLOAT"}}}, {"name": "StatefulPartitionedCall/model_2/model_1/tf.reshape_4/Reshape", "op": "Reshape", "input": ["StatefulPartitionedCall/model_2/model_1/tf.math.sqrt_2/Sqrt", "StatefulPartitionedCall/model_2/model_1/tf.reshape_4/Reshape/shape"], "attr": {"Tshape": {"type": "DT_INT32"}, "T": {"type": "DT_FLOAT"}}}, {"name": "StatefulPartitionedCall/model_2/model_1/tf.reshape/Reshape", "op": "Reshape", "input": ["StatefulPartitionedCall/model_2/model_1/tf.math.sqrt/Sqrt", "StatefulPartitionedCall/model_2/model_1/tf.reshape/Reshape/shape"], "attr": {"Tshape": {"type": "DT_INT32"}, "T": {"type": "DT_FLOAT"}}}, {"name": "StatefulPartitionedCall/model_2/model_1/tf.expand_dims_2/ExpandDims", "op": "ExpandDims", "input": ["StatefulPartitionedCall/model_2/model_1/tf.__operators__.getitem_2/strided_slice", "StatefulPartitionedCall/model_2/model_1/tf.expand_dims_2/ExpandDims/dim"], "attr": {"T": {"type": "DT_FLOAT"}, "Tdim": {"type": "DT_INT32"}}}, {"name": "StatefulPartitionedCall/model_2/model_1/tf.__operators__.getitem_6/strided_slice", "op": "StridedSlice", "input": ["StatefulPartitionedCall/model_2/model_1/tf.math.subtract_2/Sub", "StatefulPartitionedCall/model_2/model_1/tf.__operators__.getitem_6/strided_slice/stack", "StatefulPartitionedCall/model_2/model_1/tf.__operators__.getitem_6/strided_slice/stack_1", "StatefulPartitionedCall/model_2/model_1/tf.__operators__.getitem_6/strided_slice/stack_2"], "attr": {"new_axis_mask": {"i": "0"}, "end_mask": {"i": "13"}, "shrink_axis_mask": {"i": "2"}, "ellipsis_mask": {"i": "0"}, "Index": {"type": "DT_INT32"}, "T": {"type": "DT_FLOAT"}, "begin_mask": {"i": "13"}}}, {"name": "StatefulPartitionedCall/model_2/model_1/tf.reshape_5/Reshape", "op": "Reshape", "input": ["StatefulPartitionedCall/model_2/model_1/tf.math.sqrt_3/Sqrt", "StatefulPartitionedCall/model_2/model_1/tf.reshape_5/Reshape/shape"], "attr": {"Tshape": {"type": "DT_INT32"}, "T": {"type": "DT_FLOAT"}}}, {"name": "StatefulPartitionedCall/model_2/model_1/conv1d_5/conv1d/ExpandDims", "op": "ExpandDims", "input": ["StatefulPartitionedCall/model_2/model_1/tf.reshape_3/Reshape", "StatefulPartitionedCall/model_2/model_1/conv1d_5/conv1d/ExpandDims/dim"], "attr": {"T": {"type": "DT_FLOAT"}, "Tdim": {"type": "DT_INT32"}}}, {"name": "StatefulPartitionedCall/model_2/model_1/model/conv1d_16/conv1d/ExpandDims", "op": "ExpandDims", "input": ["StatefulPartitionedCall/model_2/model_1/tf.reshape_4/Reshape", "StatefulPartitionedCall/model_2/model_1/model/conv1d_16/conv1d/ExpandDims/dim"], "attr": {"T": {"type": "DT_FLOAT"}, "Tdim": {"type": "DT_INT32"}}}, {"name": "StatefulPartitionedCall/model_2/model_1/conv1d/conv1d/ExpandDims", "op": "ExpandDims", "input": ["StatefulPartitionedCall/model_2/model_1/tf.reshape/Reshape", "StatefulPartitionedCall/model_2/model_1/conv1d/conv1d/ExpandDims/dim"], "attr": {"T": {"type": "DT_FLOAT"}, "Tdim": {"type": "DT_INT32"}}}, {"name": "StatefulPartitionedCall/model_2/model_1/tf.concat/concat", "op": "ConcatV2", "input": ["StatefulPartitionedCall/model_2/model_1/tf.expand_dims_2/ExpandDims", "StatefulPartitionedCall/model_2/model_1/tf.math.subtract_1/Sub", "StatefulPartitionedCall/model_2/model_1/tf.concat/concat/axis"], "attr": {"N": {"i": "2"}, "T": {"type": "DT_FLOAT"}, "Tidx": {"type": "DT_INT32"}}}, {"name": "StatefulPartitionedCall/model_2/model_1/tf.expand_dims_3/ExpandDims", "op": "ExpandDims", "input": ["StatefulPartitionedCall/model_2/model_1/tf.__operators__.getitem_6/strided_slice", "StatefulPartitionedCall/model_2/model_1/tf.expand_dims_3/ExpandDims/dim"], "attr": {"T": {"type": "DT_FLOAT"}, "Tdim": {"type": "DT_INT32"}}}, {"name": "StatefulPartitionedCall/model_2/model_1/model/conv1d_16/conv1d_1/ExpandDims", "op": "ExpandDims", "input": ["StatefulPartitionedCall/model_2/model_1/tf.reshape_5/Reshape", "StatefulPartitionedCall/model_2/model_1/model/conv1d_16/conv1d_1/ExpandDims/dim"], "attr": {"T": {"type": "DT_FLOAT"}, "Tdim": {"type": "DT_INT32"}}}, {"name": "StatefulPartitionedCall/model_2/model_1/conv1d_5/conv1d", "op": "Conv2D", "input": ["StatefulPartitionedCall/model_2/model_1/conv1d_5/conv1d/ExpandDims", "StatefulPartitionedCall/model_2/model_1/conv1d_5/conv1d/ExpandDims_1"], "device": "/device:CPU:0", "attr": {"strides": {"list": {"i": ["1", "1", "1", "1"]}}, "dilations": {"list": {"i": ["1", "1", "1", "1"]}}, "data_format": {"s": "TkhXQw=="}, "T": {"type": "DT_FLOAT"}, "padding": {"s": "U0FNRQ=="}, "use_cudnn_on_gpu": {"b": true}, "explicit_paddings": {"list": {}}}}, {"name": "StatefulPartitionedCall/model_2/model_1/model/conv1d_16/conv1d", "op": "Conv2D", "input": ["StatefulPartitionedCall/model_2/model_1/model/conv1d_16/conv1d/ExpandDims", "StatefulPartitionedCall/model_2/model_1/model/conv1d_16/conv1d/ExpandDims_1"], "device": "/device:CPU:0", "attr": {"strides": {"list": {"i": ["1", "1", "1", "1"]}}, "dilations": {"list": {"i": ["1", "1", "1", "1"]}}, "data_format": {"s": "TkhXQw=="}, "T": {"type": "DT_FLOAT"}, "padding": {"s": "U0FNRQ=="}, "use_cudnn_on_gpu": {"b": true}, "explicit_paddings": {"list": {}}}}, {"name": "StatefulPartitionedCall/model_2/model_1/conv1d/conv1d", "op": "Conv2D", "input": ["StatefulPartitionedCall/model_2/model_1/conv1d/conv1d/ExpandDims", "StatefulPartitionedCall/model_2/model_1/conv1d/conv1d/ExpandDims_1"], "device": "/device:CPU:0", "attr": {"strides": {"list": {"i": ["1", "1", "1", "1"]}}, "dilations": {"list": {"i": ["1", "1", "1", "1"]}}, "data_format": {"s": "TkhXQw=="}, "T": {"type": "DT_FLOAT"}, "padding": {"s": "U0FNRQ=="}, "explicit_paddings": {"list": {}}, "use_cudnn_on_gpu": {"b": true}}}, {"name": "StatefulPartitionedCall/model_2/model_1/tf.reshape_1/Reshape", "op": "Reshape", "input": ["StatefulPartitionedCall/model_2/model_1/tf.concat/concat", "StatefulPartitionedCall/model_2/model_1/tf.reshape_1/Reshape/shape"], "attr": {"Tshape": {"type": "DT_INT32"}, "T": {"type": "DT_FLOAT"}}}, {"name": "StatefulPartitionedCall/model_2/model_1/tf.concat_1/concat", "op": "ConcatV2", "input": ["StatefulPartitionedCall/model_2/model_1/tf.expand_dims_3/ExpandDims", "StatefulPartitionedCall/model_2/model_1/tf.math.subtract_2/Sub", "StatefulPartitionedCall/model_2/model_1/tf.concat_1/concat/axis"], "attr": {"N": {"i": "2"}, "Tidx": {"type": "DT_INT32"}, "T": {"type": "DT_FLOAT"}}}, {"name": "StatefulPartitionedCall/model_2/model_1/model/conv1d_16/conv1d_1", "op": "Conv2D", "input": ["StatefulPartitionedCall/model_2/model_1/model/conv1d_16/conv1d_1/ExpandDims", "StatefulPartitionedCall/model_2/model_1/model/conv1d_16/conv1d_1/ExpandDims_1"], "device": "/device:CPU:0", "attr": {"strides": {"list": {"i": ["1", "1", "1", "1"]}}, "dilations": {"list": {"i": ["1", "1", "1", "1"]}}, "data_format": {"s": "TkhXQw=="}, "T": {"type": "DT_FLOAT"}, "padding": {"s": "U0FNRQ=="}, "explicit_paddings": {"list": {}}, "use_cudnn_on_gpu": {"b": true}}}, {"name": "StatefulPartitionedCall/model_2/model_1/conv1d_5/conv1d/Squeeze", "op": "Squeeze", "input": ["StatefulPartitionedCall/model_2/model_1/conv1d_5/conv1d"], "attr": {"T": {"type": "DT_FLOAT"}, "squeeze_dims": {"list": {"i": ["-3"]}}}}, {"name": "StatefulPartitionedCall/model_2/model_1/model/conv1d_16/conv1d/Squeeze", "op": "Squeeze", "input": ["StatefulPartitionedCall/model_2/model_1/model/conv1d_16/conv1d"], "attr": {"T": {"type": "DT_FLOAT"}, "squeeze_dims": {"list": {"i": ["-3"]}}}}, {"name": "StatefulPartitionedCall/model_2/model_1/conv1d/conv1d/Squeeze", "op": "Squeeze", "input": ["StatefulPartitionedCall/model_2/model_1/conv1d/conv1d"], "attr": {"T": {"type": "DT_FLOAT"}, "squeeze_dims": {"list": {"i": ["-3"]}}}}, {"name": "StatefulPartitionedCall/model_2/model_1/conv1d_10/conv1d/ExpandDims", "op": "ExpandDims", "input": ["StatefulPartitionedCall/model_2/model_1/tf.reshape_1/Reshape", "StatefulPartitionedCall/model_2/model_1/conv1d_10/conv1d/ExpandDims/dim"], "attr": {"T": {"type": "DT_FLOAT"}, "Tdim": {"type": "DT_INT32"}}}, {"name": "StatefulPartitionedCall/model_2/model_1/tf.reshape_2/Reshape", "op": "Reshape", "input": ["StatefulPartitionedCall/model_2/model_1/tf.concat_1/concat", "StatefulPartitionedCall/model_2/model_1/tf.reshape_2/Reshape/shape"], "attr": {"Tshape": {"type": "DT_INT32"}, "T": {"type": "DT_FLOAT"}}}, {"name": "StatefulPartitionedCall/model_2/model_1/model/conv1d_16/conv1d_1/Squeeze", "op": "Squeeze", "input": ["StatefulPartitionedCall/model_2/model_1/model/conv1d_16/conv1d_1"], "attr": {"T": {"type": "DT_FLOAT"}, "squeeze_dims": {"list": {"i": ["-3"]}}}}, {"name": "StatefulPartitionedCall/model_2/model_1/batch_normalization_5/batchnorm/mul_1", "op": "Mul", "input": ["StatefulPartitionedCall/model_2/model_1/conv1d_5/conv1d/Squeeze", "StatefulPartitionedCall/model_2/model_1/batch_normalization_5/batchnorm/mul"], "attr": {"T": {"type": "DT_FLOAT"}}}, {"name": "StatefulPartitionedCall/model_2/model_1/model/batch_normalization_16/batchnorm/mul_1", "op": "Mul", "input": ["StatefulPartitionedCall/model_2/model_1/model/conv1d_16/conv1d/Squeeze", "StatefulPartitionedCall/model_2/model_1/model/batch_normalization_16/batchnorm/mul"], "attr": {"T": {"type": "DT_FLOAT"}}}, {"name": "StatefulPartitionedCall/model_2/model_1/batch_normalization/batchnorm/mul_1", "op": "Mul", "input": ["StatefulPartitionedCall/model_2/model_1/conv1d/conv1d/Squeeze", "StatefulPartitionedCall/model_2/model_1/batch_normalization/batchnorm/mul"], "attr": {"T": {"type": "DT_FLOAT"}}}, {"name": "StatefulPartitionedCall/model_2/model_1/conv1d_10/conv1d", "op": "Conv2D", "input": ["StatefulPartitionedCall/model_2/model_1/conv1d_10/conv1d/ExpandDims", "StatefulPartitionedCall/model_2/model_1/conv1d_10/conv1d/ExpandDims_1"], "device": "/device:CPU:0", "attr": {"strides": {"list": {"i": ["1", "1", "1", "1"]}}, "dilations": {"list": {"i": ["1", "1", "1", "1"]}}, "data_format": {"s": "TkhXQw=="}, "T": {"type": "DT_FLOAT"}, "padding": {"s": "U0FNRQ=="}, "use_cudnn_on_gpu": {"b": true}, "explicit_paddings": {"list": {}}}}, {"name": "StatefulPartitionedCall/model_2/model_1/conv1d_13/conv1d/ExpandDims", "op": "ExpandDims", "input": ["StatefulPartitionedCall/model_2/model_1/tf.reshape_2/Reshape", "StatefulPartitionedCall/model_2/model_1/conv1d_13/conv1d/ExpandDims/dim"], "attr": {"T": {"type": "DT_FLOAT"}, "Tdim": {"type": "DT_INT32"}}}, {"name": "StatefulPartitionedCall/model_2/model_1/model/batch_normalization_16/batchnorm_1/mul_1", "op": "Mul", "input": ["StatefulPartitionedCall/model_2/model_1/model/conv1d_16/conv1d_1/Squeeze", "StatefulPartitionedCall/model_2/model_1/model/batch_normalization_16/batchnorm_1/mul"], "attr": {"T": {"type": "DT_FLOAT"}}}, {"name": "StatefulPartitionedCall/model_2/model_1/batch_normalization_5/batchnorm/add_1", "op": "AddV2", "input": ["StatefulPartitionedCall/model_2/model_1/batch_normalization_5/batchnorm/mul_1", "StatefulPartitionedCall/model_2/model_1/batch_normalization_5/batchnorm/sub"], "attr": {"T": {"type": "DT_FLOAT"}}}, {"name": "StatefulPartitionedCall/model_2/model_1/model/batch_normalization_16/batchnorm/add_1", "op": "AddV2", "input": ["StatefulPartitionedCall/model_2/model_1/model/batch_normalization_16/batchnorm/mul_1", "StatefulPartitionedCall/model_2/model_1/model/batch_normalization_16/batchnorm/sub"], "attr": {"T": {"type": "DT_FLOAT"}}}, {"name": "StatefulPartitionedCall/model_2/model_1/batch_normalization/batchnorm/add_1", "op": "AddV2", "input": ["StatefulPartitionedCall/model_2/model_1/batch_normalization/batchnorm/mul_1", "StatefulPartitionedCall/model_2/model_1/batch_normalization/batchnorm/sub"], "attr": {"T": {"type": "DT_FLOAT"}}}, {"name": "StatefulPartitionedCall/model_2/model_1/conv1d_10/conv1d/Squeeze", "op": "Squeeze", "input": ["StatefulPartitionedCall/model_2/model_1/conv1d_10/conv1d"], "attr": {"squeeze_dims": {"list": {"i": ["-3"]}}, "T": {"type": "DT_FLOAT"}}}, {"name": "StatefulPartitionedCall/model_2/model_1/conv1d_13/conv1d", "op": "Conv2D", "input": ["StatefulPartitionedCall/model_2/model_1/conv1d_13/conv1d/ExpandDims", "StatefulPartitionedCall/model_2/model_1/conv1d_13/conv1d/ExpandDims_1"], "device": "/device:CPU:0", "attr": {"padding": {"s": "U0FNRQ=="}, "dilations": {"list": {"i": ["1", "1", "1", "1"]}}, "explicit_paddings": {"list": {}}, "use_cudnn_on_gpu": {"b": true}, "data_format": {"s": "TkhXQw=="}, "T": {"type": "DT_FLOAT"}, "strides": {"list": {"i": ["1", "1", "1", "1"]}}}}, {"name": "StatefulPartitionedCall/model_2/model_1/model/batch_normalization_16/batchnorm_1/add_1", "op": "AddV2", "input": ["StatefulPartitionedCall/model_2/model_1/model/batch_normalization_16/batchnorm_1/mul_1", "StatefulPartitionedCall/model_2/model_1/model/batch_normalization_16/batchnorm_1/sub"], "attr": {"T": {"type": "DT_FLOAT"}}}, {"name": "StatefulPartitionedCall/model_2/model_1/p_re_lu_5/Relu", "op": "Prelu", "input": ["StatefulPartitionedCall/model_2/model_1/batch_normalization_5/batchnorm/add_1", "StatefulPartitionedCall/model_2/model_1/p_re_lu_5/Neg"]}, {"name": "StatefulPartitionedCall/model_2/model_1/model/p_re_lu_16/Relu", "op": "Prelu", "input": ["StatefulPartitionedCall/model_2/model_1/model/batch_normalization_16/batchnorm/add_1", "StatefulPartitionedCall/model_2/model_1/model/p_re_lu_16/Neg"]}, {"name": "StatefulPartitionedCall/model_2/model_1/p_re_lu/Relu", "op": "Prelu", "input": ["StatefulPartitionedCall/model_2/model_1/batch_normalization/batchnorm/add_1", "StatefulPartitionedCall/model_2/model_1/p_re_lu/Neg"]}, {"name": "StatefulPartitionedCall/model_2/model_1/batch_normalization_10/batchnorm/mul_1", "op": "Mul", "input": ["StatefulPartitionedCall/model_2/model_1/conv1d_10/conv1d/Squeeze", "StatefulPartitionedCall/model_2/model_1/batch_normalization_10/batchnorm/mul"], "attr": {"T": {"type": "DT_FLOAT"}}}, {"name": "StatefulPartitionedCall/model_2/model_1/conv1d_13/conv1d/Squeeze", "op": "Squeeze", "input": ["StatefulPartitionedCall/model_2/model_1/conv1d_13/conv1d"], "attr": {"T": {"type": "DT_FLOAT"}, "squeeze_dims": {"list": {"i": ["-3"]}}}}, {"name": "StatefulPartitionedCall/model_2/model_1/model/p_re_lu_16/Relu_2", "op": "Prelu", "input": ["StatefulPartitionedCall/model_2/model_1/model/batch_normalization_16/batchnorm_1/add_1", "StatefulPartitionedCall/model_2/model_1/model/p_re_lu_16/Neg_2"]}, {"name": "StatefulPartitionedCall/model_2/model_1/batch_normalization_10/batchnorm/add_1", "op": "AddV2", "input": ["StatefulPartitionedCall/model_2/model_1/batch_normalization_10/batchnorm/mul_1", "StatefulPartitionedCall/model_2/model_1/batch_normalization_10/batchnorm/sub"], "attr": {"T": {"type": "DT_FLOAT"}}}, {"name": "StatefulPartitionedCall/model_2/model_1/batch_normalization_13/batchnorm/mul_1", "op": "Mul", "input": ["StatefulPartitionedCall/model_2/model_1/conv1d_13/conv1d/Squeeze", "StatefulPartitionedCall/model_2/model_1/batch_normalization_13/batchnorm/mul"], "attr": {"T": {"type": "DT_FLOAT"}}}, {"name": "StatefulPartitionedCall/model_2/model_1/p_re_lu_10/Relu", "op": "Prelu", "input": ["StatefulPartitionedCall/model_2/model_1/batch_normalization_10/batchnorm/add_1", "StatefulPartitionedCall/model_2/model_1/p_re_lu_10/Neg"]}, {"name": "StatefulPartitionedCall/model_2/model_1/batch_normalization_13/batchnorm/add_1", "op": "AddV2", "input": ["StatefulPartitionedCall/model_2/model_1/batch_normalization_13/batchnorm/mul_1", "StatefulPartitionedCall/model_2/model_1/batch_normalization_13/batchnorm/sub"], "attr": {"T": {"type": "DT_FLOAT"}}}, {"name": "StatefulPartitionedCall/model_2/model_1/p_re_lu_13/Relu", "op": "Prelu", "input": ["StatefulPartitionedCall/model_2/model_1/batch_normalization_13/batchnorm/add_1", "StatefulPartitionedCall/model_2/model_1/p_re_lu_13/Neg"]}, {"name": "StatefulPartitionedCall/model_2/model_1/conv1d_6/conv1d/ExpandDims", "op": "ExpandDims", "input": ["StatefulPartitionedCall/model_2/model_1/p_re_lu_5/Relu", "StatefulPartitionedCall/model_2/model_1/conv1d_6/conv1d/ExpandDims/dim"], "attr": {"T": {"type": "DT_FLOAT"}, "Tdim": {"type": "DT_INT32"}}}, {"name": "StatefulPartitionedCall/model_2/model_1/model/conv1d_17/conv1d/ExpandDims", "op": "ExpandDims", "input": ["StatefulPartitionedCall/model_2/model_1/model/p_re_lu_16/Relu", "StatefulPartitionedCall/model_2/model_1/model/conv1d_17/conv1d/ExpandDims/dim"], "attr": {"T": {"type": "DT_FLOAT"}, "Tdim": {"type": "DT_INT32"}}}, {"name": "StatefulPartitionedCall/model_2/model_1/conv1d_1/conv1d/ExpandDims", "op": "ExpandDims", "input": ["StatefulPartitionedCall/model_2/model_1/p_re_lu/Relu", "StatefulPartitionedCall/model_2/model_1/conv1d_1/conv1d/ExpandDims/dim"], "attr": {"T": {"type": "DT_FLOAT"}, "Tdim": {"type": "DT_INT32"}}}, {"name": "StatefulPartitionedCall/model_2/model_1/model/conv1d_17/conv1d_1/ExpandDims", "op": "ExpandDims", "input": ["StatefulPartitionedCall/model_2/model_1/model/p_re_lu_16/Relu_2", "StatefulPartitionedCall/model_2/model_1/model/conv1d_17/conv1d_1/ExpandDims/dim"], "attr": {"T": {"type": "DT_FLOAT"}, "Tdim": {"type": "DT_INT32"}}}, {"name": "StatefulPartitionedCall/model_2/model_1/conv1d_6/conv1d", "op": "Conv2D", "input": ["StatefulPartitionedCall/model_2/model_1/conv1d_6/conv1d/ExpandDims", "StatefulPartitionedCall/model_2/model_1/conv1d_6/conv1d/ExpandDims_1"], "device": "/device:CPU:0", "attr": {"data_format": {"s": "TkhXQw=="}, "T": {"type": "DT_FLOAT"}, "strides": {"list": {"i": ["1", "1", "1", "1"]}}, "padding": {"s": "U0FNRQ=="}, "use_cudnn_on_gpu": {"b": true}, "explicit_paddings": {"list": {}}, "dilations": {"list": {"i": ["1", "1", "1", "1"]}}}}, {"name": "StatefulPartitionedCall/model_2/model_1/model/conv1d_17/conv1d", "op": "Conv2D", "input": ["StatefulPartitionedCall/model_2/model_1/model/conv1d_17/conv1d/ExpandDims", "StatefulPartitionedCall/model_2/model_1/model/conv1d_17/conv1d/ExpandDims_1"], "device": "/device:CPU:0", "attr": {"dilations": {"list": {"i": ["1", "1", "1", "1"]}}, "T": {"type": "DT_FLOAT"}, "strides": {"list": {"i": ["1", "1", "1", "1"]}}, "data_format": {"s": "TkhXQw=="}, "use_cudnn_on_gpu": {"b": true}, "explicit_paddings": {"list": {}}, "padding": {"s": "U0FNRQ=="}}}, {"name": "StatefulPartitionedCall/model_2/model_1/conv1d_1/conv1d", "op": "Conv2D", "input": ["StatefulPartitionedCall/model_2/model_1/conv1d_1/conv1d/ExpandDims", "StatefulPartitionedCall/model_2/model_1/conv1d_1/conv1d/ExpandDims_1"], "device": "/device:CPU:0", "attr": {"strides": {"list": {"i": ["1", "1", "1", "1"]}}, "dilations": {"list": {"i": ["1", "1", "1", "1"]}}, "data_format": {"s": "TkhXQw=="}, "T": {"type": "DT_FLOAT"}, "padding": {"s": "U0FNRQ=="}, "use_cudnn_on_gpu": {"b": true}, "explicit_paddings": {"list": {}}}}, {"name": "StatefulPartitionedCall/model_2/model_1/model/conv1d_17/conv1d_1", "op": "Conv2D", "input": ["StatefulPartitionedCall/model_2/model_1/model/conv1d_17/conv1d_1/ExpandDims", "StatefulPartitionedCall/model_2/model_1/model/conv1d_17/conv1d_1/ExpandDims_1"], "device": "/device:CPU:0", "attr": {"use_cudnn_on_gpu": {"b": true}, "explicit_paddings": {"list": {}}, "T": {"type": "DT_FLOAT"}, "data_format": {"s": "TkhXQw=="}, "padding": {"s": "U0FNRQ=="}, "strides": {"list": {"i": ["1", "1", "1", "1"]}}, "dilations": {"list": {"i": ["1", "1", "1", "1"]}}}}, {"name": "StatefulPartitionedCall/model_2/model_1/conv1d_6/conv1d/Squeeze", "op": "Squeeze", "input": ["StatefulPartitionedCall/model_2/model_1/conv1d_6/conv1d"], "attr": {"squeeze_dims": {"list": {"i": ["-3"]}}, "T": {"type": "DT_FLOAT"}}}, {"name": "StatefulPartitionedCall/model_2/model_1/model/conv1d_17/conv1d/Squeeze", "op": "Squeeze", "input": ["StatefulPartitionedCall/model_2/model_1/model/conv1d_17/conv1d"], "attr": {"squeeze_dims": {"list": {"i": ["-3"]}}, "T": {"type": "DT_FLOAT"}}}, {"name": "StatefulPartitionedCall/model_2/model_1/conv1d_1/conv1d/Squeeze", "op": "Squeeze", "input": ["StatefulPartitionedCall/model_2/model_1/conv1d_1/conv1d"], "attr": {"squeeze_dims": {"list": {"i": ["-3"]}}, "T": {"type": "DT_FLOAT"}}}, {"name": "StatefulPartitionedCall/model_2/model_1/conv1d_11/conv1d/ExpandDims", "op": "ExpandDims", "input": ["StatefulPartitionedCall/model_2/model_1/p_re_lu_10/Relu", "StatefulPartitionedCall/model_2/model_1/conv1d_11/conv1d/ExpandDims/dim"], "attr": {"Tdim": {"type": "DT_INT32"}, "T": {"type": "DT_FLOAT"}}}, {"name": "StatefulPartitionedCall/model_2/model_1/model/conv1d_17/conv1d_1/Squeeze", "op": "Squeeze", "input": ["StatefulPartitionedCall/model_2/model_1/model/conv1d_17/conv1d_1"], "attr": {"squeeze_dims": {"list": {"i": ["-3"]}}, "T": {"type": "DT_FLOAT"}}}, {"name": "StatefulPartitionedCall/model_2/model_1/batch_normalization_6/batchnorm/mul_1", "op": "Mul", "input": ["StatefulPartitionedCall/model_2/model_1/conv1d_6/conv1d/Squeeze", "StatefulPartitionedCall/model_2/model_1/batch_normalization_6/batchnorm/mul"], "attr": {"T": {"type": "DT_FLOAT"}}}, {"name": "StatefulPartitionedCall/model_2/model_1/model/batch_normalization_17/batchnorm/mul_1", "op": "Mul", "input": ["StatefulPartitionedCall/model_2/model_1/model/conv1d_17/conv1d/Squeeze", "StatefulPartitionedCall/model_2/model_1/model/batch_normalization_17/batchnorm/mul"], "attr": {"T": {"type": "DT_FLOAT"}}}, {"name": "StatefulPartitionedCall/model_2/model_1/batch_normalization_1/batchnorm/mul_1", "op": "Mul", "input": ["StatefulPartitionedCall/model_2/model_1/conv1d_1/conv1d/Squeeze", "StatefulPartitionedCall/model_2/model_1/batch_normalization_1/batchnorm/mul"], "attr": {"T": {"type": "DT_FLOAT"}}}, {"name": "StatefulPartitionedCall/model_2/model_1/conv1d_11/conv1d", "op": "Conv2D", "input": ["StatefulPartitionedCall/model_2/model_1/conv1d_11/conv1d/ExpandDims", "StatefulPartitionedCall/model_2/model_1/conv1d_11/conv1d/ExpandDims_1"], "device": "/device:CPU:0", "attr": {"dilations": {"list": {"i": ["1", "1", "1", "1"]}}, "strides": {"list": {"i": ["1", "1", "1", "1"]}}, "explicit_paddings": {"list": {}}, "use_cudnn_on_gpu": {"b": true}, "padding": {"s": "U0FNRQ=="}, "T": {"type": "DT_FLOAT"}, "data_format": {"s": "TkhXQw=="}}}, {"name": "StatefulPartitionedCall/model_2/model_1/conv1d_14/conv1d/ExpandDims", "op": "ExpandDims", "input": ["StatefulPartitionedCall/model_2/model_1/p_re_lu_13/Relu", "StatefulPartitionedCall/model_2/model_1/conv1d_14/conv1d/ExpandDims/dim"], "attr": {"Tdim": {"type": "DT_INT32"}, "T": {"type": "DT_FLOAT"}}}, {"name": "StatefulPartitionedCall/model_2/model_1/model/batch_normalization_17/batchnorm_1/mul_1", "op": "Mul", "input": ["StatefulPartitionedCall/model_2/model_1/model/conv1d_17/conv1d_1/Squeeze", "StatefulPartitionedCall/model_2/model_1/model/batch_normalization_17/batchnorm_1/mul"], "attr": {"T": {"type": "DT_FLOAT"}}}, {"name": "StatefulPartitionedCall/model_2/model_1/batch_normalization_6/batchnorm/add_1", "op": "AddV2", "input": ["StatefulPartitionedCall/model_2/model_1/batch_normalization_6/batchnorm/mul_1", "StatefulPartitionedCall/model_2/model_1/batch_normalization_6/batchnorm/sub"], "attr": {"T": {"type": "DT_FLOAT"}}}, {"name": "StatefulPartitionedCall/model_2/model_1/model/batch_normalization_17/batchnorm/add_1", "op": "AddV2", "input": ["StatefulPartitionedCall/model_2/model_1/model/batch_normalization_17/batchnorm/mul_1", "StatefulPartitionedCall/model_2/model_1/model/batch_normalization_17/batchnorm/sub"], "attr": {"T": {"type": "DT_FLOAT"}}}, {"name": "StatefulPartitionedCall/model_2/model_1/batch_normalization_1/batchnorm/add_1", "op": "AddV2", "input": ["StatefulPartitionedCall/model_2/model_1/batch_normalization_1/batchnorm/mul_1", "StatefulPartitionedCall/model_2/model_1/batch_normalization_1/batchnorm/sub"], "attr": {"T": {"type": "DT_FLOAT"}}}, {"name": "StatefulPartitionedCall/model_2/model_1/conv1d_11/conv1d/Squeeze", "op": "Squeeze", "input": ["StatefulPartitionedCall/model_2/model_1/conv1d_11/conv1d"], "attr": {"squeeze_dims": {"list": {"i": ["-3"]}}, "T": {"type": "DT_FLOAT"}}}, {"name": "StatefulPartitionedCall/model_2/model_1/conv1d_14/conv1d", "op": "Conv2D", "input": ["StatefulPartitionedCall/model_2/model_1/conv1d_14/conv1d/ExpandDims", "StatefulPartitionedCall/model_2/model_1/conv1d_14/conv1d/ExpandDims_1"], "device": "/device:CPU:0", "attr": {"dilations": {"list": {"i": ["1", "1", "1", "1"]}}, "data_format": {"s": "TkhXQw=="}, "T": {"type": "DT_FLOAT"}, "strides": {"list": {"i": ["1", "1", "1", "1"]}}, "padding": {"s": "U0FNRQ=="}, "use_cudnn_on_gpu": {"b": true}, "explicit_paddings": {"list": {}}}}, {"name": "StatefulPartitionedCall/model_2/model_1/model/batch_normalization_17/batchnorm_1/add_1", "op": "AddV2", "input": ["StatefulPartitionedCall/model_2/model_1/model/batch_normalization_17/batchnorm_1/mul_1", "StatefulPartitionedCall/model_2/model_1/model/batch_normalization_17/batchnorm_1/sub"], "attr": {"T": {"type": "DT_FLOAT"}}}, {"name": "StatefulPartitionedCall/model_2/model_1/p_re_lu_6/Relu", "op": "Prelu", "input": ["StatefulPartitionedCall/model_2/model_1/batch_normalization_6/batchnorm/add_1", "StatefulPartitionedCall/model_2/model_1/p_re_lu_6/Neg"]}, {"name": "StatefulPartitionedCall/model_2/model_1/model/p_re_lu_17/Relu", "op": "Prelu", "input": ["StatefulPartitionedCall/model_2/model_1/model/batch_normalization_17/batchnorm/add_1", "StatefulPartitionedCall/model_2/model_1/model/p_re_lu_17/Neg"]}, {"name": "StatefulPartitionedCall/model_2/model_1/p_re_lu_1/Relu", "op": "Prelu", "input": ["StatefulPartitionedCall/model_2/model_1/batch_normalization_1/batchnorm/add_1", "StatefulPartitionedCall/model_2/model_1/p_re_lu_1/Neg"]}, {"name": "StatefulPartitionedCall/model_2/model_1/batch_normalization_11/batchnorm/mul_1", "op": "Mul", "input": ["StatefulPartitionedCall/model_2/model_1/conv1d_11/conv1d/Squeeze", "StatefulPartitionedCall/model_2/model_1/batch_normalization_11/batchnorm/mul"], "attr": {"T": {"type": "DT_FLOAT"}}}, {"name": "StatefulPartitionedCall/model_2/model_1/conv1d_14/conv1d/Squeeze", "op": "Squeeze", "input": ["StatefulPartitionedCall/model_2/model_1/conv1d_14/conv1d"], "attr": {"T": {"type": "DT_FLOAT"}, "squeeze_dims": {"list": {"i": ["-3"]}}}}, {"name": "StatefulPartitionedCall/model_2/model_1/model/p_re_lu_17/Relu_2", "op": "Prelu", "input": ["StatefulPartitionedCall/model_2/model_1/model/batch_normalization_17/batchnorm_1/add_1", "StatefulPartitionedCall/model_2/model_1/model/p_re_lu_17/Neg_2"]}, {"name": "StatefulPartitionedCall/model_2/model_1/batch_normalization_11/batchnorm/add_1", "op": "AddV2", "input": ["StatefulPartitionedCall/model_2/model_1/batch_normalization_11/batchnorm/mul_1", "StatefulPartitionedCall/model_2/model_1/batch_normalization_11/batchnorm/sub"], "attr": {"T": {"type": "DT_FLOAT"}}}, {"name": "StatefulPartitionedCall/model_2/model_1/batch_normalization_14/batchnorm/mul_1", "op": "Mul", "input": ["StatefulPartitionedCall/model_2/model_1/conv1d_14/conv1d/Squeeze", "StatefulPartitionedCall/model_2/model_1/batch_normalization_14/batchnorm/mul"], "attr": {"T": {"type": "DT_FLOAT"}}}, {"name": "StatefulPartitionedCall/model_2/model_1/p_re_lu_11/Relu", "op": "Prelu", "input": ["StatefulPartitionedCall/model_2/model_1/batch_normalization_11/batchnorm/add_1", "StatefulPartitionedCall/model_2/model_1/p_re_lu_11/Neg"]}, {"name": "StatefulPartitionedCall/model_2/model_1/batch_normalization_14/batchnorm/add_1", "op": "AddV2", "input": ["StatefulPartitionedCall/model_2/model_1/batch_normalization_14/batchnorm/mul_1", "StatefulPartitionedCall/model_2/model_1/batch_normalization_14/batchnorm/sub"], "attr": {"T": {"type": "DT_FLOAT"}}}, {"name": "StatefulPartitionedCall/model_2/model_1/p_re_lu_14/Relu", "op": "Prelu", "input": ["StatefulPartitionedCall/model_2/model_1/batch_normalization_14/batchnorm/add_1", "StatefulPartitionedCall/model_2/model_1/p_re_lu_14/Neg"]}, {"name": "StatefulPartitionedCall/model_2/model_1/conv1d_7/conv1d/ExpandDims", "op": "ExpandDims", "input": ["StatefulPartitionedCall/model_2/model_1/p_re_lu_6/Relu", "StatefulPartitionedCall/model_2/model_1/conv1d_7/conv1d/ExpandDims/dim"], "attr": {"T": {"type": "DT_FLOAT"}, "Tdim": {"type": "DT_INT32"}}}, {"name": "StatefulPartitionedCall/model_2/model_1/model/conv1d_18/conv1d/ExpandDims", "op": "ExpandDims", "input": ["StatefulPartitionedCall/model_2/model_1/model/p_re_lu_17/Relu", "StatefulPartitionedCall/model_2/model_1/model/conv1d_18/conv1d/ExpandDims/dim"], "attr": {"T": {"type": "DT_FLOAT"}, "Tdim": {"type": "DT_INT32"}}}, {"name": "StatefulPartitionedCall/model_2/model_1/conv1d_2/conv1d/ExpandDims", "op": "ExpandDims", "input": ["StatefulPartitionedCall/model_2/model_1/p_re_lu_1/Relu", "StatefulPartitionedCall/model_2/model_1/conv1d_2/conv1d/ExpandDims/dim"], "attr": {"T": {"type": "DT_FLOAT"}, "Tdim": {"type": "DT_INT32"}}}, {"name": "StatefulPartitionedCall/model_2/model_1/model/conv1d_18/conv1d_1/ExpandDims", "op": "ExpandDims", "input": ["StatefulPartitionedCall/model_2/model_1/model/p_re_lu_17/Relu_2", "StatefulPartitionedCall/model_2/model_1/model/conv1d_18/conv1d_1/ExpandDims/dim"], "attr": {"T": {"type": "DT_FLOAT"}, "Tdim": {"type": "DT_INT32"}}}, {"name": "StatefulPartitionedCall/model_2/model_1/conv1d_7/conv1d", "op": "Conv2D", "input": ["StatefulPartitionedCall/model_2/model_1/conv1d_7/conv1d/ExpandDims", "StatefulPartitionedCall/model_2/model_1/conv1d_7/conv1d/ExpandDims_1"], "device": "/device:CPU:0", "attr": {"dilations": {"list": {"i": ["1", "1", "1", "1"]}}, "data_format": {"s": "TkhXQw=="}, "T": {"type": "DT_FLOAT"}, "strides": {"list": {"i": ["1", "1", "1", "1"]}}, "padding": {"s": "U0FNRQ=="}, "use_cudnn_on_gpu": {"b": true}, "explicit_paddings": {"list": {}}}}, {"name": "StatefulPartitionedCall/model_2/model_1/model/conv1d_18/conv1d", "op": "Conv2D", "input": ["StatefulPartitionedCall/model_2/model_1/model/conv1d_18/conv1d/ExpandDims", "StatefulPartitionedCall/model_2/model_1/model/conv1d_18/conv1d/ExpandDims_1"], "device": "/device:CPU:0", "attr": {"padding": {"s": "U0FNRQ=="}, "explicit_paddings": {"list": {}}, "dilations": {"list": {"i": ["1", "1", "1", "1"]}}, "data_format": {"s": "TkhXQw=="}, "strides": {"list": {"i": ["1", "1", "1", "1"]}}, "use_cudnn_on_gpu": {"b": true}, "T": {"type": "DT_FLOAT"}}}, {"name": "StatefulPartitionedCall/model_2/model_1/conv1d_2/conv1d", "op": "Conv2D", "input": ["StatefulPartitionedCall/model_2/model_1/conv1d_2/conv1d/ExpandDims", "StatefulPartitionedCall/model_2/model_1/conv1d_2/conv1d/ExpandDims_1"], "device": "/device:CPU:0", "attr": {"padding": {"s": "U0FNRQ=="}, "explicit_paddings": {"list": {}}, "dilations": {"list": {"i": ["1", "1", "1", "1"]}}, "data_format": {"s": "TkhXQw=="}, "strides": {"list": {"i": ["1", "1", "1", "1"]}}, "use_cudnn_on_gpu": {"b": true}, "T": {"type": "DT_FLOAT"}}}, {"name": "StatefulPartitionedCall/model_2/model_1/model/conv1d_18/conv1d_1", "op": "Conv2D", "input": ["StatefulPartitionedCall/model_2/model_1/model/conv1d_18/conv1d_1/ExpandDims", "StatefulPartitionedCall/model_2/model_1/model/conv1d_18/conv1d_1/ExpandDims_1"], "device": "/device:CPU:0", "attr": {"padding": {"s": "U0FNRQ=="}, "explicit_paddings": {"list": {}}, "dilations": {"list": {"i": ["1", "1", "1", "1"]}}, "data_format": {"s": "TkhXQw=="}, "strides": {"list": {"i": ["1", "1", "1", "1"]}}, "use_cudnn_on_gpu": {"b": true}, "T": {"type": "DT_FLOAT"}}}, {"name": "StatefulPartitionedCall/model_2/model_1/conv1d_7/conv1d/Squeeze", "op": "Squeeze", "input": ["StatefulPartitionedCall/model_2/model_1/conv1d_7/conv1d"], "attr": {"squeeze_dims": {"list": {"i": ["-3"]}}, "T": {"type": "DT_FLOAT"}}}, {"name": "StatefulPartitionedCall/model_2/model_1/model/conv1d_18/conv1d/Squeeze", "op": "Squeeze", "input": ["StatefulPartitionedCall/model_2/model_1/model/conv1d_18/conv1d"], "attr": {"squeeze_dims": {"list": {"i": ["-3"]}}, "T": {"type": "DT_FLOAT"}}}, {"name": "StatefulPartitionedCall/model_2/model_1/conv1d_2/conv1d/Squeeze", "op": "Squeeze", "input": ["StatefulPartitionedCall/model_2/model_1/conv1d_2/conv1d"], "attr": {"squeeze_dims": {"list": {"i": ["-3"]}}, "T": {"type": "DT_FLOAT"}}}, {"name": "StatefulPartitionedCall/model_2/model_1/conv1d_12/conv1d/ExpandDims", "op": "ExpandDims", "input": ["StatefulPartitionedCall/model_2/model_1/p_re_lu_11/Relu", "StatefulPartitionedCall/model_2/model_1/conv1d_12/conv1d/ExpandDims/dim"], "attr": {"T": {"type": "DT_FLOAT"}, "Tdim": {"type": "DT_INT32"}}}, {"name": "StatefulPartitionedCall/model_2/model_1/model/conv1d_18/conv1d_1/Squeeze", "op": "Squeeze", "input": ["StatefulPartitionedCall/model_2/model_1/model/conv1d_18/conv1d_1"], "attr": {"squeeze_dims": {"list": {"i": ["-3"]}}, "T": {"type": "DT_FLOAT"}}}, {"name": "StatefulPartitionedCall/model_2/model_1/batch_normalization_7/batchnorm/mul_1", "op": "Mul", "input": ["StatefulPartitionedCall/model_2/model_1/conv1d_7/conv1d/Squeeze", "StatefulPartitionedCall/model_2/model_1/batch_normalization_7/batchnorm/mul"], "attr": {"T": {"type": "DT_FLOAT"}}}, {"name": "StatefulPartitionedCall/model_2/model_1/model/batch_normalization_18/batchnorm/mul_1", "op": "Mul", "input": ["StatefulPartitionedCall/model_2/model_1/model/conv1d_18/conv1d/Squeeze", "StatefulPartitionedCall/model_2/model_1/model/batch_normalization_18/batchnorm/mul"], "attr": {"T": {"type": "DT_FLOAT"}}}, {"name": "StatefulPartitionedCall/model_2/model_1/batch_normalization_2/batchnorm/mul_1", "op": "Mul", "input": ["StatefulPartitionedCall/model_2/model_1/conv1d_2/conv1d/Squeeze", "StatefulPartitionedCall/model_2/model_1/batch_normalization_2/batchnorm/mul"], "attr": {"T": {"type": "DT_FLOAT"}}}, {"name": "StatefulPartitionedCall/model_2/model_1/conv1d_12/conv1d", "op": "Conv2D", "input": ["StatefulPartitionedCall/model_2/model_1/conv1d_12/conv1d/ExpandDims", "StatefulPartitionedCall/model_2/model_1/conv1d_12/conv1d/ExpandDims_1"], "device": "/device:CPU:0", "attr": {"use_cudnn_on_gpu": {"b": true}, "padding": {"s": "U0FNRQ=="}, "T": {"type": "DT_FLOAT"}, "strides": {"list": {"i": ["1", "1", "1", "1"]}}, "dilations": {"list": {"i": ["1", "1", "1", "1"]}}, "data_format": {"s": "TkhXQw=="}, "explicit_paddings": {"list": {}}}}, {"name": "StatefulPartitionedCall/model_2/model_1/conv1d_15/conv1d/ExpandDims", "op": "ExpandDims", "input": ["StatefulPartitionedCall/model_2/model_1/p_re_lu_14/Relu", "StatefulPartitionedCall/model_2/model_1/conv1d_15/conv1d/ExpandDims/dim"], "attr": {"T": {"type": "DT_FLOAT"}, "Tdim": {"type": "DT_INT32"}}}, {"name": "StatefulPartitionedCall/model_2/model_1/model/batch_normalization_18/batchnorm_1/mul_1", "op": "Mul", "input": ["StatefulPartitionedCall/model_2/model_1/model/conv1d_18/conv1d_1/Squeeze", "StatefulPartitionedCall/model_2/model_1/model/batch_normalization_18/batchnorm_1/mul"], "attr": {"T": {"type": "DT_FLOAT"}}}, {"name": "StatefulPartitionedCall/model_2/model_1/batch_normalization_7/batchnorm/add_1", "op": "AddV2", "input": ["StatefulPartitionedCall/model_2/model_1/batch_normalization_7/batchnorm/mul_1", "StatefulPartitionedCall/model_2/model_1/batch_normalization_7/batchnorm/sub"], "attr": {"T": {"type": "DT_FLOAT"}}}, {"name": "StatefulPartitionedCall/model_2/model_1/model/batch_normalization_18/batchnorm/add_1", "op": "AddV2", "input": ["StatefulPartitionedCall/model_2/model_1/model/batch_normalization_18/batchnorm/mul_1", "StatefulPartitionedCall/model_2/model_1/model/batch_normalization_18/batchnorm/sub"], "attr": {"T": {"type": "DT_FLOAT"}}}, {"name": "StatefulPartitionedCall/model_2/model_1/batch_normalization_2/batchnorm/add_1", "op": "AddV2", "input": ["StatefulPartitionedCall/model_2/model_1/batch_normalization_2/batchnorm/mul_1", "StatefulPartitionedCall/model_2/model_1/batch_normalization_2/batchnorm/sub"], "attr": {"T": {"type": "DT_FLOAT"}}}, {"name": "StatefulPartitionedCall/model_2/model_1/conv1d_12/conv1d/Squeeze", "op": "Squeeze", "input": ["StatefulPartitionedCall/model_2/model_1/conv1d_12/conv1d"], "attr": {"T": {"type": "DT_FLOAT"}, "squeeze_dims": {"list": {"i": ["-3"]}}}}, {"name": "StatefulPartitionedCall/model_2/model_1/conv1d_15/conv1d", "op": "Conv2D", "input": ["StatefulPartitionedCall/model_2/model_1/conv1d_15/conv1d/ExpandDims", "StatefulPartitionedCall/model_2/model_1/conv1d_15/conv1d/ExpandDims_1"], "device": "/device:CPU:0", "attr": {"use_cudnn_on_gpu": {"b": true}, "padding": {"s": "U0FNRQ=="}, "T": {"type": "DT_FLOAT"}, "strides": {"list": {"i": ["1", "1", "1", "1"]}}, "dilations": {"list": {"i": ["1", "1", "1", "1"]}}, "data_format": {"s": "TkhXQw=="}, "explicit_paddings": {"list": {}}}}, {"name": "StatefulPartitionedCall/model_2/model_1/model/batch_normalization_18/batchnorm_1/add_1", "op": "AddV2", "input": ["StatefulPartitionedCall/model_2/model_1/model/batch_normalization_18/batchnorm_1/mul_1", "StatefulPartitionedCall/model_2/model_1/model/batch_normalization_18/batchnorm_1/sub"], "attr": {"T": {"type": "DT_FLOAT"}}}, {"name": "StatefulPartitionedCall/model_2/model_1/p_re_lu_7/Relu", "op": "Prelu", "input": ["StatefulPartitionedCall/model_2/model_1/batch_normalization_7/batchnorm/add_1", "StatefulPartitionedCall/model_2/model_1/p_re_lu_7/Neg"]}, {"name": "StatefulPartitionedCall/model_2/model_1/model/p_re_lu_18/Relu", "op": "Prelu", "input": ["StatefulPartitionedCall/model_2/model_1/model/batch_normalization_18/batchnorm/add_1", "StatefulPartitionedCall/model_2/model_1/model/p_re_lu_18/Neg"]}, {"name": "StatefulPartitionedCall/model_2/model_1/p_re_lu_2/Relu", "op": "Prelu", "input": ["StatefulPartitionedCall/model_2/model_1/batch_normalization_2/batchnorm/add_1", "StatefulPartitionedCall/model_2/model_1/p_re_lu_2/Neg"]}, {"name": "StatefulPartitionedCall/model_2/model_1/batch_normalization_12/batchnorm/mul_1", "op": "Mul", "input": ["StatefulPartitionedCall/model_2/model_1/conv1d_12/conv1d/Squeeze", "StatefulPartitionedCall/model_2/model_1/batch_normalization_12/batchnorm/mul"], "attr": {"T": {"type": "DT_FLOAT"}}}, {"name": "StatefulPartitionedCall/model_2/model_1/conv1d_15/conv1d/Squeeze", "op": "Squeeze", "input": ["StatefulPartitionedCall/model_2/model_1/conv1d_15/conv1d"], "attr": {"squeeze_dims": {"list": {"i": ["-3"]}}, "T": {"type": "DT_FLOAT"}}}, {"name": "StatefulPartitionedCall/model_2/model_1/model/p_re_lu_18/Relu_2", "op": "Prelu", "input": ["StatefulPartitionedCall/model_2/model_1/model/batch_normalization_18/batchnorm_1/add_1", "StatefulPartitionedCall/model_2/model_1/model/p_re_lu_18/Neg_2"]}, {"name": "StatefulPartitionedCall/model_2/model_1/batch_normalization_12/batchnorm/add_1", "op": "AddV2", "input": ["StatefulPartitionedCall/model_2/model_1/batch_normalization_12/batchnorm/mul_1", "StatefulPartitionedCall/model_2/model_1/batch_normalization_12/batchnorm/sub"], "attr": {"T": {"type": "DT_FLOAT"}}}, {"name": "StatefulPartitionedCall/model_2/model_1/batch_normalization_15/batchnorm/mul_1", "op": "Mul", "input": ["StatefulPartitionedCall/model_2/model_1/conv1d_15/conv1d/Squeeze", "StatefulPartitionedCall/model_2/model_1/batch_normalization_15/batchnorm/mul"], "attr": {"T": {"type": "DT_FLOAT"}}}, {"name": "StatefulPartitionedCall/model_2/model_1/p_re_lu_12/Relu", "op": "Prelu", "input": ["StatefulPartitionedCall/model_2/model_1/batch_normalization_12/batchnorm/add_1", "StatefulPartitionedCall/model_2/model_1/p_re_lu_12/Neg"]}, {"name": "StatefulPartitionedCall/model_2/model_1/batch_normalization_15/batchnorm/add_1", "op": "AddV2", "input": ["StatefulPartitionedCall/model_2/model_1/batch_normalization_15/batchnorm/mul_1", "StatefulPartitionedCall/model_2/model_1/batch_normalization_15/batchnorm/sub"], "attr": {"T": {"type": "DT_FLOAT"}}}, {"name": "StatefulPartitionedCall/model_2/model_1/p_re_lu_15/Relu", "op": "Prelu", "input": ["StatefulPartitionedCall/model_2/model_1/batch_normalization_15/batchnorm/add_1", "StatefulPartitionedCall/model_2/model_1/p_re_lu_15/Neg"]}, {"name": "StatefulPartitionedCall/model_2/model_1/max_pooling1d_3/ExpandDims", "op": "ExpandDims", "input": ["StatefulPartitionedCall/model_2/model_1/p_re_lu_7/Relu", "StatefulPartitionedCall/model_2/model_1/max_pooling1d_3/ExpandDims/dim"], "attr": {"T": {"type": "DT_FLOAT"}, "Tdim": {"type": "DT_INT32"}}}, {"name": "StatefulPartitionedCall/model_2/model_1/model/max_pooling1d_7/ExpandDims", "op": "ExpandDims", "input": ["StatefulPartitionedCall/model_2/model_1/model/p_re_lu_18/Relu", "StatefulPartitionedCall/model_2/model_1/model/max_pooling1d_7/ExpandDims/dim"], "attr": {"T": {"type": "DT_FLOAT"}, "Tdim": {"type": "DT_INT32"}}}, {"name": "StatefulPartitionedCall/model_2/model_1/max_pooling1d/ExpandDims", "op": "ExpandDims", "input": ["StatefulPartitionedCall/model_2/model_1/p_re_lu_2/Relu", "StatefulPartitionedCall/model_2/model_1/max_pooling1d/ExpandDims/dim"], "attr": {"T": {"type": "DT_FLOAT"}, "Tdim": {"type": "DT_INT32"}}}, {"name": "StatefulPartitionedCall/model_2/model_1/model/max_pooling1d_7/ExpandDims_1", "op": "ExpandDims", "input": ["StatefulPartitionedCall/model_2/model_1/model/p_re_lu_18/Relu_2", "StatefulPartitionedCall/model_2/model_1/model/max_pooling1d_7/ExpandDims_1/dim"], "attr": {"T": {"type": "DT_FLOAT"}, "Tdim": {"type": "DT_INT32"}}}, {"name": "StatefulPartitionedCall/model_2/model_1/max_pooling1d_3/MaxPool", "op": "MaxPool", "input": ["StatefulPartitionedCall/model_2/model_1/max_pooling1d_3/ExpandDims"], "attr": {"data_format": {"s": "TkhXQw=="}, "ksize": {"list": {"i": ["1", "2", "1", "1"]}}, "explicit_paddings": {"list": {}}, "strides": {"list": {"i": ["1", "2", "1", "1"]}}, "padding": {"s": "VkFMSUQ="}, "T": {"type": "DT_FLOAT"}}}, {"name": "StatefulPartitionedCall/model_2/model_1/model/max_pooling1d_7/MaxPool", "op": "MaxPool", "input": ["StatefulPartitionedCall/model_2/model_1/model/max_pooling1d_7/ExpandDims"], "attr": {"data_format": {"s": "TkhXQw=="}, "ksize": {"list": {"i": ["1", "2", "1", "1"]}}, "explicit_paddings": {"list": {}}, "strides": {"list": {"i": ["1", "2", "1", "1"]}}, "padding": {"s": "VkFMSUQ="}, "T": {"type": "DT_FLOAT"}}}, {"name": "StatefulPartitionedCall/model_2/model_1/max_pooling1d/MaxPool", "op": "MaxPool", "input": ["StatefulPartitionedCall/model_2/model_1/max_pooling1d/ExpandDims"], "attr": {"data_format": {"s": "TkhXQw=="}, "ksize": {"list": {"i": ["1", "2", "1", "1"]}}, "explicit_paddings": {"list": {}}, "strides": {"list": {"i": ["1", "2", "1", "1"]}}, "padding": {"s": "VkFMSUQ="}, "T": {"type": "DT_FLOAT"}}}, {"name": "StatefulPartitionedCall/model_2/model_1/model/max_pooling1d_7/MaxPool_1", "op": "MaxPool", "input": ["StatefulPartitionedCall/model_2/model_1/model/max_pooling1d_7/ExpandDims_1"], "attr": {"data_format": {"s": "TkhXQw=="}, "ksize": {"list": {"i": ["1", "2", "1", "1"]}}, "explicit_paddings": {"list": {}}, "strides": {"list": {"i": ["1", "2", "1", "1"]}}, "padding": {"s": "VkFMSUQ="}, "T": {"type": "DT_FLOAT"}}}, {"name": "StatefulPartitionedCall/model_2/model_1/max_pooling1d_3/Squeeze", "op": "Squeeze", "input": ["StatefulPartitionedCall/model_2/model_1/max_pooling1d_3/MaxPool"], "attr": {"squeeze_dims": {"list": {"i": ["2"]}}, "T": {"type": "DT_FLOAT"}}}, {"name": "StatefulPartitionedCall/model_2/model_1/model/max_pooling1d_7/Squeeze", "op": "Squeeze", "input": ["StatefulPartitionedCall/model_2/model_1/model/max_pooling1d_7/MaxPool"], "attr": {"squeeze_dims": {"list": {"i": ["2"]}}, "T": {"type": "DT_FLOAT"}}}, {"name": "StatefulPartitionedCall/model_2/model_1/max_pooling1d/Squeeze", "op": "Squeeze", "input": ["StatefulPartitionedCall/model_2/model_1/max_pooling1d/MaxPool"], "attr": {"squeeze_dims": {"list": {"i": ["2"]}}, "T": {"type": "DT_FLOAT"}}}, {"name": "StatefulPartitionedCall/model_2/model_1/max_pooling1d_6/ExpandDims", "op": "ExpandDims", "input": ["StatefulPartitionedCall/model_2/model_1/p_re_lu_12/Relu", "StatefulPartitionedCall/model_2/model_1/max_pooling1d_6/ExpandDims/dim"], "attr": {"T": {"type": "DT_FLOAT"}, "Tdim": {"type": "DT_INT32"}}}, {"name": "StatefulPartitionedCall/model_2/model_1/model/max_pooling1d_7/Squeeze_1", "op": "Squeeze", "input": ["StatefulPartitionedCall/model_2/model_1/model/max_pooling1d_7/MaxPool_1"], "attr": {"squeeze_dims": {"list": {"i": ["2"]}}, "T": {"type": "DT_FLOAT"}}}, {"name": "StatefulPartitionedCall/model_2/model_1/conv1d_8/conv1d/ExpandDims", "op": "ExpandDims", "input": ["StatefulPartitionedCall/model_2/model_1/max_pooling1d_3/Squeeze", "StatefulPartitionedCall/model_2/model_1/conv1d_8/conv1d/ExpandDims/dim"], "attr": {"T": {"type": "DT_FLOAT"}, "Tdim": {"type": "DT_INT32"}}}, {"name": "StatefulPartitionedCall/model_2/model_1/conv1d_3/conv1d/ExpandDims", "op": "ExpandDims", "input": ["StatefulPartitionedCall/model_2/model_1/max_pooling1d/Squeeze", "StatefulPartitionedCall/model_2/model_1/conv1d_3/conv1d/ExpandDims/dim"], "attr": {"T": {"type": "DT_FLOAT"}, "Tdim": {"type": "DT_INT32"}}}, {"name": "StatefulPartitionedCall/model_2/model_1/max_pooling1d_6/MaxPool", "op": "MaxPool", "input": ["StatefulPartitionedCall/model_2/model_1/max_pooling1d_6/ExpandDims"], "attr": {"padding": {"s": "VkFMSUQ="}, "T": {"type": "DT_FLOAT"}, "strides": {"list": {"i": ["1", "2", "1", "1"]}}, "ksize": {"list": {"i": ["1", "2", "1", "1"]}}, "data_format": {"s": "TkhXQw=="}, "explicit_paddings": {"list": {}}}}, {"name": "StatefulPartitionedCall/model_2/model_1/conv1d_8/conv1d", "op": "Conv2D", "input": ["StatefulPartitionedCall/model_2/model_1/conv1d_8/conv1d/ExpandDims", "StatefulPartitionedCall/model_2/model_1/conv1d_8/conv1d/ExpandDims_1"], "device": "/device:CPU:0", "attr": {"use_cudnn_on_gpu": {"b": true}, "strides": {"list": {"i": ["1", "1", "1", "1"]}}, "data_format": {"s": "TkhXQw=="}, "dilations": {"list": {"i": ["1", "1", "1", "1"]}}, "explicit_paddings": {"list": {}}, "padding": {"s": "U0FNRQ=="}, "T": {"type": "DT_FLOAT"}}}, {"name": "StatefulPartitionedCall/model_2/model_1/conv1d_3/conv1d", "op": "Conv2D", "input": ["StatefulPartitionedCall/model_2/model_1/conv1d_3/conv1d/ExpandDims", "StatefulPartitionedCall/model_2/model_1/conv1d_3/conv1d/ExpandDims_1"], "device": "/device:CPU:0", "attr": {"strides": {"list": {"i": ["1", "1", "1", "1"]}}, "use_cudnn_on_gpu": {"b": true}, "data_format": {"s": "TkhXQw=="}, "dilations": {"list": {"i": ["1", "1", "1", "1"]}}, "explicit_paddings": {"list": {}}, "padding": {"s": "U0FNRQ=="}, "T": {"type": "DT_FLOAT"}}}, {"name": "StatefulPartitionedCall/model_2/model_1/max_pooling1d_6/Squeeze", "op": "Squeeze", "input": ["StatefulPartitionedCall/model_2/model_1/max_pooling1d_6/MaxPool"], "attr": {"squeeze_dims": {"list": {"i": ["2"]}}, "T": {"type": "DT_FLOAT"}}}, {"name": "StatefulPartitionedCall/model_2/model_1/conv1d_8/conv1d/Squeeze", "op": "Squeeze", "input": ["StatefulPartitionedCall/model_2/model_1/conv1d_8/conv1d"], "attr": {"squeeze_dims": {"list": {"i": ["-3"]}}, "T": {"type": "DT_FLOAT"}}}, {"name": "StatefulPartitionedCall/model_2/model_1/conv1d_3/conv1d/Squeeze", "op": "Squeeze", "input": ["StatefulPartitionedCall/model_2/model_1/conv1d_3/conv1d"], "attr": {"squeeze_dims": {"list": {"i": ["-3"]}}, "T": {"type": "DT_FLOAT"}}}, {"name": "StatefulPartitionedCall/model_2/model_1/concatenate_1/concat", "op": "ConcatV2", "input": ["StatefulPartitionedCall/model_2/model_1/max_pooling1d_6/Squeeze", "StatefulPartitionedCall/model_2/model_1/p_re_lu_15/Relu", "StatefulPartitionedCall/model_2/model_1/model/max_pooling1d_7/Squeeze", "StatefulPartitionedCall/model_2/model_1/model/max_pooling1d_7/Squeeze_1", "StatefulPartitionedCall/model_2/model_1/concatenate_1/concat/axis"], "attr": {"N": {"i": "4"}, "T": {"type": "DT_FLOAT"}, "Tidx": {"type": "DT_INT32"}}}, {"name": "StatefulPartitionedCall/model_2/model_1/batch_normalization_8/batchnorm/mul_1", "op": "Mul", "input": ["StatefulPartitionedCall/model_2/model_1/conv1d_8/conv1d/Squeeze", "StatefulPartitionedCall/model_2/model_1/batch_normalization_8/batchnorm/mul"], "attr": {"T": {"type": "DT_FLOAT"}}}, {"name": "StatefulPartitionedCall/model_2/model_1/batch_normalization_3/batchnorm/mul_1", "op": "Mul", "input": ["StatefulPartitionedCall/model_2/model_1/conv1d_3/conv1d/Squeeze", "StatefulPartitionedCall/model_2/model_1/batch_normalization_3/batchnorm/mul"], "attr": {"T": {"type": "DT_FLOAT"}}}, {"name": "StatefulPartitionedCall/model_2/model_1/conv1d_19/conv1d/ExpandDims", "op": "ExpandDims", "input": ["StatefulPartitionedCall/model_2/model_1/concatenate_1/concat", "StatefulPartitionedCall/model_2/model_1/conv1d_19/conv1d/ExpandDims/dim"], "attr": {"T": {"type": "DT_FLOAT"}, "Tdim": {"type": "DT_INT32"}}}, {"name": "StatefulPartitionedCall/model_2/model_1/batch_normalization_8/batchnorm/add_1", "op": "AddV2", "input": ["StatefulPartitionedCall/model_2/model_1/batch_normalization_8/batchnorm/mul_1", "StatefulPartitionedCall/model_2/model_1/batch_normalization_8/batchnorm/sub"], "attr": {"T": {"type": "DT_FLOAT"}}}, {"name": "StatefulPartitionedCall/model_2/model_1/batch_normalization_3/batchnorm/add_1", "op": "AddV2", "input": ["StatefulPartitionedCall/model_2/model_1/batch_normalization_3/batchnorm/mul_1", "StatefulPartitionedCall/model_2/model_1/batch_normalization_3/batchnorm/sub"], "attr": {"T": {"type": "DT_FLOAT"}}}, {"name": "StatefulPartitionedCall/model_2/model_1/conv1d_19/conv1d", "op": "Conv2D", "input": ["StatefulPartitionedCall/model_2/model_1/conv1d_19/conv1d/ExpandDims", "StatefulPartitionedCall/model_2/model_1/conv1d_19/conv1d/ExpandDims_1"], "device": "/device:CPU:0", "attr": {"explicit_paddings": {"list": {}}, "dilations": {"list": {"i": ["1", "1", "1", "1"]}}, "data_format": {"s": "TkhXQw=="}, "use_cudnn_on_gpu": {"b": true}, "T": {"type": "DT_FLOAT"}, "strides": {"list": {"i": ["1", "1", "1", "1"]}}, "padding": {"s": "U0FNRQ=="}}}, {"name": "StatefulPartitionedCall/model_2/model_1/p_re_lu_8/Relu", "op": "Prelu", "input": ["StatefulPartitionedCall/model_2/model_1/batch_normalization_8/batchnorm/add_1", "StatefulPartitionedCall/model_2/model_1/p_re_lu_8/Neg"]}, {"name": "StatefulPartitionedCall/model_2/model_1/p_re_lu_3/Relu", "op": "Prelu", "input": ["StatefulPartitionedCall/model_2/model_1/batch_normalization_3/batchnorm/add_1", "StatefulPartitionedCall/model_2/model_1/p_re_lu_3/Neg"]}, {"name": "StatefulPartitionedCall/model_2/model_1/conv1d_19/conv1d/Squeeze", "op": "Squeeze", "input": ["StatefulPartitionedCall/model_2/model_1/conv1d_19/conv1d"], "attr": {"T": {"type": "DT_FLOAT"}, "squeeze_dims": {"list": {"i": ["-3"]}}}}, {"name": "StatefulPartitionedCall/model_2/model_1/batch_normalization_19/batchnorm/mul_1", "op": "Mul", "input": ["StatefulPartitionedCall/model_2/model_1/conv1d_19/conv1d/Squeeze", "StatefulPartitionedCall/model_2/model_1/batch_normalization_19/batchnorm/mul"], "attr": {"T": {"type": "DT_FLOAT"}}}, {"name": "StatefulPartitionedCall/model_2/model_1/batch_normalization_19/batchnorm/add_1", "op": "AddV2", "input": ["StatefulPartitionedCall/model_2/model_1/batch_normalization_19/batchnorm/mul_1", "StatefulPartitionedCall/model_2/model_1/batch_normalization_19/batchnorm/sub"], "attr": {"T": {"type": "DT_FLOAT"}}}, {"name": "StatefulPartitionedCall/model_2/model_1/p_re_lu_19/Relu", "op": "Prelu", "input": ["StatefulPartitionedCall/model_2/model_1/batch_normalization_19/batchnorm/add_1", "StatefulPartitionedCall/model_2/model_1/p_re_lu_19/Neg"]}, {"name": "StatefulPartitionedCall/model_2/model_1/max_pooling1d_4/ExpandDims", "op": "ExpandDims", "input": ["StatefulPartitionedCall/model_2/model_1/p_re_lu_8/Relu", "StatefulPartitionedCall/model_2/model_1/max_pooling1d_4/ExpandDims/dim"], "attr": {"T": {"type": "DT_FLOAT"}, "Tdim": {"type": "DT_INT32"}}}, {"name": "StatefulPartitionedCall/model_2/model_1/max_pooling1d_1/ExpandDims", "op": "ExpandDims", "input": ["StatefulPartitionedCall/model_2/model_1/p_re_lu_3/Relu", "StatefulPartitionedCall/model_2/model_1/max_pooling1d_1/ExpandDims/dim"], "attr": {"T": {"type": "DT_FLOAT"}, "Tdim": {"type": "DT_INT32"}}}, {"name": "StatefulPartitionedCall/model_2/model_1/max_pooling1d_4/MaxPool", "op": "MaxPool", "input": ["StatefulPartitionedCall/model_2/model_1/max_pooling1d_4/ExpandDims"], "attr": {"explicit_paddings": {"list": {}}, "ksize": {"list": {"i": ["1", "4", "1", "1"]}}, "data_format": {"s": "TkhXQw=="}, "T": {"type": "DT_FLOAT"}, "strides": {"list": {"i": ["1", "4", "1", "1"]}}, "padding": {"s": "VkFMSUQ="}}}, {"name": "StatefulPartitionedCall/model_2/model_1/max_pooling1d_1/MaxPool", "op": "MaxPool", "input": ["StatefulPartitionedCall/model_2/model_1/max_pooling1d_1/ExpandDims"], "attr": {"strides": {"list": {"i": ["1", "4", "1", "1"]}}, "T": {"type": "DT_FLOAT"}, "padding": {"s": "VkFMSUQ="}, "ksize": {"list": {"i": ["1", "4", "1", "1"]}}, "data_format": {"s": "TkhXQw=="}, "explicit_paddings": {"list": {}}}}, {"name": "StatefulPartitionedCall/model_2/model_1/max_pooling1d_4/Squeeze", "op": "Squeeze", "input": ["StatefulPartitionedCall/model_2/model_1/max_pooling1d_4/MaxPool"], "attr": {"T": {"type": "DT_FLOAT"}, "squeeze_dims": {"list": {"i": ["2"]}}}}, {"name": "StatefulPartitionedCall/model_2/model_1/max_pooling1d_1/Squeeze", "op": "Squeeze", "input": ["StatefulPartitionedCall/model_2/model_1/max_pooling1d_1/MaxPool"], "attr": {"T": {"type": "DT_FLOAT"}, "squeeze_dims": {"list": {"i": ["2"]}}}}, {"name": "StatefulPartitionedCall/model_2/model_1/conv1d_9/conv1d/ExpandDims", "op": "ExpandDims", "input": ["StatefulPartitionedCall/model_2/model_1/max_pooling1d_4/Squeeze", "StatefulPartitionedCall/model_2/model_1/conv1d_9/conv1d/ExpandDims/dim"], "attr": {"T": {"type": "DT_FLOAT"}, "Tdim": {"type": "DT_INT32"}}}, {"name": "StatefulPartitionedCall/model_2/model_1/conv1d_4/conv1d/ExpandDims", "op": "ExpandDims", "input": ["StatefulPartitionedCall/model_2/model_1/max_pooling1d_1/Squeeze", "StatefulPartitionedCall/model_2/model_1/conv1d_4/conv1d/ExpandDims/dim"], "attr": {"T": {"type": "DT_FLOAT"}, "Tdim": {"type": "DT_INT32"}}}, {"name": "StatefulPartitionedCall/model_2/model_1/max_pooling1d_8/ExpandDims", "op": "ExpandDims", "input": ["StatefulPartitionedCall/model_2/model_1/p_re_lu_19/Relu", "StatefulPartitionedCall/model_2/model_1/max_pooling1d_8/ExpandDims/dim"], "attr": {"T": {"type": "DT_FLOAT"}, "Tdim": {"type": "DT_INT32"}}}, {"name": "StatefulPartitionedCall/model_2/model_1/conv1d_9/conv1d", "op": "Conv2D", "input": ["StatefulPartitionedCall/model_2/model_1/conv1d_9/conv1d/ExpandDims", "StatefulPartitionedCall/model_2/model_1/conv1d_9/conv1d/ExpandDims_1"], "device": "/device:CPU:0", "attr": {"strides": {"list": {"i": ["1", "1", "1", "1"]}}, "use_cudnn_on_gpu": {"b": true}, "T": {"type": "DT_FLOAT"}, "padding": {"s": "U0FNRQ=="}, "data_format": {"s": "TkhXQw=="}, "explicit_paddings": {"list": {}}, "dilations": {"list": {"i": ["1", "1", "1", "1"]}}}}, {"name": "StatefulPartitionedCall/model_2/model_1/conv1d_4/conv1d", "op": "Conv2D", "input": ["StatefulPartitionedCall/model_2/model_1/conv1d_4/conv1d/ExpandDims", "StatefulPartitionedCall/model_2/model_1/conv1d_4/conv1d/ExpandDims_1"], "device": "/device:CPU:0", "attr": {"strides": {"list": {"i": ["1", "1", "1", "1"]}}, "explicit_paddings": {"list": {}}, "dilations": {"list": {"i": ["1", "1", "1", "1"]}}, "data_format": {"s": "TkhXQw=="}, "T": {"type": "DT_FLOAT"}, "padding": {"s": "U0FNRQ=="}, "use_cudnn_on_gpu": {"b": true}}}, {"name": "StatefulPartitionedCall/model_2/model_1/max_pooling1d_8/MaxPool", "op": "MaxPool", "input": ["StatefulPartitionedCall/model_2/model_1/max_pooling1d_8/ExpandDims"], "attr": {"strides": {"list": {"i": ["1", "4", "1", "1"]}}, "ksize": {"list": {"i": ["1", "4", "1", "1"]}}, "explicit_paddings": {"list": {}}, "data_format": {"s": "TkhXQw=="}, "T": {"type": "DT_FLOAT"}, "padding": {"s": "VkFMSUQ="}}}, {"name": "StatefulPartitionedCall/model_2/model_1/conv1d_9/conv1d/Squeeze", "op": "Squeeze", "input": ["StatefulPartitionedCall/model_2/model_1/conv1d_9/conv1d"], "attr": {"T": {"type": "DT_FLOAT"}, "squeeze_dims": {"list": {"i": ["-3"]}}}}, {"name": "StatefulPartitionedCall/model_2/model_1/conv1d_4/conv1d/Squeeze", "op": "Squeeze", "input": ["StatefulPartitionedCall/model_2/model_1/conv1d_4/conv1d"], "attr": {"T": {"type": "DT_FLOAT"}, "squeeze_dims": {"list": {"i": ["-3"]}}}}, {"name": "StatefulPartitionedCall/model_2/model_1/max_pooling1d_8/Squeeze", "op": "Squeeze", "input": ["StatefulPartitionedCall/model_2/model_1/max_pooling1d_8/MaxPool"], "attr": {"T": {"type": "DT_FLOAT"}, "squeeze_dims": {"list": {"i": ["2"]}}}}, {"name": "StatefulPartitionedCall/model_2/model_1/batch_normalization_9/batchnorm/mul_1", "op": "Mul", "input": ["StatefulPartitionedCall/model_2/model_1/conv1d_9/conv1d/Squeeze", "StatefulPartitionedCall/model_2/model_1/batch_normalization_9/batchnorm/mul"], "attr": {"T": {"type": "DT_FLOAT"}}}, {"name": "StatefulPartitionedCall/model_2/model_1/batch_normalization_4/batchnorm/mul_1", "op": "Mul", "input": ["StatefulPartitionedCall/model_2/model_1/conv1d_4/conv1d/Squeeze", "StatefulPartitionedCall/model_2/model_1/batch_normalization_4/batchnorm/mul"], "attr": {"T": {"type": "DT_FLOAT"}}}, {"name": "StatefulPartitionedCall/model_2/model_1/conv1d_20/conv1d/ExpandDims", "op": "ExpandDims", "input": ["StatefulPartitionedCall/model_2/model_1/max_pooling1d_8/Squeeze", "StatefulPartitionedCall/model_2/model_1/conv1d_20/conv1d/ExpandDims/dim"], "attr": {"T": {"type": "DT_FLOAT"}, "Tdim": {"type": "DT_INT32"}}}, {"name": "StatefulPartitionedCall/model_2/model_1/batch_normalization_9/batchnorm/add_1", "op": "AddV2", "input": ["StatefulPartitionedCall/model_2/model_1/batch_normalization_9/batchnorm/mul_1", "StatefulPartitionedCall/model_2/model_1/batch_normalization_9/batchnorm/sub"], "attr": {"T": {"type": "DT_FLOAT"}}}, {"name": "StatefulPartitionedCall/model_2/model_1/batch_normalization_4/batchnorm/add_1", "op": "AddV2", "input": ["StatefulPartitionedCall/model_2/model_1/batch_normalization_4/batchnorm/mul_1", "StatefulPartitionedCall/model_2/model_1/batch_normalization_4/batchnorm/sub"], "attr": {"T": {"type": "DT_FLOAT"}}}, {"name": "StatefulPartitionedCall/model_2/model_1/conv1d_20/conv1d", "op": "Conv2D", "input": ["StatefulPartitionedCall/model_2/model_1/conv1d_20/conv1d/ExpandDims", "StatefulPartitionedCall/model_2/model_1/conv1d_20/conv1d/ExpandDims_1"], "device": "/device:CPU:0", "attr": {"dilations": {"list": {"i": ["1", "1", "1", "1"]}}, "T": {"type": "DT_FLOAT"}, "padding": {"s": "U0FNRQ=="}, "strides": {"list": {"i": ["1", "1", "1", "1"]}}, "use_cudnn_on_gpu": {"b": true}, "data_format": {"s": "TkhXQw=="}, "explicit_paddings": {"list": {}}}}, {"name": "StatefulPartitionedCall/model_2/model_1/p_re_lu_9/Relu", "op": "Prelu", "input": ["StatefulPartitionedCall/model_2/model_1/batch_normalization_9/batchnorm/add_1", "StatefulPartitionedCall/model_2/model_1/p_re_lu_9/Neg"]}, {"name": "StatefulPartitionedCall/model_2/model_1/p_re_lu_4/Relu", "op": "Prelu", "input": ["StatefulPartitionedCall/model_2/model_1/batch_normalization_4/batchnorm/add_1", "StatefulPartitionedCall/model_2/model_1/p_re_lu_4/Neg"]}, {"name": "StatefulPartitionedCall/model_2/model_1/conv1d_20/conv1d/Squeeze", "op": "Squeeze", "input": ["StatefulPartitionedCall/model_2/model_1/conv1d_20/conv1d"], "attr": {"T": {"type": "DT_FLOAT"}, "squeeze_dims": {"list": {"i": ["-3"]}}}}, {"name": "StatefulPartitionedCall/model_2/model_1/batch_normalization_20/batchnorm/mul_1", "op": "Mul", "input": ["StatefulPartitionedCall/model_2/model_1/conv1d_20/conv1d/Squeeze", "StatefulPartitionedCall/model_2/model_1/batch_normalization_20/batchnorm/mul"], "attr": {"T": {"type": "DT_FLOAT"}}}, {"name": "StatefulPartitionedCall/model_2/model_1/batch_normalization_20/batchnorm/add_1", "op": "AddV2", "input": ["StatefulPartitionedCall/model_2/model_1/batch_normalization_20/batchnorm/mul_1", "StatefulPartitionedCall/model_2/model_1/batch_normalization_20/batchnorm/sub"], "attr": {"T": {"type": "DT_FLOAT"}}}, {"name": "StatefulPartitionedCall/model_2/model_1/p_re_lu_20/Relu", "op": "Prelu", "input": ["StatefulPartitionedCall/model_2/model_1/batch_normalization_20/batchnorm/add_1", "StatefulPartitionedCall/model_2/model_1/p_re_lu_20/Neg"]}, {"name": "StatefulPartitionedCall/model_2/model_1/max_pooling1d_5/ExpandDims", "op": "ExpandDims", "input": ["StatefulPartitionedCall/model_2/model_1/p_re_lu_9/Relu", "StatefulPartitionedCall/model_2/model_1/max_pooling1d_5/ExpandDims/dim"], "attr": {"T": {"type": "DT_FLOAT"}, "Tdim": {"type": "DT_INT32"}}}, {"name": "StatefulPartitionedCall/model_2/model_1/max_pooling1d_2/ExpandDims", "op": "ExpandDims", "input": ["StatefulPartitionedCall/model_2/model_1/p_re_lu_4/Relu", "StatefulPartitionedCall/model_2/model_1/max_pooling1d_2/ExpandDims/dim"], "attr": {"T": {"type": "DT_FLOAT"}, "Tdim": {"type": "DT_INT32"}}}, {"name": "StatefulPartitionedCall/model_2/model_1/max_pooling1d_5/MaxPool", "op": "MaxPool", "input": ["StatefulPartitionedCall/model_2/model_1/max_pooling1d_5/ExpandDims"], "attr": {"T": {"type": "DT_FLOAT"}, "padding": {"s": "VkFMSUQ="}, "strides": {"list": {"i": ["1", "2", "1", "1"]}}, "ksize": {"list": {"i": ["1", "2", "1", "1"]}}, "data_format": {"s": "TkhXQw=="}, "explicit_paddings": {"list": {}}}}, {"name": "StatefulPartitionedCall/model_2/model_1/max_pooling1d_2/MaxPool", "op": "MaxPool", "input": ["StatefulPartitionedCall/model_2/model_1/max_pooling1d_2/ExpandDims"], "attr": {"padding": {"s": "VkFMSUQ="}, "T": {"type": "DT_FLOAT"}, "strides": {"list": {"i": ["1", "2", "1", "1"]}}, "ksize": {"list": {"i": ["1", "2", "1", "1"]}}, "data_format": {"s": "TkhXQw=="}, "explicit_paddings": {"list": {}}}}, {"name": "StatefulPartitionedCall/model_2/model_1/max_pooling1d_5/Squeeze", "op": "Squeeze", "input": ["StatefulPartitionedCall/model_2/model_1/max_pooling1d_5/MaxPool"], "attr": {"squeeze_dims": {"list": {"i": ["2"]}}, "T": {"type": "DT_FLOAT"}}}, {"name": "StatefulPartitionedCall/model_2/model_1/max_pooling1d_2/Squeeze", "op": "Squeeze", "input": ["StatefulPartitionedCall/model_2/model_1/max_pooling1d_2/MaxPool"], "attr": {"squeeze_dims": {"list": {"i": ["2"]}}, "T": {"type": "DT_FLOAT"}}}, {"name": "StatefulPartitionedCall/model_2/model_1/flatten_1/Reshape", "op": "Reshape", "input": ["StatefulPartitionedCall/model_2/model_1/max_pooling1d_5/Squeeze", "StatefulPartitionedCall/model_2/model_1/flatten_1/Const"], "attr": {"T": {"type": "DT_FLOAT"}, "Tshape": {"type": "DT_INT32"}}}, {"name": "StatefulPartitionedCall/model_2/model_1/flatten/Reshape", "op": "Reshape", "input": ["StatefulPartitionedCall/model_2/model_1/max_pooling1d_2/Squeeze", "StatefulPartitionedCall/model_2/model_1/flatten/Const"], "attr": {"T": {"type": "DT_FLOAT"}, "Tshape": {"type": "DT_INT32"}}}, {"name": "StatefulPartitionedCall/model_2/model_1/max_pooling1d_9/ExpandDims", "op": "ExpandDims", "input": ["StatefulPartitionedCall/model_2/model_1/p_re_lu_20/Relu", "StatefulPartitionedCall/model_2/model_1/max_pooling1d_9/ExpandDims/dim"], "attr": {"T": {"type": "DT_FLOAT"}, "Tdim": {"type": "DT_INT32"}}}, {"name": "StatefulPartitionedCall/model_2/model_1/dense_1/BiasAdd", "op": "_FusedMatMul", "input": ["StatefulPartitionedCall/model_2/model_1/flatten_1/Reshape", "StatefulPartitionedCall/model_2/model_1/dense_1/MatMul/ReadVariableOp", "StatefulPartitionedCall/model_2/model_1/dense_1/BiasAdd/ReadVariableOp"], "device": "/device:CPU:0", "attr": {"T": {"type": "DT_FLOAT"}, "fused_ops": {"list": {"s": ["Qmlhc0FkZA=="]}}, "transpose_b": {"b": false}, "epsilon": {"f": 0.0}, "transpose_a": {"b": false}, "num_args": {"i": "1"}}}, {"name": "StatefulPartitionedCall/model_2/model_1/dense/BiasAdd", "op": "_FusedMatMul", "input": ["StatefulPartitionedCall/model_2/model_1/flatten/Reshape", "StatefulPartitionedCall/model_2/model_1/dense/MatMul/ReadVariableOp", "StatefulPartitionedCall/model_2/model_1/dense/BiasAdd/ReadVariableOp"], "device": "/device:CPU:0", "attr": {"transpose_a": {"b": false}, "num_args": {"i": "1"}, "fused_ops": {"list": {"s": ["Qmlhc0FkZA=="]}}, "T": {"type": "DT_FLOAT"}, "transpose_b": {"b": false}, "epsilon": {"f": 0.0}}}, {"name": "StatefulPartitionedCall/model_2/model_1/max_pooling1d_9/MaxPool", "op": "MaxPool", "input": ["StatefulPartitionedCall/model_2/model_1/max_pooling1d_9/ExpandDims"], "attr": {"ksize": {"list": {"i": ["1", "2", "1", "1"]}}, "data_format": {"s": "TkhXQw=="}, "strides": {"list": {"i": ["1", "2", "1", "1"]}}, "explicit_paddings": {"list": {}}, "padding": {"s": "VkFMSUQ="}, "T": {"type": "DT_FLOAT"}}}, {"name": "StatefulPartitionedCall/model_2/model_1/tf.math.l2_normalize_1/l2_normalize/Square", "op": "Square", "input": ["StatefulPartitionedCall/model_2/model_1/dense_1/BiasAdd"], "attr": {"T": {"type": "DT_FLOAT"}}}, {"name": "StatefulPartitionedCall/model_2/model_1/tf.math.l2_normalize/l2_normalize/Square", "op": "Square", "input": ["StatefulPartitionedCall/model_2/model_1/dense/BiasAdd"], "attr": {"T": {"type": "DT_FLOAT"}}}, {"name": "StatefulPartitionedCall/model_2/model_1/max_pooling1d_9/Squeeze", "op": "Squeeze", "input": ["StatefulPartitionedCall/model_2/model_1/max_pooling1d_9/MaxPool"], "attr": {"squeeze_dims": {"list": {"i": ["2"]}}, "T": {"type": "DT_FLOAT"}}}, {"name": "StatefulPartitionedCall/model_2/model_1/tf.math.l2_normalize_1/l2_normalize/Sum", "op": "Sum", "input": ["StatefulPartitionedCall/model_2/model_1/tf.math.l2_normalize_1/l2_normalize/Square", "StatefulPartitionedCall/model_2/model_1/tf.math.l2_normalize_1/l2_normalize/Sum/reduction_indices"], "attr": {"keep_dims": {"b": true}, "T": {"type": "DT_FLOAT"}, "Tidx": {"type": "DT_INT32"}}}, {"name": "StatefulPartitionedCall/model_2/model_1/tf.math.l2_normalize/l2_normalize/Sum", "op": "Sum", "input": ["StatefulPartitionedCall/model_2/model_1/tf.math.l2_normalize/l2_normalize/Square", "StatefulPartitionedCall/model_2/model_1/tf.math.l2_normalize/l2_normalize/Sum/reduction_indices"], "attr": {"T": {"type": "DT_FLOAT"}, "keep_dims": {"b": true}, "Tidx": {"type": "DT_INT32"}}}, {"name": "StatefulPartitionedCall/model_2/model_1/flatten_2/Reshape", "op": "Reshape", "input": ["StatefulPartitionedCall/model_2/model_1/max_pooling1d_9/Squeeze", "StatefulPartitionedCall/model_2/model_1/flatten_2/Const"], "attr": {"T": {"type": "DT_FLOAT"}, "Tshape": {"type": "DT_INT32"}}}, {"name": "StatefulPartitionedCall/model_2/model_1/tf.math.l2_normalize_1/l2_normalize/Maximum", "op": "Maximum", "input": ["StatefulPartitionedCall/model_2/model_1/tf.math.l2_normalize_1/l2_normalize/Sum", "StatefulPartitionedCall/model_2/model_1/tf.math.l2_normalize_1/l2_normalize/Maximum/y"], "attr": {"T": {"type": "DT_FLOAT"}}}, {"name": "StatefulPartitionedCall/model_2/model_1/tf.math.l2_normalize/l2_normalize/Maximum", "op": "Maximum", "input": ["StatefulPartitionedCall/model_2/model_1/tf.math.l2_normalize/l2_normalize/Sum", "StatefulPartitionedCall/model_2/model_1/tf.math.l2_normalize/l2_normalize/Maximum/y"], "attr": {"T": {"type": "DT_FLOAT"}}}, {"name": "StatefulPartitionedCall/model_2/model_1/dense_2/BiasAdd", "op": "_FusedMatMul", "input": ["StatefulPartitionedCall/model_2/model_1/flatten_2/Reshape", "StatefulPartitionedCall/model_2/model_1/dense_2/MatMul/ReadVariableOp", "StatefulPartitionedCall/model_2/model_1/dense_2/BiasAdd/ReadVariableOp"], "device": "/device:CPU:0", "attr": {"epsilon": {"f": 0.0}, "fused_ops": {"list": {"s": ["Qmlhc0FkZA=="]}}, "transpose_a": {"b": false}, "T": {"type": "DT_FLOAT"}, "num_args": {"i": "1"}, "transpose_b": {"b": false}}}, {"name": "StatefulPartitionedCall/model_2/model_1/tf.math.l2_normalize_1/l2_normalize/Rsqrt", "op": "Rsqrt", "input": ["StatefulPartitionedCall/model_2/model_1/tf.math.l2_normalize_1/l2_normalize/Maximum"], "attr": {"T": {"type": "DT_FLOAT"}}}, {"name": "StatefulPartitionedCall/model_2/model_1/tf.math.l2_normalize/l2_normalize/Rsqrt", "op": "Rsqrt", "input": ["StatefulPartitionedCall/model_2/model_1/tf.math.l2_normalize/l2_normalize/Maximum"], "attr": {"T": {"type": "DT_FLOAT"}}}, {"name": "StatefulPartitionedCall/model_2/model_1/tf.math.l2_normalize_2/l2_normalize/Square", "op": "Square", "input": ["StatefulPartitionedCall/model_2/model_1/dense_2/BiasAdd"], "attr": {"T": {"type": "DT_FLOAT"}}}, {"name": "StatefulPartitionedCall/model_2/model_1/tf.math.l2_normalize_1/l2_normalize", "op": "Mul", "input": ["StatefulPartitionedCall/model_2/model_1/dense_1/BiasAdd", "StatefulPartitionedCall/model_2/model_1/tf.math.l2_normalize_1/l2_normalize/Rsqrt"], "attr": {"T": {"type": "DT_FLOAT"}}}, {"name": "StatefulPartitionedCall/model_2/model_1/tf.math.l2_normalize/l2_normalize", "op": "Mul", "input": ["StatefulPartitionedCall/model_2/model_1/dense/BiasAdd", "StatefulPartitionedCall/model_2/model_1/tf.math.l2_normalize/l2_normalize/Rsqrt"], "attr": {"T": {"type": "DT_FLOAT"}}}, {"name": "StatefulPartitionedCall/model_2/model_1/tf.math.l2_normalize_2/l2_normalize/Sum", "op": "Sum", "input": ["StatefulPartitionedCall/model_2/model_1/tf.math.l2_normalize_2/l2_normalize/Square", "StatefulPartitionedCall/model_2/model_1/tf.math.l2_normalize_2/l2_normalize/Sum/reduction_indices"], "attr": {"T": {"type": "DT_FLOAT"}, "keep_dims": {"b": true}, "Tidx": {"type": "DT_INT32"}}}, {"name": "StatefulPartitionedCall/model_2/model_1/tf.math.l2_normalize_2/l2_normalize/Maximum", "op": "Maximum", "input": ["StatefulPartitionedCall/model_2/model_1/tf.math.l2_normalize_2/l2_normalize/Sum", "StatefulPartitionedCall/model_2/model_1/tf.math.l2_normalize_2/l2_normalize/Maximum/y"], "attr": {"T": {"type": "DT_FLOAT"}}}, {"name": "StatefulPartitionedCall/model_2/model_1/tf.math.l2_normalize_2/l2_normalize/Rsqrt", "op": "Rsqrt", "input": ["StatefulPartitionedCall/model_2/model_1/tf.math.l2_normalize_2/l2_normalize/Maximum"], "attr": {"T": {"type": "DT_FLOAT"}}}, {"name": "StatefulPartitionedCall/model_2/model_1/tf.math.l2_normalize_2/l2_normalize", "op": "Mul", "input": ["StatefulPartitionedCall/model_2/model_1/dense_2/BiasAdd", "StatefulPartitionedCall/model_2/model_1/tf.math.l2_normalize_2/l2_normalize/Rsqrt"], "attr": {"T": {"type": "DT_FLOAT"}}}, {"name": "StatefulPartitionedCall/model_2/model_1/concatenate_2/concat", "op": "ConcatV2", "input": ["StatefulPartitionedCall/model_2/model_1/tf.math.l2_normalize/l2_normalize", "StatefulPartitionedCall/model_2/model_1/tf.math.l2_normalize_1/l2_normalize", "StatefulPartitionedCall/model_2/model_1/tf.math.l2_normalize_2/l2_normalize", "StatefulPartitionedCall/model_2/model_1/concatenate_2/concat/axis"], "attr": {"N": {"i": "3"}, "T": {"type": "DT_FLOAT"}, "Tidx": {"type": "DT_INT32"}}}, {"name": "StatefulPartitionedCall/model_2/cls_out/BiasAdd", "op": "_FusedMatMul", "input": ["StatefulPartitionedCall/model_2/model_1/concatenate_2/concat", "StatefulPartitionedCall/model_2/cls_out/MatMul/ReadVariableOp", "StatefulPartitionedCall/model_2/cls_out/BiasAdd/ReadVariableOp"], "device": "/device:CPU:0", "attr": {"epsilon": {"f": 0.0}, "fused_ops": {"list": {"s": ["Qmlhc0FkZA=="]}}, "transpose_a": {"b": false}, "T": {"type": "DT_FLOAT"}, "num_args": {"i": "1"}, "transpose_b": {"b": false}}}, {"name": "Identity_1", "op": "Identity", "input": ["StatefulPartitionedCall/model_2/model_1/concatenate_2/concat"], "attr": {"T": {"type": "DT_FLOAT"}}}, {"name": "StatefulPartitionedCall/model_2/cls_out/Softmax", "op": "Softmax", "input": ["StatefulPartitionedCall/model_2/cls_out/BiasAdd"], "attr": {"T": {"type": "DT_FLOAT"}}}, {"name": "Identity", "op": "Identity", "input": ["StatefulPartitionedCall/model_2/cls_out/Softmax"], "attr": {"T": {"type": "DT_FLOAT"}}}], "library": {}, "versions": {"producer": 561}}, "weightsManifest": [{"paths": ["group1-shard1of3.bin", "group1-shard2of3.bin", "group1-shard3of3.bin"], "weights": [{"name": "StatefulPartitionedCall/model_2/cls_out/MatMul/ReadVariableOp", "shape": [832, 100], "dtype": "float32"}, {"name": "StatefulPartitionedCall/model_2/cls_out/BiasAdd/ReadVariableOp", "shape": [100], "dtype": "float32"}, {"name": "StatefulPartitionedCall/model_2/model_1/p_re_lu_4/Neg", "shape": [1, 256], "dtype": "float32"}, {"name": "StatefulPartitionedCall/model_2/model_1/p_re_lu_3/Neg", "shape": [1, 256], "dtype": "float32"}, {"name": "StatefulPartitionedCall/model_2/model_1/p_re_lu_2/Neg", "shape": [1, 32], "dtype": "float32"}, {"name": "StatefulPartitionedCall/model_2/model_1/p_re_lu_1/Neg", "shape": [1, 32], "dtype": "float32"}, {"name": "StatefulPartitionedCall/model_2/model_1/p_re_lu/Neg", "shape": [1, 64], "dtype": "float32"}, {"name": "StatefulPartitionedCall/model_2/model_1/tf.expand_dims/ExpandDims/dim", "shape": [], "dtype": "int32"}, {"name": "StatefulPartitionedCall/model_2/model_1/tf.expand_dims_1/ExpandDims/dim", "shape": [], "dtype": "int32"}, {"name": "StatefulPartitionedCall/model_2/model_1/tf.math.reduce_sum/Sum/reduction_indices", "shape": [], "dtype": "int32"}, {"name": "StatefulPartitionedCall/model_2/model_1/tf.reshape/Reshape/shape", "shape": [3], "dtype": "int32"}, {"name": "StatefulPartitionedCall/model_2/model_1/conv1d/conv1d/ExpandDims/dim", "shape": [], "dtype": "int32"}, {"name": "StatefulPartitionedCall/model_2/model_1/conv1d/conv1d/ExpandDims_1", "shape": [1, 1, 169, 64], "dtype": "float32"}, {"name": "StatefulPartitionedCall/model_2/model_1/batch_normalization/batchnorm/mul", "shape": [64], "dtype": "float32"}, {"name": "StatefulPartitionedCall/model_2/model_1/batch_normalization/batchnorm/sub", "shape": [64], "dtype": "float32"}, {"name": "StatefulPartitionedCall/model_2/model_1/conv1d_1/conv1d/ExpandDims/dim", "shape": [], "dtype": "int32"}, {"name": "StatefulPartitionedCall/model_2/model_1/conv1d_1/conv1d/ExpandDims_1", "shape": [1, 3, 64, 32], "dtype": "float32"}, {"name": "StatefulPartitionedCall/model_2/model_1/batch_normalization_1/batchnorm/mul", "shape": [32], "dtype": "float32"}, {"name": "StatefulPartitionedCall/model_2/model_1/batch_normalization_1/batchnorm/sub", "shape": [32], "dtype": "float32"}, {"name": "StatefulPartitionedCall/model_2/model_1/conv1d_2/conv1d/ExpandDims/dim", "shape": [], "dtype": "int32"}, {"name": "StatefulPartitionedCall/model_2/model_1/conv1d_2/conv1d/ExpandDims_1", "shape": [1, 1, 32, 32], "dtype": "float32"}, {"name": "StatefulPartitionedCall/model_2/model_1/batch_normalization_2/batchnorm/mul", "shape": [32], "dtype": "float32"}, {"name": "StatefulPartitionedCall/model_2/model_1/batch_normalization_2/batchnorm/sub", "shape": [32], "dtype": "float32"}, {"name": "StatefulPartitionedCall/model_2/model_1/max_pooling1d/ExpandDims/dim", "shape": [], "dtype": "int32"}, {"name": "StatefulPartitionedCall/model_2/model_1/conv1d_3/conv1d/ExpandDims/dim", "shape": [], "dtype": "int32"}, {"name": "StatefulPartitionedCall/model_2/model_1/conv1d_3/conv1d/ExpandDims_1", "shape": [1, 3, 32, 256], "dtype": "float32"}, {"name": "StatefulPartitionedCall/model_2/model_1/batch_normalization_3/batchnorm/mul", "shape": [256], "dtype": "float32"}, {"name": "StatefulPartitionedCall/model_2/model_1/batch_normalization_3/batchnorm/sub", "shape": [256], "dtype": "float32"}, {"name": "StatefulPartitionedCall/model_2/model_1/max_pooling1d_1/ExpandDims/dim", "shape": [], "dtype": "int32"}, {"name": "StatefulPartitionedCall/model_2/model_1/conv1d_4/conv1d/ExpandDims/dim", "shape": [], "dtype": "int32"}, {"name": "StatefulPartitionedCall/model_2/model_1/conv1d_4/conv1d/ExpandDims_1", "shape": [1, 3, 256, 256], "dtype": "float32"}, {"name": "StatefulPartitionedCall/model_2/model_1/batch_normalization_4/batchnorm/mul", "shape": [256], "dtype": "float32"}, {"name": "StatefulPartitionedCall/model_2/model_1/batch_normalization_4/batchnorm/sub", "shape": [256], "dtype": "float32"}, {"name": "StatefulPartitionedCall/model_2/model_1/max_pooling1d_2/ExpandDims/dim", "shape": [], "dtype": "int32"}, {"name": "StatefulPartitionedCall/model_2/model_1/flatten/Const", "shape": [2], "dtype": "int32"}, {"name": "StatefulPartitionedCall/model_2/model_1/dense/MatMul/ReadVariableOp", "shape": [256, 256], "dtype": "float32"}, {"name": "StatefulPartitionedCall/model_2/model_1/dense/BiasAdd/ReadVariableOp", "shape": [256], "dtype": "float32"}, {"name": "StatefulPartitionedCall/model_2/model_1/tf.math.l2_normalize/l2_normalize/Sum/reduction_indices", "shape": [], "dtype": "int32"}, {"name": "StatefulPartitionedCall/model_2/model_1/tf.math.l2_normalize/l2_normalize/Maximum/y", "shape": [], "dtype": "float32"}, {"name": "StatefulPartitionedCall/model_2/model_1/p_re_lu_9/Neg", "shape": [1, 128], "dtype": "float32"}, {"name": "StatefulPartitionedCall/model_2/model_1/p_re_lu_8/Neg", "shape": [1, 128], "dtype": "float32"}, {"name": "StatefulPartitionedCall/model_2/model_1/p_re_lu_7/Neg", "shape": [1, 32], "dtype": "float32"}, {"name": "StatefulPartitionedCall/model_2/model_1/p_re_lu_6/Neg", "shape": [1, 32], "dtype": "float32"}, {"name": "StatefulPartitionedCall/model_2/model_1/p_re_lu_5/Neg", "shape": [1, 64], "dtype": "float32"}, {"name": "StatefulPartitionedCall/model_2/model_1/tf.expand_dims_4/ExpandDims/dim", "shape": [], "dtype": "int32"}, {"name": "StatefulPartitionedCall/model_2/model_1/tf.expand_dims_5/ExpandDims/dim", "shape": [], "dtype": "int32"}, {"name": "StatefulPartitionedCall/model_2/model_1/tf.math.reduce_sum_1/Sum/reduction_indices", "shape": [], "dtype": "int32"}, {"name": "StatefulPartitionedCall/model_2/model_1/tf.reshape_3/Reshape/shape", "shape": [3], "dtype": "int32"}, {"name": "StatefulPartitionedCall/model_2/model_1/conv1d_5/conv1d/ExpandDims/dim", "shape": [], "dtype": "int32"}, {"name": "StatefulPartitionedCall/model_2/model_1/conv1d_5/conv1d/ExpandDims_1", "shape": [1, 1, 576, 64], "dtype": "float32"}, {"name": "StatefulPartitionedCall/model_2/model_1/batch_normalization_5/batchnorm/mul", "shape": [64], "dtype": "float32"}, {"name": "StatefulPartitionedCall/model_2/model_1/batch_normalization_5/batchnorm/sub", "shape": [64], "dtype": "float32"}, {"name": "StatefulPartitionedCall/model_2/model_1/conv1d_6/conv1d/ExpandDims/dim", "shape": [], "dtype": "int32"}, {"name": "StatefulPartitionedCall/model_2/model_1/conv1d_6/conv1d/ExpandDims_1", "shape": [1, 3, 64, 32], "dtype": "float32"}, {"name": "StatefulPartitionedCall/model_2/model_1/batch_normalization_6/batchnorm/mul", "shape": [32], "dtype": "float32"}, {"name": "StatefulPartitionedCall/model_2/model_1/batch_normalization_6/batchnorm/sub", "shape": [32], "dtype": "float32"}, {"name": "StatefulPartitionedCall/model_2/model_1/conv1d_7/conv1d/ExpandDims/dim", "shape": [], "dtype": "int32"}, {"name": "StatefulPartitionedCall/model_2/model_1/conv1d_7/conv1d/ExpandDims_1", "shape": [1, 1, 32, 32], "dtype": "float32"}, {"name": "StatefulPartitionedCall/model_2/model_1/batch_normalization_7/batchnorm/mul", "shape": [32], "dtype": "float32"}, {"name": "StatefulPartitionedCall/model_2/model_1/batch_normalization_7/batchnorm/sub", "shape": [32], "dtype": "float32"}, {"name": "StatefulPartitionedCall/model_2/model_1/max_pooling1d_3/ExpandDims/dim", "shape": [], "dtype": "int32"}, {"name": "StatefulPartitionedCall/model_2/model_1/conv1d_8/conv1d/ExpandDims/dim", "shape": [], "dtype": "int32"}, {"name": "StatefulPartitionedCall/model_2/model_1/conv1d_8/conv1d/ExpandDims_1", "shape": [1, 3, 32, 128], "dtype": "float32"}, {"name": "StatefulPartitionedCall/model_2/model_1/batch_normalization_8/batchnorm/mul", "shape": [128], "dtype": "float32"}, {"name": "StatefulPartitionedCall/model_2/model_1/batch_normalization_8/batchnorm/sub", "shape": [128], "dtype": "float32"}, {"name": "StatefulPartitionedCall/model_2/model_1/max_pooling1d_4/ExpandDims/dim", "shape": [], "dtype": "int32"}, {"name": "StatefulPartitionedCall/model_2/model_1/conv1d_9/conv1d/ExpandDims/dim", "shape": [], "dtype": "int32"}, {"name": "StatefulPartitionedCall/model_2/model_1/conv1d_9/conv1d/ExpandDims_1", "shape": [1, 3, 128, 128], "dtype": "float32"}, {"name": "StatefulPartitionedCall/model_2/model_1/batch_normalization_9/batchnorm/mul", "shape": [128], "dtype": "float32"}, {"name": "StatefulPartitionedCall/model_2/model_1/batch_normalization_9/batchnorm/sub", "shape": [128], "dtype": "float32"}, {"name": "StatefulPartitionedCall/model_2/model_1/max_pooling1d_5/ExpandDims/dim", "shape": [], "dtype": "int32"}, {"name": "StatefulPartitionedCall/model_2/model_1/flatten_1/Const", "shape": [2], "dtype": "int32"}, {"name": "StatefulPartitionedCall/model_2/model_1/dense_1/MatMul/ReadVariableOp", "shape": [128, 64], "dtype": "float32"}, {"name": "StatefulPartitionedCall/model_2/model_1/dense_1/BiasAdd/ReadVariableOp", "shape": [64], "dtype": "float32"}, {"name": "StatefulPartitionedCall/model_2/model_1/tf.math.l2_normalize_1/l2_normalize/Sum/reduction_indices", "shape": [], "dtype": "int32"}, {"name": "StatefulPartitionedCall/model_2/model_1/tf.math.l2_normalize_1/l2_normalize/Maximum/y", "shape": [], "dtype": "float32"}, {"name": "StatefulPartitionedCall/model_2/model_1/p_re_lu_20/Neg", "shape": [1, 512], "dtype": "float32"}, {"name": "StatefulPartitionedCall/model_2/model_1/p_re_lu_19/Neg", "shape": [1, 256], "dtype": "float32"}, {"name": "StatefulPartitionedCall/model_2/model_1/p_re_lu_12/Neg", "shape": [1, 64], "dtype": "float32"}, {"name": "StatefulPartitionedCall/model_2/model_1/p_re_lu_11/Neg", "shape": [1, 64], "dtype": "float32"}, {"name": "StatefulPartitionedCall/model_2/model_1/p_re_lu_10/Neg", "shape": [1, 128], "dtype": "float32"}, {"name": "StatefulPartitionedCall/model_2/model_1/tf.__operators__.getitem_2/strided_slice/stack", "shape": [4], "dtype": "int32"}, {"name": "StatefulPartitionedCall/model_2/model_1/tf.__operators__.getitem_2/strided_slice/stack_1", "shape": [4], "dtype": "int32"}, {"name": "StatefulPartitionedCall/model_2/model_1/tf.__operators__.getitem_2/strided_slice/stack_2", "shape": [4], "dtype": "int32"}, {"name": "StatefulPartitionedCall/model_2/model_1/tf.expand_dims_2/ExpandDims/dim", "shape": [], "dtype": "int32"}, {"name": "StatefulPartitionedCall/model_2/model_1/tf.__operators__.getitem/strided_slice/stack", "shape": [4], "dtype": "int32"}, {"name": "StatefulPartitionedCall/model_2/model_1/tf.__operators__.getitem/strided_slice/stack_1", "shape": [4], "dtype": "int32"}, {"name": "StatefulPartitionedCall/model_2/model_1/tf.__operators__.getitem/strided_slice/stack_2", "shape": [4], "dtype": "int32"}, {"name": "StatefulPartitionedCall/model_2/model_1/tf.__operators__.getitem_1/strided_slice/stack", "shape": [4], "dtype": "int32"}, {"name": "StatefulPartitionedCall/model_2/model_1/tf.__operators__.getitem_1/strided_slice/stack_1", "shape": [4], "dtype": "int32"}, {"name": "StatefulPartitionedCall/model_2/model_1/tf.__operators__.getitem_1/strided_slice/stack_2", "shape": [4], "dtype": "int32"}, {"name": "StatefulPartitionedCall/model_2/model_1/tf.concat/concat/axis", "shape": [], "dtype": "int32"}, {"name": "StatefulPartitionedCall/model_2/model_1/tf.reshape_1/Reshape/shape", "shape": [3], "dtype": "int32"}, {"name": "StatefulPartitionedCall/model_2/model_1/conv1d_10/conv1d/ExpandDims/dim", "shape": [], "dtype": "int32"}, {"name": "StatefulPartitionedCall/model_2/model_1/conv1d_10/conv1d/ExpandDims_1", "shape": [1, 1, 84, 128], "dtype": "float32"}, {"name": "StatefulPartitionedCall/model_2/model_1/batch_normalization_10/batchnorm/mul", "shape": [128], "dtype": "float32"}, {"name": "StatefulPartitionedCall/model_2/model_1/batch_normalization_10/batchnorm/sub", "shape": [128], "dtype": "float32"}, {"name": "StatefulPartitionedCall/model_2/model_1/conv1d_11/conv1d/ExpandDims/dim", "shape": [], "dtype": "int32"}, {"name": "StatefulPartitionedCall/model_2/model_1/conv1d_11/conv1d/ExpandDims_1", "shape": [1, 3, 128, 64], "dtype": "float32"}, {"name": "StatefulPartitionedCall/model_2/model_1/batch_normalization_11/batchnorm/mul", "shape": [64], "dtype": "float32"}, {"name": "StatefulPartitionedCall/model_2/model_1/batch_normalization_11/batchnorm/sub", "shape": [64], "dtype": "float32"}, {"name": "StatefulPartitionedCall/model_2/model_1/conv1d_12/conv1d/ExpandDims/dim", "shape": [], "dtype": "int32"}, {"name": "StatefulPartitionedCall/model_2/model_1/conv1d_12/conv1d/ExpandDims_1", "shape": [1, 1, 64, 64], "dtype": "float32"}, {"name": "StatefulPartitionedCall/model_2/model_1/batch_normalization_12/batchnorm/mul", "shape": [64], "dtype": "float32"}, {"name": "StatefulPartitionedCall/model_2/model_1/batch_normalization_12/batchnorm/sub", "shape": [64], "dtype": "float32"}, {"name": "StatefulPartitionedCall/model_2/model_1/max_pooling1d_6/ExpandDims/dim", "shape": [], "dtype": "int32"}, {"name": "StatefulPartitionedCall/model_2/model_1/p_re_lu_15/Neg", "shape": [1, 64], "dtype": "float32"}, {"name": "StatefulPartitionedCall/model_2/model_1/p_re_lu_14/Neg", "shape": [1, 64], "dtype": "float32"}, {"name": "StatefulPartitionedCall/model_2/model_1/p_re_lu_13/Neg", "shape": [1, 128], "dtype": "float32"}, {"name": "StatefulPartitionedCall/model_2/model_1/tf.__operators__.getitem_6/strided_slice/stack", "shape": [4], "dtype": "int32"}, {"name": "StatefulPartitionedCall/model_2/model_1/tf.__operators__.getitem_6/strided_slice/stack_1", "shape": [4], "dtype": "int32"}, {"name": "StatefulPartitionedCall/model_2/model_1/tf.__operators__.getitem_6/strided_slice/stack_2", "shape": [4], "dtype": "int32"}, {"name": "StatefulPartitionedCall/model_2/model_1/tf.expand_dims_3/ExpandDims/dim", "shape": [], "dtype": "int32"}, {"name": "StatefulPartitionedCall/model_2/model_1/tf.__operators__.getitem_4/strided_slice/stack", "shape": [4], "dtype": "int32"}, {"name": "StatefulPartitionedCall/model_2/model_1/tf.__operators__.getitem_4/strided_slice/stack_1", "shape": [4], "dtype": "int32"}, {"name": "StatefulPartitionedCall/model_2/model_1/tf.__operators__.getitem_4/strided_slice/stack_2", "shape": [4], "dtype": "int32"}, {"name": "StatefulPartitionedCall/model_2/model_1/concatenate/concat/axis", "shape": [], "dtype": "int32"}, {"name": "StatefulPartitionedCall/model_2/model_1/tf.__operators__.getitem_3/strided_slice/stack", "shape": [4], "dtype": "int32"}, {"name": "StatefulPartitionedCall/model_2/model_1/tf.__operators__.getitem_3/strided_slice/stack_1", "shape": [4], "dtype": "int32"}, {"name": "StatefulPartitionedCall/model_2/model_1/tf.__operators__.getitem_3/strided_slice/stack_2", "shape": [4], "dtype": "int32"}, {"name": "StatefulPartitionedCall/model_2/model_1/tf.__operators__.getitem_5/strided_slice/stack", "shape": [4], "dtype": "int32"}, {"name": "StatefulPartitionedCall/model_2/model_1/tf.__operators__.getitem_5/strided_slice/stack_1", "shape": [4], "dtype": "int32"}, {"name": "StatefulPartitionedCall/model_2/model_1/tf.__operators__.getitem_5/strided_slice/stack_2", "shape": [4], "dtype": "int32"}, {"name": "StatefulPartitionedCall/model_2/model_1/tf.concat_1/concat/axis", "shape": [], "dtype": "int32"}, {"name": "StatefulPartitionedCall/model_2/model_1/tf.reshape_2/Reshape/shape", "shape": [3], "dtype": "int32"}, {"name": "StatefulPartitionedCall/model_2/model_1/conv1d_13/conv1d/ExpandDims/dim", "shape": [], "dtype": "int32"}, {"name": "StatefulPartitionedCall/model_2/model_1/conv1d_13/conv1d/ExpandDims_1", "shape": [1, 1, 84, 128], "dtype": "float32"}, {"name": "StatefulPartitionedCall/model_2/model_1/batch_normalization_13/batchnorm/mul", "shape": [128], "dtype": "float32"}, {"name": "StatefulPartitionedCall/model_2/model_1/batch_normalization_13/batchnorm/sub", "shape": [128], "dtype": "float32"}, {"name": "StatefulPartitionedCall/model_2/model_1/conv1d_14/conv1d/ExpandDims/dim", "shape": [], "dtype": "int32"}, {"name": "StatefulPartitionedCall/model_2/model_1/conv1d_14/conv1d/ExpandDims_1", "shape": [1, 3, 128, 64], "dtype": "float32"}, {"name": "StatefulPartitionedCall/model_2/model_1/batch_normalization_14/batchnorm/mul", "shape": [64], "dtype": "float32"}, {"name": "StatefulPartitionedCall/model_2/model_1/batch_normalization_14/batchnorm/sub", "shape": [64], "dtype": "float32"}, {"name": "StatefulPartitionedCall/model_2/model_1/conv1d_15/conv1d/ExpandDims/dim", "shape": [], "dtype": "int32"}, {"name": "StatefulPartitionedCall/model_2/model_1/conv1d_15/conv1d/ExpandDims_1", "shape": [1, 1, 64, 64], "dtype": "float32"}, {"name": "StatefulPartitionedCall/model_2/model_1/batch_normalization_15/batchnorm/mul", "shape": [64], "dtype": "float32"}, {"name": "StatefulPartitionedCall/model_2/model_1/batch_normalization_15/batchnorm/sub", "shape": [64], "dtype": "float32"}, {"name": "StatefulPartitionedCall/model_2/model_1/model/p_re_lu_18/Neg", "shape": [1, 256], "dtype": "float32"}, {"name": "StatefulPartitionedCall/model_2/model_1/model/p_re_lu_17/Neg", "shape": [1, 256], "dtype": "float32"}, {"name": "StatefulPartitionedCall/model_2/model_1/model/p_re_lu_16/Neg", "shape": [1, 512], "dtype": "float32"}, {"name": "StatefulPartitionedCall/model_2/model_1/tf.expand_dims_6/ExpandDims/dim", "shape": [], "dtype": "int32"}, {"name": "StatefulPartitionedCall/model_2/model_1/tf.expand_dims_7/ExpandDims/dim", "shape": [], "dtype": "int32"}, {"name": "StatefulPartitionedCall/model_2/model_1/tf.math.reduce_sum_2/Sum/reduction_indices", "shape": [], "dtype": "int32"}, {"name": "StatefulPartitionedCall/model_2/model_1/tf.reshape_4/Reshape/shape", "shape": [3], "dtype": "int32"}, {"name": "StatefulPartitionedCall/model_2/model_1/model/conv1d_16/conv1d/ExpandDims/dim", "shape": [], "dtype": "int32"}, {"name": "StatefulPartitionedCall/model_2/model_1/model/conv1d_16/conv1d/ExpandDims_1", "shape": [1, 1, 441, 512], "dtype": "float32"}, {"name": "StatefulPartitionedCall/model_2/model_1/model/batch_normalization_16/batchnorm/mul", "shape": [512], "dtype": "float32"}, {"name": "StatefulPartitionedCall/model_2/model_1/model/batch_normalization_16/batchnorm/sub", "shape": [512], "dtype": "float32"}, {"name": "StatefulPartitionedCall/model_2/model_1/model/conv1d_17/conv1d/ExpandDims/dim", "shape": [], "dtype": "int32"}, {"name": "StatefulPartitionedCall/model_2/model_1/model/conv1d_17/conv1d/ExpandDims_1", "shape": [1, 3, 512, 256], "dtype": "float32"}, {"name": "StatefulPartitionedCall/model_2/model_1/model/batch_normalization_17/batchnorm/mul", "shape": [256], "dtype": "float32"}, {"name": "StatefulPartitionedCall/model_2/model_1/model/batch_normalization_17/batchnorm/sub", "shape": [256], "dtype": "float32"}, {"name": "StatefulPartitionedCall/model_2/model_1/model/conv1d_18/conv1d/ExpandDims/dim", "shape": [], "dtype": "int32"}, {"name": "StatefulPartitionedCall/model_2/model_1/model/conv1d_18/conv1d/ExpandDims_1", "shape": [1, 1, 256, 256], "dtype": "float32"}, {"name": "StatefulPartitionedCall/model_2/model_1/model/batch_normalization_18/batchnorm/mul", "shape": [256], "dtype": "float32"}, {"name": "StatefulPartitionedCall/model_2/model_1/model/batch_normalization_18/batchnorm/sub", "shape": [256], "dtype": "float32"}, {"name": "StatefulPartitionedCall/model_2/model_1/model/max_pooling1d_7/ExpandDims/dim", "shape": [], "dtype": "int32"}, {"name": "StatefulPartitionedCall/model_2/model_1/model/p_re_lu_18/Neg_2", "shape": [1, 256], "dtype": "float32"}, {"name": "StatefulPartitionedCall/model_2/model_1/model/p_re_lu_17/Neg_2", "shape": [1, 256], "dtype": "float32"}, {"name": "StatefulPartitionedCall/model_2/model_1/model/p_re_lu_16/Neg_2", "shape": [1, 512], "dtype": "float32"}, {"name": "StatefulPartitionedCall/model_2/model_1/tf.expand_dims_8/ExpandDims/dim", "shape": [], "dtype": "int32"}, {"name": "StatefulPartitionedCall/model_2/model_1/tf.expand_dims_9/ExpandDims/dim", "shape": [], "dtype": "int32"}, {"name": "StatefulPartitionedCall/model_2/model_1/tf.math.reduce_sum_3/Sum/reduction_indices", "shape": [], "dtype": "int32"}, {"name": "StatefulPartitionedCall/model_2/model_1/tf.reshape_5/Reshape/shape", "shape": [3], "dtype": "int32"}, {"name": "StatefulPartitionedCall/model_2/model_1/model/conv1d_16/conv1d_1/ExpandDims/dim", "shape": [], "dtype": "int32"}, {"name": "StatefulPartitionedCall/model_2/model_1/model/conv1d_16/conv1d_1/ExpandDims_1", "shape": [1, 1, 441, 512], "dtype": "float32"}, {"name": "StatefulPartitionedCall/model_2/model_1/model/batch_normalization_16/batchnorm_1/mul", "shape": [512], "dtype": "float32"}, {"name": "StatefulPartitionedCall/model_2/model_1/model/batch_normalization_16/batchnorm_1/sub", "shape": [512], "dtype": "float32"}, {"name": "StatefulPartitionedCall/model_2/model_1/model/conv1d_17/conv1d_1/ExpandDims/dim", "shape": [], "dtype": "int32"}, {"name": "StatefulPartitionedCall/model_2/model_1/model/conv1d_17/conv1d_1/ExpandDims_1", "shape": [1, 3, 512, 256], "dtype": "float32"}, {"name": "StatefulPartitionedCall/model_2/model_1/model/batch_normalization_17/batchnorm_1/mul", "shape": [256], "dtype": "float32"}, {"name": "StatefulPartitionedCall/model_2/model_1/model/batch_normalization_17/batchnorm_1/sub", "shape": [256], "dtype": "float32"}, {"name": "StatefulPartitionedCall/model_2/model_1/model/conv1d_18/conv1d_1/ExpandDims/dim", "shape": [], "dtype": "int32"}, {"name": "StatefulPartitionedCall/model_2/model_1/model/conv1d_18/conv1d_1/ExpandDims_1", "shape": [1, 1, 256, 256], "dtype": "float32"}, {"name": "StatefulPartitionedCall/model_2/model_1/model/batch_normalization_18/batchnorm_1/mul", "shape": [256], "dtype": "float32"}, {"name": "StatefulPartitionedCall/model_2/model_1/model/batch_normalization_18/batchnorm_1/sub", "shape": [256], "dtype": "float32"}, {"name": "StatefulPartitionedCall/model_2/model_1/model/max_pooling1d_7/ExpandDims_1/dim", "shape": [], "dtype": "int32"}, {"name": "StatefulPartitionedCall/model_2/model_1/concatenate_1/concat/axis", "shape": [], "dtype": "int32"}, {"name": "StatefulPartitionedCall/model_2/model_1/conv1d_19/conv1d/ExpandDims/dim", "shape": [], "dtype": "int32"}, {"name": "StatefulPartitionedCall/model_2/model_1/conv1d_19/conv1d/ExpandDims_1", "shape": [1, 3, 640, 256], "dtype": "float32"}, {"name": "StatefulPartitionedCall/model_2/model_1/batch_normalization_19/batchnorm/mul", "shape": [256], "dtype": "float32"}, {"name": "StatefulPartitionedCall/model_2/model_1/batch_normalization_19/batchnorm/sub", "shape": [256], "dtype": "float32"}, {"name": "StatefulPartitionedCall/model_2/model_1/max_pooling1d_8/ExpandDims/dim", "shape": [], "dtype": "int32"}, {"name": "StatefulPartitionedCall/model_2/model_1/conv1d_20/conv1d/ExpandDims/dim", "shape": [], "dtype": "int32"}, {"name": "StatefulPartitionedCall/model_2/model_1/conv1d_20/conv1d/ExpandDims_1", "shape": [1, 3, 256, 512], "dtype": "float32"}, {"name": "StatefulPartitionedCall/model_2/model_1/batch_normalization_20/batchnorm/mul", "shape": [512], "dtype": "float32"}, {"name": "StatefulPartitionedCall/model_2/model_1/batch_normalization_20/batchnorm/sub", "shape": [512], "dtype": "float32"}, {"name": "StatefulPartitionedCall/model_2/model_1/max_pooling1d_9/ExpandDims/dim", "shape": [], "dtype": "int32"}, {"name": "StatefulPartitionedCall/model_2/model_1/flatten_2/Const", "shape": [2], "dtype": "int32"}, {"name": "StatefulPartitionedCall/model_2/model_1/dense_2/MatMul/ReadVariableOp", "shape": [512, 512], "dtype": "float32"}, {"name": "StatefulPartitionedCall/model_2/model_1/dense_2/BiasAdd/ReadVariableOp", "shape": [512], "dtype": "float32"}, {"name": "StatefulPartitionedCall/model_2/model_1/tf.math.l2_normalize_2/l2_normalize/Sum/reduction_indices", "shape": [], "dtype": "int32"}, {"name": "StatefulPartitionedCall/model_2/model_1/tf.math.l2_normalize_2/l2_normalize/Maximum/y", "shape": [], "dtype": "float32"}, {"name": "StatefulPartitionedCall/model_2/model_1/concatenate_2/concat/axis", "shape": [], "dtype": "int32"}]}]}