{"format": "graph-model", "generatedBy": "2.0.0", "convertedBy": "TensorFlow.js Converter v1.7.2", "userDefinedMetadata": {"signature": {"inputs": {"input:0": {"name": "input:0", "dtype": "DT_FLOAT", "tensorShape": {"dim": [{"size": "-1"}, {"size": "256"}, {"size": "256"}, {"size": "3"}]}}}, "outputs": {"Identity_1:0": {"name": "Identity_1:0", "dtype": "DT_FLOAT", "tensorShape": {"dim": [{"size": "-1"}, {"size": "1"}]}}, "Identity_2:0": {"name": "Identity_2:0", "dtype": "DT_FLOAT", "tensorShape": {"dim": [{"size": "-1"}, {"size": "1"}]}}, "Identity:0": {"name": "Identity:0", "dtype": "DT_FLOAT", "tensorShape": {"dim": [{"size": "-1"}, {"size": "63"}]}}}}}, "modelTopology": {"node": [{"name": "input", "op": "Placeholder", "attr": {"shape": {"shape": {"dim": [{"size": "-1"}, {"size": "256"}, {"size": "256"}, {"size": "3"}]}}, "dtype": {"type": "DT_FLOAT"}}}, {"name": "StatefulPartitionedCall/model/ld_21_3d/Reshape/shape/1", "op": "Const", "input": ["^input"], "attr": {"value": {"tensor": {"dtype": "DT_INT32", "tensorShape": {}}}, "dtype": {"type": "DT_INT32"}}}, {"name": "StatefulPartitionedCall/model/tf_op_layer_Pad/Pad/paddings", "op": "Const", "input": ["^input"], "attr": {"value": {"tensor": {"dtype": "DT_INT32", "tensorShape": {"dim": [{"size": "4"}, {"size": "2"}]}}}, "dtype": {"type": "DT_INT32"}}}, {"name": "StatefulPartitionedCall/model/tf_op_layer_resize/ResizeBilinear/resize/ResizeBilinear/size", "op": "Const", "input": ["^input"], "attr": {"value": {"tensor": {"dtype": "DT_INT32", "tensorShape": {"dim": [{"size": "2"}]}}}, "dtype": {"type": "DT_INT32"}}}, {"name": "StatefulPartitionedCall/model/tf_op_layer_resize_1/ResizeBilinear/resize_1/ResizeBilinear/size", "op": "Const", "input": ["^input"], "attr": {"value": {"tensor": {"dtype": "DT_INT32", "tensorShape": {"dim": [{"size": "2"}]}}}, "dtype": {"type": "DT_INT32"}}}, {"name": "StatefulPartitionedCall/model/tf_op_layer_resize_2/ResizeBilinear/resize_2/ResizeBilinear/size", "op": "Const", "input": ["^input"], "attr": {"value": {"tensor": {"dtype": "DT_INT32", "tensorShape": {"dim": [{"size": "2"}]}}}, "dtype": {"type": "DT_INT32"}}}, {"name": "StatefulPartitionedCall/model/tf_op_layer_Pad_1/Pad_1/paddings", "op": "Const", "input": ["^input"], "attr": {"value": {"tensor": {"dtype": "DT_INT32", "tensorShape": {"dim": [{"size": "4"}, {"size": "2"}]}}}, "dtype": {"type": "DT_INT32"}}}, {"name": "StatefulPartitionedCall/model/tf_op_layer_Pad_3/Pad_3/paddings", "op": "Const", "input": ["^input"], "attr": {"value": {"tensor": {"dtype": "DT_INT32", "tensorShape": {"dim": [{"size": "4"}, {"size": "2"}]}}}, "dtype": {"type": "DT_INT32"}}}, {"name": "StatefulPartitionedCall/model/ld_21_3d/strided_slice/stack", "op": "Const", "input": ["^input"], "attr": {"value": {"tensor": {"dtype": "DT_INT32", "tensorShape": {"dim": [{"size": "1"}]}}}, "dtype": {"type": "DT_INT32"}}}, {"name": "StatefulPartitionedCall/model/ld_21_3d/strided_slice/stack_1", "op": "Const", "input": ["^input"], "attr": {"value": {"tensor": {"dtype": "DT_INT32", "tensorShape": {"dim": [{"size": "1"}]}}}, "dtype": {"type": "DT_INT32"}}}, {"name": "StatefulPartitionedCall/model/output_handedness/Reshape/shape/1", "op": "Const", "input": ["^input"], "attr": {"value": {"tensor": {"dtype": "DT_INT32", "tensorShape": {}}}, "dtype": {"type": "DT_INT32"}}}, {"name": "StatefulPartitionedCall/model/conv2d/BiasAdd/ReadVariableOp", "op": "Const", "input": ["^input"], "attr": {"value": {"tensor": {"dtype": "DT_FLOAT", "tensorShape": {"dim": [{"size": "24"}]}}}, "dtype": {"type": "DT_FLOAT"}}}, {"name": "StatefulPartitionedCall/model/conv2d/Conv2D/ReadVariableOp", "op": "Const", "input": ["^input"], "attr": {"value": {"tensor": {"dtype": "DT_FLOAT", "tensorShape": {"dim": [{"size": "3"}, {"size": "3"}, {"size": "3"}, {"size": "24"}]}}}, "dtype": {"type": "DT_FLOAT"}}}, {"name": "StatefulPartitionedCall/model/conv2d_1/BiasAdd/ReadVariableOp", "op": "Const", "input": ["^input"], "attr": {"value": {"tensor": {"dtype": "DT_FLOAT", "tensorShape": {"dim": [{"size": "24"}]}}}, "dtype": {"type": "DT_FLOAT"}}}, {"name": "StatefulPartitionedCall/model/conv2d_1/Conv2D/ReadVariableOp", "op": "Const", "input": ["^input"], "attr": {"value": {"tensor": {"dtype": "DT_FLOAT", "tensorShape": {"dim": [{"size": "1"}, {"size": "1"}, {"size": "24"}, {"size": "24"}]}}}, "dtype": {"type": "DT_FLOAT"}}}, {"name": "StatefulPartitionedCall/model/conv2d_10/BiasAdd/ReadVariableOp", "op": "Const", "input": ["^input"], "attr": {"value": {"tensor": {"dtype": "DT_FLOAT", "tensorShape": {"dim": [{"size": "96"}]}}}, "dtype": {"type": "DT_FLOAT"}}}, {"name": "StatefulPartitionedCall/model/conv2d_10/Conv2D/ReadVariableOp", "op": "Const", "input": ["^input"], "attr": {"value": {"tensor": {"dtype": "DT_FLOAT", "tensorShape": {"dim": [{"size": "1"}, {"size": "1"}, {"size": "96"}, {"size": "96"}]}}}, "dtype": {"type": "DT_FLOAT"}}}, {"name": "StatefulPartitionedCall/model/conv2d_11/BiasAdd/ReadVariableOp", "op": "Const", "input": ["^input"], "attr": {"value": {"tensor": {"dtype": "DT_FLOAT", "tensorShape": {"dim": [{"size": "96"}]}}}, "dtype": {"type": "DT_FLOAT"}}}, {"name": "StatefulPartitionedCall/model/conv2d_11/Conv2D/ReadVariableOp", "op": "Const", "input": ["^input"], "attr": {"value": {"tensor": {"dtype": "DT_FLOAT", "tensorShape": {"dim": [{"size": "1"}, {"size": "1"}, {"size": "96"}, {"size": "96"}]}}}, "dtype": {"type": "DT_FLOAT"}}}, {"name": "StatefulPartitionedCall/model/conv2d_12/BiasAdd/ReadVariableOp", "op": "Const", "input": ["^input"], "attr": {"value": {"tensor": {"dtype": "DT_FLOAT", "tensorShape": {"dim": [{"size": "96"}]}}}, "dtype": {"type": "DT_FLOAT"}}}, {"name": "StatefulPartitionedCall/model/conv2d_12/Conv2D/ReadVariableOp", "op": "Const", "input": ["^input"], "attr": {"value": {"tensor": {"dtype": "DT_FLOAT", "tensorShape": {"dim": [{"size": "1"}, {"size": "1"}, {"size": "96"}, {"size": "96"}]}}}, "dtype": {"type": "DT_FLOAT"}}}, {"name": "StatefulPartitionedCall/model/conv2d_13/BiasAdd/ReadVariableOp", "op": "Const", "input": ["^input"], "attr": {"value": {"tensor": {"dtype": "DT_FLOAT", "tensorShape": {"dim": [{"size": "96"}]}}}, "dtype": {"type": "DT_FLOAT"}}}, {"name": "StatefulPartitionedCall/model/conv2d_13/Conv2D/ReadVariableOp", "op": "Const", "input": ["^input"], "attr": {"value": {"tensor": {"dtype": "DT_FLOAT", "tensorShape": {"dim": [{"size": "1"}, {"size": "1"}, {"size": "96"}, {"size": "96"}]}}}, "dtype": {"type": "DT_FLOAT"}}}, {"name": "StatefulPartitionedCall/model/conv2d_14/BiasAdd/ReadVariableOp", "op": "Const", "input": ["^input"], "attr": {"value": {"tensor": {"dtype": "DT_FLOAT", "tensorShape": {"dim": [{"size": "96"}]}}}, "dtype": {"type": "DT_FLOAT"}}}, {"name": "StatefulPartitionedCall/model/conv2d_14/Conv2D/ReadVariableOp", "op": "Const", "input": ["^input"], "attr": {"value": {"tensor": {"dtype": "DT_FLOAT", "tensorShape": {"dim": [{"size": "1"}, {"size": "1"}, {"size": "96"}, {"size": "96"}]}}}, "dtype": {"type": "DT_FLOAT"}}}, {"name": "StatefulPartitionedCall/model/conv2d_15/BiasAdd/ReadVariableOp", "op": "Const", "input": ["^input"], "attr": {"value": {"tensor": {"dtype": "DT_FLOAT", "tensorShape": {"dim": [{"size": "48"}]}}}, "dtype": {"type": "DT_FLOAT"}}}, {"name": "StatefulPartitionedCall/model/conv2d_15/Conv2D/ReadVariableOp", "op": "Const", "input": ["^input"], "attr": {"value": {"tensor": {"dtype": "DT_FLOAT", "tensorShape": {"dim": [{"size": "1"}, {"size": "1"}, {"size": "96"}, {"size": "48"}]}}}, "dtype": {"type": "DT_FLOAT"}}}, {"name": "StatefulPartitionedCall/model/conv2d_16/BiasAdd/ReadVariableOp", "op": "Const", "input": ["^input"], "attr": {"value": {"tensor": {"dtype": "DT_FLOAT", "tensorShape": {"dim": [{"size": "48"}]}}}, "dtype": {"type": "DT_FLOAT"}}}, {"name": "StatefulPartitionedCall/model/conv2d_16/Conv2D/ReadVariableOp", "op": "Const", "input": ["^input"], "attr": {"value": {"tensor": {"dtype": "DT_FLOAT", "tensorShape": {"dim": [{"size": "1"}, {"size": "1"}, {"size": "48"}, {"size": "48"}]}}}, "dtype": {"type": "DT_FLOAT"}}}, {"name": "StatefulPartitionedCall/model/conv2d_17/BiasAdd/ReadVariableOp", "op": "Const", "input": ["^input"], "attr": {"value": {"tensor": {"dtype": "DT_FLOAT", "tensorShape": {"dim": [{"size": "48"}]}}}, "dtype": {"type": "DT_FLOAT"}}}, {"name": "StatefulPartitionedCall/model/conv2d_17/Conv2D/ReadVariableOp", "op": "Const", "input": ["^input"], "attr": {"value": {"tensor": {"dtype": "DT_FLOAT", "tensorShape": {"dim": [{"size": "1"}, {"size": "1"}, {"size": "48"}, {"size": "48"}]}}}, "dtype": {"type": "DT_FLOAT"}}}, {"name": "StatefulPartitionedCall/model/conv2d_18/BiasAdd/ReadVariableOp", "op": "Const", "input": ["^input"], "attr": {"value": {"tensor": {"dtype": "DT_FLOAT", "tensorShape": {"dim": [{"size": "48"}]}}}, "dtype": {"type": "DT_FLOAT"}}}, {"name": "StatefulPartitionedCall/model/conv2d_18/Conv2D/ReadVariableOp", "op": "Const", "input": ["^input"], "attr": {"value": {"tensor": {"dtype": "DT_FLOAT", "tensorShape": {"dim": [{"size": "1"}, {"size": "1"}, {"size": "48"}, {"size": "48"}]}}}, "dtype": {"type": "DT_FLOAT"}}}, {"name": "StatefulPartitionedCall/model/conv2d_19/BiasAdd/ReadVariableOp", "op": "Const", "input": ["^input"], "attr": {"value": {"tensor": {"dtype": "DT_FLOAT", "tensorShape": {"dim": [{"size": "48"}]}}}, "dtype": {"type": "DT_FLOAT"}}}, {"name": "StatefulPartitionedCall/model/conv2d_19/Conv2D/ReadVariableOp", "op": "Const", "input": ["^input"], "attr": {"value": {"tensor": {"dtype": "DT_FLOAT", "tensorShape": {"dim": [{"size": "1"}, {"size": "1"}, {"size": "48"}, {"size": "48"}]}}}, "dtype": {"type": "DT_FLOAT"}}}, {"name": "StatefulPartitionedCall/model/conv2d_2/BiasAdd/ReadVariableOp", "op": "Const", "input": ["^input"], "attr": {"value": {"tensor": {"dtype": "DT_FLOAT", "tensorShape": {"dim": [{"size": "24"}]}}}, "dtype": {"type": "DT_FLOAT"}}}, {"name": "StatefulPartitionedCall/model/conv2d_2/Conv2D/ReadVariableOp", "op": "Const", "input": ["^input"], "attr": {"value": {"tensor": {"dtype": "DT_FLOAT", "tensorShape": {"dim": [{"size": "1"}, {"size": "1"}, {"size": "24"}, {"size": "24"}]}}}, "dtype": {"type": "DT_FLOAT"}}}, {"name": "StatefulPartitionedCall/model/conv2d_20/BiasAdd/ReadVariableOp", "op": "Const", "input": ["^input"], "attr": {"value": {"tensor": {"dtype": "DT_FLOAT", "tensorShape": {"dim": [{"size": "96"}]}}}, "dtype": {"type": "DT_FLOAT"}}}, {"name": "StatefulPartitionedCall/model/conv2d_20/Conv2D/ReadVariableOp", "op": "Const", "input": ["^input"], "attr": {"value": {"tensor": {"dtype": "DT_FLOAT", "tensorShape": {"dim": [{"size": "1"}, {"size": "1"}, {"size": "48"}, {"size": "96"}]}}}, "dtype": {"type": "DT_FLOAT"}}}, {"name": "StatefulPartitionedCall/model/conv2d_21/BiasAdd/ReadVariableOp", "op": "Const", "input": ["^input"], "attr": {"value": {"tensor": {"dtype": "DT_FLOAT", "tensorShape": {"dim": [{"size": "96"}]}}}, "dtype": {"type": "DT_FLOAT"}}}, {"name": "StatefulPartitionedCall/model/conv2d_21/Conv2D/ReadVariableOp", "op": "Const", "input": ["^input"], "attr": {"value": {"tensor": {"dtype": "DT_FLOAT", "tensorShape": {"dim": [{"size": "1"}, {"size": "1"}, {"size": "96"}, {"size": "96"}]}}}, "dtype": {"type": "DT_FLOAT"}}}, {"name": "StatefulPartitionedCall/model/conv2d_22/BiasAdd/ReadVariableOp", "op": "Const", "input": ["^input"], "attr": {"value": {"tensor": {"dtype": "DT_FLOAT", "tensorShape": {"dim": [{"size": "96"}]}}}, "dtype": {"type": "DT_FLOAT"}}}, {"name": "StatefulPartitionedCall/model/conv2d_22/Conv2D/ReadVariableOp", "op": "Const", "input": ["^input"], "attr": {"value": {"tensor": {"dtype": "DT_FLOAT", "tensorShape": {"dim": [{"size": "1"}, {"size": "1"}, {"size": "96"}, {"size": "96"}]}}}, "dtype": {"type": "DT_FLOAT"}}}, {"name": "StatefulPartitionedCall/model/conv2d_23/BiasAdd/ReadVariableOp", "op": "Const", "input": ["^input"], "attr": {"value": {"tensor": {"dtype": "DT_FLOAT", "tensorShape": {"dim": [{"size": "96"}]}}}, "dtype": {"type": "DT_FLOAT"}}}, {"name": "StatefulPartitionedCall/model/conv2d_23/Conv2D/ReadVariableOp", "op": "Const", "input": ["^input"], "attr": {"value": {"tensor": {"dtype": "DT_FLOAT", "tensorShape": {"dim": [{"size": "1"}, {"size": "1"}, {"size": "96"}, {"size": "96"}]}}}, "dtype": {"type": "DT_FLOAT"}}}, {"name": "StatefulPartitionedCall/model/conv2d_24/BiasAdd/ReadVariableOp", "op": "Const", "input": ["^input"], "attr": {"value": {"tensor": {"dtype": "DT_FLOAT", "tensorShape": {"dim": [{"size": "96"}]}}}, "dtype": {"type": "DT_FLOAT"}}}, {"name": "StatefulPartitionedCall/model/conv2d_24/Conv2D/ReadVariableOp", "op": "Const", "input": ["^input"], "attr": {"value": {"tensor": {"dtype": "DT_FLOAT", "tensorShape": {"dim": [{"size": "1"}, {"size": "1"}, {"size": "96"}, {"size": "96"}]}}}, "dtype": {"type": "DT_FLOAT"}}}, {"name": "StatefulPartitionedCall/model/conv2d_25/BiasAdd/ReadVariableOp", "op": "Const", "input": ["^input"], "attr": {"value": {"tensor": {"dtype": "DT_FLOAT", "tensorShape": {"dim": [{"size": "288"}]}}}, "dtype": {"type": "DT_FLOAT"}}}, {"name": "StatefulPartitionedCall/model/conv2d_25/Conv2D/ReadVariableOp", "op": "Const", "input": ["^input"], "attr": {"value": {"tensor": {"dtype": "DT_FLOAT", "tensorShape": {"dim": [{"size": "1"}, {"size": "1"}, {"size": "96"}, {"size": "288"}]}}}, "dtype": {"type": "DT_FLOAT"}}}, {"name": "StatefulPartitionedCall/model/conv2d_26/BiasAdd/ReadVariableOp", "op": "Const", "input": ["^input"], "attr": {"value": {"tensor": {"dtype": "DT_FLOAT", "tensorShape": {"dim": [{"size": "288"}]}}}, "dtype": {"type": "DT_FLOAT"}}}, {"name": "StatefulPartitionedCall/model/conv2d_26/Conv2D/ReadVariableOp", "op": "Const", "input": ["^input"], "attr": {"value": {"tensor": {"dtype": "DT_FLOAT", "tensorShape": {"dim": [{"size": "1"}, {"size": "1"}, {"size": "288"}, {"size": "288"}]}}}, "dtype": {"type": "DT_FLOAT"}}}, {"name": "StatefulPartitionedCall/model/conv2d_27/BiasAdd/ReadVariableOp", "op": "Const", "input": ["^input"], "attr": {"value": {"tensor": {"dtype": "DT_FLOAT", "tensorShape": {"dim": [{"size": "288"}]}}}, "dtype": {"type": "DT_FLOAT"}}}, {"name": "StatefulPartitionedCall/model/conv2d_27/Conv2D/ReadVariableOp", "op": "Const", "input": ["^input"], "attr": {"value": {"tensor": {"dtype": "DT_FLOAT", "tensorShape": {"dim": [{"size": "1"}, {"size": "1"}, {"size": "288"}, {"size": "288"}]}}}, "dtype": {"type": "DT_FLOAT"}}}, {"name": "StatefulPartitionedCall/model/conv2d_28/BiasAdd/ReadVariableOp", "op": "Const", "input": ["^input"], "attr": {"value": {"tensor": {"dtype": "DT_FLOAT", "tensorShape": {"dim": [{"size": "288"}]}}}, "dtype": {"type": "DT_FLOAT"}}}, {"name": "StatefulPartitionedCall/model/conv2d_28/Conv2D/ReadVariableOp", "op": "Const", "input": ["^input"], "attr": {"value": {"tensor": {"dtype": "DT_FLOAT", "tensorShape": {"dim": [{"size": "1"}, {"size": "1"}, {"size": "288"}, {"size": "288"}]}}}, "dtype": {"type": "DT_FLOAT"}}}, {"name": "StatefulPartitionedCall/model/conv2d_29/BiasAdd/ReadVariableOp", "op": "Const", "input": ["^input"], "attr": {"value": {"tensor": {"dtype": "DT_FLOAT", "tensorShape": {"dim": [{"size": "288"}]}}}, "dtype": {"type": "DT_FLOAT"}}}, {"name": "StatefulPartitionedCall/model/conv2d_29/Conv2D/ReadVariableOp", "op": "Const", "input": ["^input"], "attr": {"value": {"tensor": {"dtype": "DT_FLOAT", "tensorShape": {"dim": [{"size": "1"}, {"size": "1"}, {"size": "288"}, {"size": "288"}]}}}, "dtype": {"type": "DT_FLOAT"}}}, {"name": "StatefulPartitionedCall/model/conv2d_3/BiasAdd/ReadVariableOp", "op": "Const", "input": ["^input"], "attr": {"value": {"tensor": {"dtype": "DT_FLOAT", "tensorShape": {"dim": [{"size": "48"}]}}}, "dtype": {"type": "DT_FLOAT"}}}, {"name": "StatefulPartitionedCall/model/conv2d_3/Conv2D/ReadVariableOp", "op": "Const", "input": ["^input"], "attr": {"value": {"tensor": {"dtype": "DT_FLOAT", "tensorShape": {"dim": [{"size": "1"}, {"size": "1"}, {"size": "24"}, {"size": "48"}]}}}, "dtype": {"type": "DT_FLOAT"}}}, {"name": "StatefulPartitionedCall/model/conv2d_30/BiasAdd/ReadVariableOp", "op": "Const", "input": ["^input"], "attr": {"value": {"tensor": {"dtype": "DT_FLOAT", "tensorShape": {"dim": [{"size": "288"}]}}}, "dtype": {"type": "DT_FLOAT"}}}, {"name": "StatefulPartitionedCall/model/conv2d_30/Conv2D/ReadVariableOp", "op": "Const", "input": ["^input"], "attr": {"value": {"tensor": {"dtype": "DT_FLOAT", "tensorShape": {"dim": [{"size": "1"}, {"size": "1"}, {"size": "288"}, {"size": "288"}]}}}, "dtype": {"type": "DT_FLOAT"}}}, {"name": "StatefulPartitionedCall/model/conv2d_31/BiasAdd/ReadVariableOp", "op": "Const", "input": ["^input"], "attr": {"value": {"tensor": {"dtype": "DT_FLOAT", "tensorShape": {"dim": [{"size": "288"}]}}}, "dtype": {"type": "DT_FLOAT"}}}, {"name": "StatefulPartitionedCall/model/conv2d_31/Conv2D/ReadVariableOp", "op": "Const", "input": ["^input"], "attr": {"value": {"tensor": {"dtype": "DT_FLOAT", "tensorShape": {"dim": [{"size": "1"}, {"size": "1"}, {"size": "288"}, {"size": "288"}]}}}, "dtype": {"type": "DT_FLOAT"}}}, {"name": "StatefulPartitionedCall/model/conv2d_32/BiasAdd/ReadVariableOp", "op": "Const", "input": ["^input"], "attr": {"value": {"tensor": {"dtype": "DT_FLOAT", "tensorShape": {"dim": [{"size": "288"}]}}}, "dtype": {"type": "DT_FLOAT"}}}, {"name": "StatefulPartitionedCall/model/conv2d_32/Conv2D/ReadVariableOp", "op": "Const", "input": ["^input"], "attr": {"value": {"tensor": {"dtype": "DT_FLOAT", "tensorShape": {"dim": [{"size": "1"}, {"size": "1"}, {"size": "288"}, {"size": "288"}]}}}, "dtype": {"type": "DT_FLOAT"}}}, {"name": "StatefulPartitionedCall/model/conv2d_33/BiasAdd/ReadVariableOp", "op": "Const", "input": ["^input"], "attr": {"value": {"tensor": {"dtype": "DT_FLOAT", "tensorShape": {"dim": [{"size": "288"}]}}}, "dtype": {"type": "DT_FLOAT"}}}, {"name": "StatefulPartitionedCall/model/conv2d_33/Conv2D/ReadVariableOp", "op": "Const", "input": ["^input"], "attr": {"value": {"tensor": {"dtype": "DT_FLOAT", "tensorShape": {"dim": [{"size": "1"}, {"size": "1"}, {"size": "288"}, {"size": "288"}]}}}, "dtype": {"type": "DT_FLOAT"}}}, {"name": "StatefulPartitionedCall/model/conv2d_34/BiasAdd/ReadVariableOp", "op": "Const", "input": ["^input"], "attr": {"value": {"tensor": {"dtype": "DT_FLOAT", "tensorShape": {"dim": [{"size": "288"}]}}}, "dtype": {"type": "DT_FLOAT"}}}, {"name": "StatefulPartitionedCall/model/conv2d_34/Conv2D/ReadVariableOp", "op": "Const", "input": ["^input"], "attr": {"value": {"tensor": {"dtype": "DT_FLOAT", "tensorShape": {"dim": [{"size": "1"}, {"size": "1"}, {"size": "288"}, {"size": "288"}]}}}, "dtype": {"type": "DT_FLOAT"}}}, {"name": "StatefulPartitionedCall/model/conv2d_35/BiasAdd/ReadVariableOp", "op": "Const", "input": ["^input"], "attr": {"value": {"tensor": {"dtype": "DT_FLOAT", "tensorShape": {"dim": [{"size": "288"}]}}}, "dtype": {"type": "DT_FLOAT"}}}, {"name": "StatefulPartitionedCall/model/conv2d_35/Conv2D/ReadVariableOp", "op": "Const", "input": ["^input"], "attr": {"value": {"tensor": {"dtype": "DT_FLOAT", "tensorShape": {"dim": [{"size": "1"}, {"size": "1"}, {"size": "288"}, {"size": "288"}]}}}, "dtype": {"type": "DT_FLOAT"}}}, {"name": "StatefulPartitionedCall/model/conv2d_36/BiasAdd/ReadVariableOp", "op": "Const", "input": ["^input"], "attr": {"value": {"tensor": {"dtype": "DT_FLOAT", "tensorShape": {"dim": [{"size": "288"}]}}}, "dtype": {"type": "DT_FLOAT"}}}, {"name": "StatefulPartitionedCall/model/conv2d_36/Conv2D/ReadVariableOp", "op": "Const", "input": ["^input"], "attr": {"value": {"tensor": {"dtype": "DT_FLOAT", "tensorShape": {"dim": [{"size": "1"}, {"size": "1"}, {"size": "288"}, {"size": "288"}]}}}, "dtype": {"type": "DT_FLOAT"}}}, {"name": "StatefulPartitionedCall/model/conv2d_37/BiasAdd/ReadVariableOp", "op": "Const", "input": ["^input"], "attr": {"value": {"tensor": {"dtype": "DT_FLOAT", "tensorShape": {"dim": [{"size": "288"}]}}}, "dtype": {"type": "DT_FLOAT"}}}, {"name": "StatefulPartitionedCall/model/conv2d_37/Conv2D/ReadVariableOp", "op": "Const", "input": ["^input"], "attr": {"value": {"tensor": {"dtype": "DT_FLOAT", "tensorShape": {"dim": [{"size": "1"}, {"size": "1"}, {"size": "288"}, {"size": "288"}]}}}, "dtype": {"type": "DT_FLOAT"}}}, {"name": "StatefulPartitionedCall/model/conv2d_38/BiasAdd/ReadVariableOp", "op": "Const", "input": ["^input"], "attr": {"value": {"tensor": {"dtype": "DT_FLOAT", "tensorShape": {"dim": [{"size": "288"}]}}}, "dtype": {"type": "DT_FLOAT"}}}, {"name": "StatefulPartitionedCall/model/conv2d_38/Conv2D/ReadVariableOp", "op": "Const", "input": ["^input"], "attr": {"value": {"tensor": {"dtype": "DT_FLOAT", "tensorShape": {"dim": [{"size": "1"}, {"size": "1"}, {"size": "288"}, {"size": "288"}]}}}, "dtype": {"type": "DT_FLOAT"}}}, {"name": "StatefulPartitionedCall/model/conv2d_39/BiasAdd/ReadVariableOp", "op": "Const", "input": ["^input"], "attr": {"value": {"tensor": {"dtype": "DT_FLOAT", "tensorShape": {"dim": [{"size": "288"}]}}}, "dtype": {"type": "DT_FLOAT"}}}, {"name": "StatefulPartitionedCall/model/conv2d_39/Conv2D/ReadVariableOp", "op": "Const", "input": ["^input"], "attr": {"value": {"tensor": {"dtype": "DT_FLOAT", "tensorShape": {"dim": [{"size": "1"}, {"size": "1"}, {"size": "288"}, {"size": "288"}]}}}, "dtype": {"type": "DT_FLOAT"}}}, {"name": "StatefulPartitionedCall/model/conv2d_4/BiasAdd/ReadVariableOp", "op": "Const", "input": ["^input"], "attr": {"value": {"tensor": {"dtype": "DT_FLOAT", "tensorShape": {"dim": [{"size": "48"}]}}}, "dtype": {"type": "DT_FLOAT"}}}, {"name": "StatefulPartitionedCall/model/conv2d_4/Conv2D/ReadVariableOp", "op": "Const", "input": ["^input"], "attr": {"value": {"tensor": {"dtype": "DT_FLOAT", "tensorShape": {"dim": [{"size": "1"}, {"size": "1"}, {"size": "48"}, {"size": "48"}]}}}, "dtype": {"type": "DT_FLOAT"}}}, {"name": "StatefulPartitionedCall/model/conv2d_40/BiasAdd/ReadVariableOp", "op": "Const", "input": ["^input"], "attr": {"value": {"tensor": {"dtype": "DT_FLOAT", "tensorShape": {"dim": [{"size": "288"}]}}}, "dtype": {"type": "DT_FLOAT"}}}, {"name": "StatefulPartitionedCall/model/conv2d_40/Conv2D/ReadVariableOp", "op": "Const", "input": ["^input"], "attr": {"value": {"tensor": {"dtype": "DT_FLOAT", "tensorShape": {"dim": [{"size": "1"}, {"size": "1"}, {"size": "288"}, {"size": "288"}]}}}, "dtype": {"type": "DT_FLOAT"}}}, {"name": "StatefulPartitionedCall/model/conv2d_41/BiasAdd/ReadVariableOp", "op": "Const", "input": ["^input"], "attr": {"value": {"tensor": {"dtype": "DT_FLOAT", "tensorShape": {"dim": [{"size": "288"}]}}}, "dtype": {"type": "DT_FLOAT"}}}, {"name": "StatefulPartitionedCall/model/conv2d_41/Conv2D/ReadVariableOp", "op": "Const", "input": ["^input"], "attr": {"value": {"tensor": {"dtype": "DT_FLOAT", "tensorShape": {"dim": [{"size": "1"}, {"size": "1"}, {"size": "288"}, {"size": "288"}]}}}, "dtype": {"type": "DT_FLOAT"}}}, {"name": "StatefulPartitionedCall/model/conv2d_42/BiasAdd/ReadVariableOp", "op": "Const", "input": ["^input"], "attr": {"value": {"tensor": {"dtype": "DT_FLOAT", "tensorShape": {"dim": [{"size": "288"}]}}}, "dtype": {"type": "DT_FLOAT"}}}, {"name": "StatefulPartitionedCall/model/conv2d_42/Conv2D/ReadVariableOp", "op": "Const", "input": ["^input"], "attr": {"value": {"tensor": {"dtype": "DT_FLOAT", "tensorShape": {"dim": [{"size": "1"}, {"size": "1"}, {"size": "288"}, {"size": "288"}]}}}, "dtype": {"type": "DT_FLOAT"}}}, {"name": "StatefulPartitionedCall/model/conv2d_43/BiasAdd/ReadVariableOp", "op": "Const", "input": ["^input"], "attr": {"value": {"tensor": {"dtype": "DT_FLOAT", "tensorShape": {"dim": [{"size": "288"}]}}}, "dtype": {"type": "DT_FLOAT"}}}, {"name": "StatefulPartitionedCall/model/conv2d_43/Conv2D/ReadVariableOp", "op": "Const", "input": ["^input"], "attr": {"value": {"tensor": {"dtype": "DT_FLOAT", "tensorShape": {"dim": [{"size": "1"}, {"size": "1"}, {"size": "288"}, {"size": "288"}]}}}, "dtype": {"type": "DT_FLOAT"}}}, {"name": "StatefulPartitionedCall/model/conv2d_44/BiasAdd/ReadVariableOp", "op": "Const", "input": ["^input"], "attr": {"value": {"tensor": {"dtype": "DT_FLOAT", "tensorShape": {"dim": [{"size": "288"}]}}}, "dtype": {"type": "DT_FLOAT"}}}, {"name": "StatefulPartitionedCall/model/conv2d_44/Conv2D/ReadVariableOp", "op": "Const", "input": ["^input"], "attr": {"value": {"tensor": {"dtype": "DT_FLOAT", "tensorShape": {"dim": [{"size": "1"}, {"size": "1"}, {"size": "288"}, {"size": "288"}]}}}, "dtype": {"type": "DT_FLOAT"}}}, {"name": "StatefulPartitionedCall/model/conv2d_5/BiasAdd/ReadVariableOp", "op": "Const", "input": ["^input"], "attr": {"value": {"tensor": {"dtype": "DT_FLOAT", "tensorShape": {"dim": [{"size": "48"}]}}}, "dtype": {"type": "DT_FLOAT"}}}, {"name": "StatefulPartitionedCall/model/conv2d_5/Conv2D/ReadVariableOp", "op": "Const", "input": ["^input"], "attr": {"value": {"tensor": {"dtype": "DT_FLOAT", "tensorShape": {"dim": [{"size": "1"}, {"size": "1"}, {"size": "48"}, {"size": "48"}]}}}, "dtype": {"type": "DT_FLOAT"}}}, {"name": "StatefulPartitionedCall/model/conv2d_6/BiasAdd/ReadVariableOp", "op": "Const", "input": ["^input"], "attr": {"value": {"tensor": {"dtype": "DT_FLOAT", "tensorShape": {"dim": [{"size": "96"}]}}}, "dtype": {"type": "DT_FLOAT"}}}, {"name": "StatefulPartitionedCall/model/conv2d_6/Conv2D/ReadVariableOp", "op": "Const", "input": ["^input"], "attr": {"value": {"tensor": {"dtype": "DT_FLOAT", "tensorShape": {"dim": [{"size": "1"}, {"size": "1"}, {"size": "48"}, {"size": "96"}]}}}, "dtype": {"type": "DT_FLOAT"}}}, {"name": "StatefulPartitionedCall/model/conv2d_7/BiasAdd/ReadVariableOp", "op": "Const", "input": ["^input"], "attr": {"value": {"tensor": {"dtype": "DT_FLOAT", "tensorShape": {"dim": [{"size": "96"}]}}}, "dtype": {"type": "DT_FLOAT"}}}, {"name": "StatefulPartitionedCall/model/conv2d_7/Conv2D/ReadVariableOp", "op": "Const", "input": ["^input"], "attr": {"value": {"tensor": {"dtype": "DT_FLOAT", "tensorShape": {"dim": [{"size": "1"}, {"size": "1"}, {"size": "96"}, {"size": "96"}]}}}, "dtype": {"type": "DT_FLOAT"}}}, {"name": "StatefulPartitionedCall/model/conv2d_8/BiasAdd/ReadVariableOp", "op": "Const", "input": ["^input"], "attr": {"value": {"tensor": {"dtype": "DT_FLOAT", "tensorShape": {"dim": [{"size": "96"}]}}}, "dtype": {"type": "DT_FLOAT"}}}, {"name": "StatefulPartitionedCall/model/conv2d_8/Conv2D/ReadVariableOp", "op": "Const", "input": ["^input"], "attr": {"value": {"tensor": {"dtype": "DT_FLOAT", "tensorShape": {"dim": [{"size": "1"}, {"size": "1"}, {"size": "96"}, {"size": "96"}]}}}, "dtype": {"type": "DT_FLOAT"}}}, {"name": "StatefulPartitionedCall/model/conv2d_9/BiasAdd/ReadVariableOp", "op": "Const", "input": ["^input"], "attr": {"value": {"tensor": {"dtype": "DT_FLOAT", "tensorShape": {"dim": [{"size": "96"}]}}}, "dtype": {"type": "DT_FLOAT"}}}, {"name": "StatefulPartitionedCall/model/conv2d_9/Conv2D/ReadVariableOp", "op": "Const", "input": ["^input"], "attr": {"value": {"tensor": {"dtype": "DT_FLOAT", "tensorShape": {"dim": [{"size": "1"}, {"size": "1"}, {"size": "96"}, {"size": "96"}]}}}, "dtype": {"type": "DT_FLOAT"}}}, {"name": "StatefulPartitionedCall/model/conv_handedness/BiasAdd/ReadVariableOp", "op": "Const", "input": ["^input"], "attr": {"value": {"tensor": {"dtype": "DT_FLOAT", "tensorShape": {"dim": [{"size": "1"}]}}}, "dtype": {"type": "DT_FLOAT"}}}, {"name": "StatefulPartitionedCall/model/conv_handedness/Conv2D/ReadVariableOp", "op": "Const", "input": ["^input"], "attr": {"value": {"tensor": {"dtype": "DT_FLOAT", "tensorShape": {"dim": [{"size": "2"}, {"size": "2"}, {"size": "288"}, {"size": "1"}]}}}, "dtype": {"type": "DT_FLOAT"}}}, {"name": "StatefulPartitionedCall/model/conv_handflag/BiasAdd/ReadVariableOp", "op": "Const", "input": ["^input"], "attr": {"value": {"tensor": {"dtype": "DT_FLOAT", "tensorShape": {"dim": [{"size": "1"}]}}}, "dtype": {"type": "DT_FLOAT"}}}, {"name": "StatefulPartitionedCall/model/conv_handflag/Conv2D/ReadVariableOp", "op": "Const", "input": ["^input"], "attr": {"value": {"tensor": {"dtype": "DT_FLOAT", "tensorShape": {"dim": [{"size": "2"}, {"size": "2"}, {"size": "288"}, {"size": "1"}]}}}, "dtype": {"type": "DT_FLOAT"}}}, {"name": "StatefulPartitionedCall/model/convld_21_3d/BiasAdd/ReadVariableOp", "op": "Const", "input": ["^input"], "attr": {"value": {"tensor": {"dtype": "DT_FLOAT", "tensorShape": {"dim": [{"size": "63"}]}}}, "dtype": {"type": "DT_FLOAT"}}}, {"name": "StatefulPartitionedCall/model/convld_21_3d/Conv2D/ReadVariableOp", "op": "Const", "input": ["^input"], "attr": {"value": {"tensor": {"dtype": "DT_FLOAT", "tensorShape": {"dim": [{"size": "2"}, {"size": "2"}, {"size": "288"}, {"size": "63"}]}}}, "dtype": {"type": "DT_FLOAT"}}}, {"name": "StatefulPartitionedCall/model/depthwise_conv2d/depthwise/ReadVariableOp", "op": "Const", "input": ["^input"], "attr": {"value": {"tensor": {"dtype": "DT_FLOAT", "tensorShape": {"dim": [{"size": "5"}, {"size": "5"}, {"size": "24"}, {"size": "1"}]}}}, "dtype": {"type": "DT_FLOAT"}}}, {"name": "StatefulPartitionedCall/model/depthwise_conv2d_1/depthwise/ReadVariableOp", "op": "Const", "input": ["^input"], "attr": {"value": {"tensor": {"dtype": "DT_FLOAT", "tensorShape": {"dim": [{"size": "5"}, {"size": "5"}, {"size": "24"}, {"size": "1"}]}}}, "dtype": {"type": "DT_FLOAT"}}}, {"name": "StatefulPartitionedCall/model/depthwise_conv2d_10/depthwise/ReadVariableOp", "op": "Const", "input": ["^input"], "attr": {"value": {"tensor": {"dtype": "DT_FLOAT", "tensorShape": {"dim": [{"size": "5"}, {"size": "5"}, {"size": "96"}, {"size": "1"}]}}}, "dtype": {"type": "DT_FLOAT"}}}, {"name": "StatefulPartitionedCall/model/depthwise_conv2d_11/depthwise/ReadVariableOp", "op": "Const", "input": ["^input"], "attr": {"value": {"tensor": {"dtype": "DT_FLOAT", "tensorShape": {"dim": [{"size": "5"}, {"size": "5"}, {"size": "96"}, {"size": "1"}]}}}, "dtype": {"type": "DT_FLOAT"}}}, {"name": "StatefulPartitionedCall/model/depthwise_conv2d_12/depthwise/ReadVariableOp", "op": "Const", "input": ["^input"], "attr": {"value": {"tensor": {"dtype": "DT_FLOAT", "tensorShape": {"dim": [{"size": "5"}, {"size": "5"}, {"size": "96"}, {"size": "1"}]}}}, "dtype": {"type": "DT_FLOAT"}}}, {"name": "StatefulPartitionedCall/model/depthwise_conv2d_13/depthwise/ReadVariableOp", "op": "Const", "input": ["^input"], "attr": {"value": {"tensor": {"dtype": "DT_FLOAT", "tensorShape": {"dim": [{"size": "5"}, {"size": "5"}, {"size": "96"}, {"size": "1"}]}}}, "dtype": {"type": "DT_FLOAT"}}}, {"name": "StatefulPartitionedCall/model/depthwise_conv2d_14/depthwise/ReadVariableOp", "op": "Const", "input": ["^input"], "attr": {"value": {"tensor": {"dtype": "DT_FLOAT", "tensorShape": {"dim": [{"size": "5"}, {"size": "5"}, {"size": "48"}, {"size": "1"}]}}}, "dtype": {"type": "DT_FLOAT"}}}, {"name": "StatefulPartitionedCall/model/depthwise_conv2d_15/depthwise/ReadVariableOp", "op": "Const", "input": ["^input"], "attr": {"value": {"tensor": {"dtype": "DT_FLOAT", "tensorShape": {"dim": [{"size": "5"}, {"size": "5"}, {"size": "48"}, {"size": "1"}]}}}, "dtype": {"type": "DT_FLOAT"}}}, {"name": "StatefulPartitionedCall/model/depthwise_conv2d_16/depthwise/ReadVariableOp", "op": "Const", "input": ["^input"], "attr": {"value": {"tensor": {"dtype": "DT_FLOAT", "tensorShape": {"dim": [{"size": "5"}, {"size": "5"}, {"size": "48"}, {"size": "1"}]}}}, "dtype": {"type": "DT_FLOAT"}}}, {"name": "StatefulPartitionedCall/model/depthwise_conv2d_17/depthwise/ReadVariableOp", "op": "Const", "input": ["^input"], "attr": {"value": {"tensor": {"dtype": "DT_FLOAT", "tensorShape": {"dim": [{"size": "5"}, {"size": "5"}, {"size": "48"}, {"size": "1"}]}}}, "dtype": {"type": "DT_FLOAT"}}}, {"name": "StatefulPartitionedCall/model/depthwise_conv2d_18/depthwise/ReadVariableOp", "op": "Const", "input": ["^input"], "attr": {"value": {"tensor": {"dtype": "DT_FLOAT", "tensorShape": {"dim": [{"size": "5"}, {"size": "5"}, {"size": "48"}, {"size": "1"}]}}}, "dtype": {"type": "DT_FLOAT"}}}, {"name": "StatefulPartitionedCall/model/depthwise_conv2d_19/depthwise/ReadVariableOp", "op": "Const", "input": ["^input"], "attr": {"value": {"tensor": {"dtype": "DT_FLOAT", "tensorShape": {"dim": [{"size": "5"}, {"size": "5"}, {"size": "96"}, {"size": "1"}]}}}, "dtype": {"type": "DT_FLOAT"}}}, {"name": "StatefulPartitionedCall/model/depthwise_conv2d_2/depthwise/ReadVariableOp", "op": "Const", "input": ["^input"], "attr": {"value": {"tensor": {"dtype": "DT_FLOAT", "tensorShape": {"dim": [{"size": "5"}, {"size": "5"}, {"size": "24"}, {"size": "1"}]}}}, "dtype": {"type": "DT_FLOAT"}}}, {"name": "StatefulPartitionedCall/model/depthwise_conv2d_20/depthwise/ReadVariableOp", "op": "Const", "input": ["^input"], "attr": {"value": {"tensor": {"dtype": "DT_FLOAT", "tensorShape": {"dim": [{"size": "5"}, {"size": "5"}, {"size": "96"}, {"size": "1"}]}}}, "dtype": {"type": "DT_FLOAT"}}}, {"name": "StatefulPartitionedCall/model/depthwise_conv2d_21/depthwise/ReadVariableOp", "op": "Const", "input": ["^input"], "attr": {"value": {"tensor": {"dtype": "DT_FLOAT", "tensorShape": {"dim": [{"size": "5"}, {"size": "5"}, {"size": "96"}, {"size": "1"}]}}}, "dtype": {"type": "DT_FLOAT"}}}, {"name": "StatefulPartitionedCall/model/depthwise_conv2d_22/depthwise/ReadVariableOp", "op": "Const", "input": ["^input"], "attr": {"value": {"tensor": {"dtype": "DT_FLOAT", "tensorShape": {"dim": [{"size": "5"}, {"size": "5"}, {"size": "96"}, {"size": "1"}]}}}, "dtype": {"type": "DT_FLOAT"}}}, {"name": "StatefulPartitionedCall/model/depthwise_conv2d_23/depthwise/ReadVariableOp", "op": "Const", "input": ["^input"], "attr": {"value": {"tensor": {"dtype": "DT_FLOAT", "tensorShape": {"dim": [{"size": "5"}, {"size": "5"}, {"size": "96"}, {"size": "1"}]}}}, "dtype": {"type": "DT_FLOAT"}}}, {"name": "StatefulPartitionedCall/model/depthwise_conv2d_24/depthwise/ReadVariableOp", "op": "Const", "input": ["^input"], "attr": {"value": {"tensor": {"dtype": "DT_FLOAT", "tensorShape": {"dim": [{"size": "5"}, {"size": "5"}, {"size": "288"}, {"size": "1"}]}}}, "dtype": {"type": "DT_FLOAT"}}}, {"name": "StatefulPartitionedCall/model/depthwise_conv2d_25/depthwise/ReadVariableOp", "op": "Const", "input": ["^input"], "attr": {"value": {"tensor": {"dtype": "DT_FLOAT", "tensorShape": {"dim": [{"size": "5"}, {"size": "5"}, {"size": "288"}, {"size": "1"}]}}}, "dtype": {"type": "DT_FLOAT"}}}, {"name": "StatefulPartitionedCall/model/depthwise_conv2d_26/depthwise/ReadVariableOp", "op": "Const", "input": ["^input"], "attr": {"value": {"tensor": {"dtype": "DT_FLOAT", "tensorShape": {"dim": [{"size": "5"}, {"size": "5"}, {"size": "288"}, {"size": "1"}]}}}, "dtype": {"type": "DT_FLOAT"}}}, {"name": "StatefulPartitionedCall/model/depthwise_conv2d_27/depthwise/ReadVariableOp", "op": "Const", "input": ["^input"], "attr": {"value": {"tensor": {"dtype": "DT_FLOAT", "tensorShape": {"dim": [{"size": "5"}, {"size": "5"}, {"size": "288"}, {"size": "1"}]}}}, "dtype": {"type": "DT_FLOAT"}}}, {"name": "StatefulPartitionedCall/model/depthwise_conv2d_28/depthwise/ReadVariableOp", "op": "Const", "input": ["^input"], "attr": {"value": {"tensor": {"dtype": "DT_FLOAT", "tensorShape": {"dim": [{"size": "5"}, {"size": "5"}, {"size": "288"}, {"size": "1"}]}}}, "dtype": {"type": "DT_FLOAT"}}}, {"name": "StatefulPartitionedCall/model/depthwise_conv2d_29/depthwise/ReadVariableOp", "op": "Const", "input": ["^input"], "attr": {"value": {"tensor": {"dtype": "DT_FLOAT", "tensorShape": {"dim": [{"size": "5"}, {"size": "5"}, {"size": "288"}, {"size": "1"}]}}}, "dtype": {"type": "DT_FLOAT"}}}, {"name": "StatefulPartitionedCall/model/depthwise_conv2d_3/depthwise/ReadVariableOp", "op": "Const", "input": ["^input"], "attr": {"value": {"tensor": {"dtype": "DT_FLOAT", "tensorShape": {"dim": [{"size": "5"}, {"size": "5"}, {"size": "48"}, {"size": "1"}]}}}, "dtype": {"type": "DT_FLOAT"}}}, {"name": "StatefulPartitionedCall/model/depthwise_conv2d_30/depthwise/ReadVariableOp", "op": "Const", "input": ["^input"], "attr": {"value": {"tensor": {"dtype": "DT_FLOAT", "tensorShape": {"dim": [{"size": "5"}, {"size": "5"}, {"size": "288"}, {"size": "1"}]}}}, "dtype": {"type": "DT_FLOAT"}}}, {"name": "StatefulPartitionedCall/model/depthwise_conv2d_31/depthwise/ReadVariableOp", "op": "Const", "input": ["^input"], "attr": {"value": {"tensor": {"dtype": "DT_FLOAT", "tensorShape": {"dim": [{"size": "5"}, {"size": "5"}, {"size": "288"}, {"size": "1"}]}}}, "dtype": {"type": "DT_FLOAT"}}}, {"name": "StatefulPartitionedCall/model/depthwise_conv2d_32/depthwise/ReadVariableOp", "op": "Const", "input": ["^input"], "attr": {"value": {"tensor": {"dtype": "DT_FLOAT", "tensorShape": {"dim": [{"size": "5"}, {"size": "5"}, {"size": "288"}, {"size": "1"}]}}}, "dtype": {"type": "DT_FLOAT"}}}, {"name": "StatefulPartitionedCall/model/depthwise_conv2d_33/depthwise/ReadVariableOp", "op": "Const", "input": ["^input"], "attr": {"value": {"tensor": {"dtype": "DT_FLOAT", "tensorShape": {"dim": [{"size": "5"}, {"size": "5"}, {"size": "288"}, {"size": "1"}]}}}, "dtype": {"type": "DT_FLOAT"}}}, {"name": "StatefulPartitionedCall/model/depthwise_conv2d_34/depthwise/ReadVariableOp", "op": "Const", "input": ["^input"], "attr": {"value": {"tensor": {"dtype": "DT_FLOAT", "tensorShape": {"dim": [{"size": "5"}, {"size": "5"}, {"size": "288"}, {"size": "1"}]}}}, "dtype": {"type": "DT_FLOAT"}}}, {"name": "StatefulPartitionedCall/model/depthwise_conv2d_35/depthwise/ReadVariableOp", "op": "Const", "input": ["^input"], "attr": {"value": {"tensor": {"dtype": "DT_FLOAT", "tensorShape": {"dim": [{"size": "5"}, {"size": "5"}, {"size": "288"}, {"size": "1"}]}}}, "dtype": {"type": "DT_FLOAT"}}}, {"name": "StatefulPartitionedCall/model/depthwise_conv2d_36/depthwise/ReadVariableOp", "op": "Const", "input": ["^input"], "attr": {"value": {"tensor": {"dtype": "DT_FLOAT", "tensorShape": {"dim": [{"size": "5"}, {"size": "5"}, {"size": "288"}, {"size": "1"}]}}}, "dtype": {"type": "DT_FLOAT"}}}, {"name": "StatefulPartitionedCall/model/depthwise_conv2d_37/depthwise/ReadVariableOp", "op": "Const", "input": ["^input"], "attr": {"value": {"tensor": {"dtype": "DT_FLOAT", "tensorShape": {"dim": [{"size": "5"}, {"size": "5"}, {"size": "288"}, {"size": "1"}]}}}, "dtype": {"type": "DT_FLOAT"}}}, {"name": "StatefulPartitionedCall/model/depthwise_conv2d_38/depthwise/ReadVariableOp", "op": "Const", "input": ["^input"], "attr": {"value": {"tensor": {"dtype": "DT_FLOAT", "tensorShape": {"dim": [{"size": "5"}, {"size": "5"}, {"size": "288"}, {"size": "1"}]}}}, "dtype": {"type": "DT_FLOAT"}}}, {"name": "StatefulPartitionedCall/model/depthwise_conv2d_39/depthwise/ReadVariableOp", "op": "Const", "input": ["^input"], "attr": {"value": {"tensor": {"dtype": "DT_FLOAT", "tensorShape": {"dim": [{"size": "5"}, {"size": "5"}, {"size": "288"}, {"size": "1"}]}}}, "dtype": {"type": "DT_FLOAT"}}}, {"name": "StatefulPartitionedCall/model/depthwise_conv2d_4/depthwise/ReadVariableOp", "op": "Const", "input": ["^input"], "attr": {"value": {"tensor": {"dtype": "DT_FLOAT", "tensorShape": {"dim": [{"size": "5"}, {"size": "5"}, {"size": "48"}, {"size": "1"}]}}}, "dtype": {"type": "DT_FLOAT"}}}, {"name": "StatefulPartitionedCall/model/depthwise_conv2d_40/depthwise/ReadVariableOp", "op": "Const", "input": ["^input"], "attr": {"value": {"tensor": {"dtype": "DT_FLOAT", "tensorShape": {"dim": [{"size": "5"}, {"size": "5"}, {"size": "288"}, {"size": "1"}]}}}, "dtype": {"type": "DT_FLOAT"}}}, {"name": "StatefulPartitionedCall/model/depthwise_conv2d_41/depthwise/ReadVariableOp", "op": "Const", "input": ["^input"], "attr": {"value": {"tensor": {"dtype": "DT_FLOAT", "tensorShape": {"dim": [{"size": "5"}, {"size": "5"}, {"size": "288"}, {"size": "1"}]}}}, "dtype": {"type": "DT_FLOAT"}}}, {"name": "StatefulPartitionedCall/model/depthwise_conv2d_42/depthwise/ReadVariableOp", "op": "Const", "input": ["^input"], "attr": {"value": {"tensor": {"dtype": "DT_FLOAT", "tensorShape": {"dim": [{"size": "5"}, {"size": "5"}, {"size": "288"}, {"size": "1"}]}}}, "dtype": {"type": "DT_FLOAT"}}}, {"name": "StatefulPartitionedCall/model/depthwise_conv2d_5/depthwise/ReadVariableOp", "op": "Const", "input": ["^input"], "attr": {"value": {"tensor": {"dtype": "DT_FLOAT", "tensorShape": {"dim": [{"size": "5"}, {"size": "5"}, {"size": "48"}, {"size": "1"}]}}}, "dtype": {"type": "DT_FLOAT"}}}, {"name": "StatefulPartitionedCall/model/depthwise_conv2d_6/depthwise/ReadVariableOp", "op": "Const", "input": ["^input"], "attr": {"value": {"tensor": {"dtype": "DT_FLOAT", "tensorShape": {"dim": [{"size": "5"}, {"size": "5"}, {"size": "96"}, {"size": "1"}]}}}, "dtype": {"type": "DT_FLOAT"}}}, {"name": "StatefulPartitionedCall/model/depthwise_conv2d_7/depthwise/ReadVariableOp", "op": "Const", "input": ["^input"], "attr": {"value": {"tensor": {"dtype": "DT_FLOAT", "tensorShape": {"dim": [{"size": "5"}, {"size": "5"}, {"size": "96"}, {"size": "1"}]}}}, "dtype": {"type": "DT_FLOAT"}}}, {"name": "StatefulPartitionedCall/model/depthwise_conv2d_8/depthwise/ReadVariableOp", "op": "Const", "input": ["^input"], "attr": {"value": {"tensor": {"dtype": "DT_FLOAT", "tensorShape": {"dim": [{"size": "5"}, {"size": "5"}, {"size": "96"}, {"size": "1"}]}}}, "dtype": {"type": "DT_FLOAT"}}}, {"name": "StatefulPartitionedCall/model/depthwise_conv2d_9/depthwise/ReadVariableOp", "op": "Const", "input": ["^input"], "attr": {"value": {"tensor": {"dtype": "DT_FLOAT", "tensorShape": {"dim": [{"size": "5"}, {"size": "5"}, {"size": "96"}, {"size": "1"}]}}}, "dtype": {"type": "DT_FLOAT"}}}, {"name": "StatefulPartitionedCall/model/re_lu/Relu", "op": "_FusedConv2D", "input": ["input", "StatefulPartitionedCall/model/conv2d/Conv2D/ReadVariableOp", "StatefulPartitionedCall/model/conv2d/BiasAdd/ReadVariableOp"], "device": "/device:CPU:0", "attr": {"dilations": {"list": {"i": ["1", "1", "1", "1"]}}, "T": {"type": "DT_FLOAT"}, "data_format": {"s": "TkhXQw=="}, "strides": {"list": {"i": ["1", "2", "2", "1"]}}, "use_cudnn_on_gpu": {"b": true}, "explicit_paddings": {"list": {}}, "num_args": {"i": "1"}, "epsilon": {"f": 0.0}, "padding": {"s": "VkFMSUQ="}, "fused_ops": {"list": {"s": ["Qmlhc0FkZA==", "UmVsdQ=="]}}}}, {"name": "Func/StatefulPartitionedCall/output_control_node/_187", "op": "NoOp", "input": ["^StatefulPartitionedCall/model/conv2d/BiasAdd/ReadVariableOp", "^StatefulPartitionedCall/model/conv2d/Conv2D/ReadVariableOp", "^StatefulPartitionedCall/model/conv2d_1/BiasAdd/ReadVariableOp", "^StatefulPartitionedCall/model/conv2d_1/Conv2D/ReadVariableOp", "^StatefulPartitionedCall/model/conv2d_10/BiasAdd/ReadVariableOp", "^StatefulPartitionedCall/model/conv2d_10/Conv2D/ReadVariableOp", "^StatefulPartitionedCall/model/conv2d_11/BiasAdd/ReadVariableOp", "^StatefulPartitionedCall/model/conv2d_11/Conv2D/ReadVariableOp", "^StatefulPartitionedCall/model/conv2d_12/BiasAdd/ReadVariableOp", "^StatefulPartitionedCall/model/conv2d_12/Conv2D/ReadVariableOp", "^StatefulPartitionedCall/model/conv2d_13/BiasAdd/ReadVariableOp", "^StatefulPartitionedCall/model/conv2d_13/Conv2D/ReadVariableOp", "^StatefulPartitionedCall/model/conv2d_14/BiasAdd/ReadVariableOp", "^StatefulPartitionedCall/model/conv2d_14/Conv2D/ReadVariableOp", "^StatefulPartitionedCall/model/conv2d_15/BiasAdd/ReadVariableOp", "^StatefulPartitionedCall/model/conv2d_15/Conv2D/ReadVariableOp", "^StatefulPartitionedCall/model/conv2d_16/BiasAdd/ReadVariableOp", "^StatefulPartitionedCall/model/conv2d_16/Conv2D/ReadVariableOp", "^StatefulPartitionedCall/model/conv2d_17/BiasAdd/ReadVariableOp", "^StatefulPartitionedCall/model/conv2d_17/Conv2D/ReadVariableOp", "^StatefulPartitionedCall/model/conv2d_18/BiasAdd/ReadVariableOp", "^StatefulPartitionedCall/model/conv2d_18/Conv2D/ReadVariableOp", "^StatefulPartitionedCall/model/conv2d_19/BiasAdd/ReadVariableOp", "^StatefulPartitionedCall/model/conv2d_19/Conv2D/ReadVariableOp", "^StatefulPartitionedCall/model/conv2d_2/BiasAdd/ReadVariableOp", "^StatefulPartitionedCall/model/conv2d_2/Conv2D/ReadVariableOp", "^StatefulPartitionedCall/model/conv2d_20/BiasAdd/ReadVariableOp", "^StatefulPartitionedCall/model/conv2d_20/Conv2D/ReadVariableOp", "^StatefulPartitionedCall/model/conv2d_21/BiasAdd/ReadVariableOp", "^StatefulPartitionedCall/model/conv2d_21/Conv2D/ReadVariableOp", "^StatefulPartitionedCall/model/conv2d_22/BiasAdd/ReadVariableOp", "^StatefulPartitionedCall/model/conv2d_22/Conv2D/ReadVariableOp", "^StatefulPartitionedCall/model/conv2d_23/BiasAdd/ReadVariableOp", "^StatefulPartitionedCall/model/conv2d_23/Conv2D/ReadVariableOp", "^StatefulPartitionedCall/model/conv2d_24/BiasAdd/ReadVariableOp", "^StatefulPartitionedCall/model/conv2d_24/Conv2D/ReadVariableOp", "^StatefulPartitionedCall/model/conv2d_25/BiasAdd/ReadVariableOp", "^StatefulPartitionedCall/model/conv2d_25/Conv2D/ReadVariableOp", "^StatefulPartitionedCall/model/conv2d_26/BiasAdd/ReadVariableOp", "^StatefulPartitionedCall/model/conv2d_26/Conv2D/ReadVariableOp", "^StatefulPartitionedCall/model/conv2d_27/BiasAdd/ReadVariableOp", "^StatefulPartitionedCall/model/conv2d_27/Conv2D/ReadVariableOp", "^StatefulPartitionedCall/model/conv2d_28/BiasAdd/ReadVariableOp", "^StatefulPartitionedCall/model/conv2d_28/Conv2D/ReadVariableOp", "^StatefulPartitionedCall/model/conv2d_29/BiasAdd/ReadVariableOp", "^StatefulPartitionedCall/model/conv2d_29/Conv2D/ReadVariableOp", "^StatefulPartitionedCall/model/conv2d_3/BiasAdd/ReadVariableOp", "^StatefulPartitionedCall/model/conv2d_3/Conv2D/ReadVariableOp", "^StatefulPartitionedCall/model/conv2d_30/BiasAdd/ReadVariableOp", "^StatefulPartitionedCall/model/conv2d_30/Conv2D/ReadVariableOp", "^StatefulPartitionedCall/model/conv2d_31/BiasAdd/ReadVariableOp", "^StatefulPartitionedCall/model/conv2d_31/Conv2D/ReadVariableOp", "^StatefulPartitionedCall/model/conv2d_32/BiasAdd/ReadVariableOp", "^StatefulPartitionedCall/model/conv2d_32/Conv2D/ReadVariableOp", "^StatefulPartitionedCall/model/conv2d_33/BiasAdd/ReadVariableOp", "^StatefulPartitionedCall/model/conv2d_33/Conv2D/ReadVariableOp", "^StatefulPartitionedCall/model/conv2d_34/BiasAdd/ReadVariableOp", "^StatefulPartitionedCall/model/conv2d_34/Conv2D/ReadVariableOp", "^StatefulPartitionedCall/model/conv2d_35/BiasAdd/ReadVariableOp", "^StatefulPartitionedCall/model/conv2d_35/Conv2D/ReadVariableOp", "^StatefulPartitionedCall/model/conv2d_36/BiasAdd/ReadVariableOp", "^StatefulPartitionedCall/model/conv2d_36/Conv2D/ReadVariableOp", "^StatefulPartitionedCall/model/conv2d_37/BiasAdd/ReadVariableOp", "^StatefulPartitionedCall/model/conv2d_37/Conv2D/ReadVariableOp", "^StatefulPartitionedCall/model/conv2d_38/BiasAdd/ReadVariableOp", "^StatefulPartitionedCall/model/conv2d_38/Conv2D/ReadVariableOp", "^StatefulPartitionedCall/model/conv2d_39/BiasAdd/ReadVariableOp", "^StatefulPartitionedCall/model/conv2d_39/Conv2D/ReadVariableOp", "^StatefulPartitionedCall/model/conv2d_4/BiasAdd/ReadVariableOp", "^StatefulPartitionedCall/model/conv2d_4/Conv2D/ReadVariableOp", "^StatefulPartitionedCall/model/conv2d_40/BiasAdd/ReadVariableOp", "^StatefulPartitionedCall/model/conv2d_40/Conv2D/ReadVariableOp", "^StatefulPartitionedCall/model/conv2d_41/BiasAdd/ReadVariableOp", "^StatefulPartitionedCall/model/conv2d_41/Conv2D/ReadVariableOp", "^StatefulPartitionedCall/model/conv2d_42/BiasAdd/ReadVariableOp", "^StatefulPartitionedCall/model/conv2d_42/Conv2D/ReadVariableOp", "^StatefulPartitionedCall/model/conv2d_43/BiasAdd/ReadVariableOp", "^StatefulPartitionedCall/model/conv2d_43/Conv2D/ReadVariableOp", "^StatefulPartitionedCall/model/conv2d_44/BiasAdd/ReadVariableOp", "^StatefulPartitionedCall/model/conv2d_44/Conv2D/ReadVariableOp", "^StatefulPartitionedCall/model/conv2d_5/BiasAdd/ReadVariableOp", "^StatefulPartitionedCall/model/conv2d_5/Conv2D/ReadVariableOp", "^StatefulPartitionedCall/model/conv2d_6/BiasAdd/ReadVariableOp", "^StatefulPartitionedCall/model/conv2d_6/Conv2D/ReadVariableOp", "^StatefulPartitionedCall/model/conv2d_7/BiasAdd/ReadVariableOp", "^StatefulPartitionedCall/model/conv2d_7/Conv2D/ReadVariableOp", "^StatefulPartitionedCall/model/conv2d_8/BiasAdd/ReadVariableOp", "^StatefulPartitionedCall/model/conv2d_8/Conv2D/ReadVariableOp", "^StatefulPartitionedCall/model/conv2d_9/BiasAdd/ReadVariableOp", "^StatefulPartitionedCall/model/conv2d_9/Conv2D/ReadVariableOp", "^StatefulPartitionedCall/model/conv_handedness/BiasAdd/ReadVariableOp", "^StatefulPartitionedCall/model/conv_handedness/Conv2D/ReadVariableOp", "^StatefulPartitionedCall/model/conv_handflag/BiasAdd/ReadVariableOp", "^StatefulPartitionedCall/model/conv_handflag/Conv2D/ReadVariableOp", "^StatefulPartitionedCall/model/convld_21_3d/BiasAdd/ReadVariableOp", "^StatefulPartitionedCall/model/convld_21_3d/Conv2D/ReadVariableOp", "^StatefulPartitionedCall/model/depthwise_conv2d/depthwise/ReadVariableOp", "^StatefulPartitionedCall/model/depthwise_conv2d_1/depthwise/ReadVariableOp", "^StatefulPartitionedCall/model/depthwise_conv2d_10/depthwise/ReadVariableOp", "^StatefulPartitionedCall/model/depthwise_conv2d_11/depthwise/ReadVariableOp", "^StatefulPartitionedCall/model/depthwise_conv2d_12/depthwise/ReadVariableOp", "^StatefulPartitionedCall/model/depthwise_conv2d_13/depthwise/ReadVariableOp", "^StatefulPartitionedCall/model/depthwise_conv2d_14/depthwise/ReadVariableOp", "^StatefulPartitionedCall/model/depthwise_conv2d_15/depthwise/ReadVariableOp", "^StatefulPartitionedCall/model/depthwise_conv2d_16/depthwise/ReadVariableOp", "^StatefulPartitionedCall/model/depthwise_conv2d_17/depthwise/ReadVariableOp", "^StatefulPartitionedCall/model/depthwise_conv2d_18/depthwise/ReadVariableOp", "^StatefulPartitionedCall/model/depthwise_conv2d_19/depthwise/ReadVariableOp", "^StatefulPartitionedCall/model/depthwise_conv2d_2/depthwise/ReadVariableOp", "^StatefulPartitionedCall/model/depthwise_conv2d_20/depthwise/ReadVariableOp", "^StatefulPartitionedCall/model/depthwise_conv2d_21/depthwise/ReadVariableOp", "^StatefulPartitionedCall/model/depthwise_conv2d_22/depthwise/ReadVariableOp", "^StatefulPartitionedCall/model/depthwise_conv2d_23/depthwise/ReadVariableOp", "^StatefulPartitionedCall/model/depthwise_conv2d_24/depthwise/ReadVariableOp", "^StatefulPartitionedCall/model/depthwise_conv2d_25/depthwise/ReadVariableOp", "^StatefulPartitionedCall/model/depthwise_conv2d_26/depthwise/ReadVariableOp", "^StatefulPartitionedCall/model/depthwise_conv2d_27/depthwise/ReadVariableOp", "^StatefulPartitionedCall/model/depthwise_conv2d_28/depthwise/ReadVariableOp", "^StatefulPartitionedCall/model/depthwise_conv2d_29/depthwise/ReadVariableOp", "^StatefulPartitionedCall/model/depthwise_conv2d_3/depthwise/ReadVariableOp", "^StatefulPartitionedCall/model/depthwise_conv2d_30/depthwise/ReadVariableOp", "^StatefulPartitionedCall/model/depthwise_conv2d_31/depthwise/ReadVariableOp", "^StatefulPartitionedCall/model/depthwise_conv2d_32/depthwise/ReadVariableOp", "^StatefulPartitionedCall/model/depthwise_conv2d_33/depthwise/ReadVariableOp", "^StatefulPartitionedCall/model/depthwise_conv2d_34/depthwise/ReadVariableOp", "^StatefulPartitionedCall/model/depthwise_conv2d_35/depthwise/ReadVariableOp", "^StatefulPartitionedCall/model/depthwise_conv2d_36/depthwise/ReadVariableOp", "^StatefulPartitionedCall/model/depthwise_conv2d_37/depthwise/ReadVariableOp", "^StatefulPartitionedCall/model/depthwise_conv2d_38/depthwise/ReadVariableOp", "^StatefulPartitionedCall/model/depthwise_conv2d_39/depthwise/ReadVariableOp", "^StatefulPartitionedCall/model/depthwise_conv2d_4/depthwise/ReadVariableOp", "^StatefulPartitionedCall/model/depthwise_conv2d_40/depthwise/ReadVariableOp", "^StatefulPartitionedCall/model/depthwise_conv2d_41/depthwise/ReadVariableOp", "^StatefulPartitionedCall/model/depthwise_conv2d_42/depthwise/ReadVariableOp", "^StatefulPartitionedCall/model/depthwise_conv2d_5/depthwise/ReadVariableOp", "^StatefulPartitionedCall/model/depthwise_conv2d_6/depthwise/ReadVariableOp", "^StatefulPartitionedCall/model/depthwise_conv2d_7/depthwise/ReadVariableOp", "^StatefulPartitionedCall/model/depthwise_conv2d_8/depthwise/ReadVariableOp", "^StatefulPartitionedCall/model/depthwise_conv2d_9/depthwise/ReadVariableOp"]}, {"name": "StatefulPartitionedCall/model/depthwise_conv2d/depthwise", "op": "DepthwiseConv2dNative", "input": ["StatefulPartitionedCall/model/re_lu/Relu", "StatefulPartitionedCall/model/depthwise_conv2d/depthwise/ReadVariableOp"], "attr": {"padding": {"s": "U0FNRQ=="}, "dilations": {"list": {"i": ["1", "1", "1", "1"]}}, "T": {"type": "DT_FLOAT"}, "data_format": {"s": "TkhXQw=="}, "strides": {"list": {"i": ["1", "1", "1", "1"]}}}}, {"name": "StatefulPartitionedCall/model/conv2d_1/BiasAdd", "op": "_FusedConv2D", "input": ["StatefulPartitionedCall/model/depthwise_conv2d/depthwise", "StatefulPartitionedCall/model/conv2d_1/Conv2D/ReadVariableOp", "StatefulPartitionedCall/model/conv2d_1/BiasAdd/ReadVariableOp"], "device": "/device:CPU:0", "attr": {"dilations": {"list": {"i": ["1", "1", "1", "1"]}}, "T": {"type": "DT_FLOAT"}, "data_format": {"s": "TkhXQw=="}, "strides": {"list": {"i": ["1", "1", "1", "1"]}}, "use_cudnn_on_gpu": {"b": true}, "explicit_paddings": {"list": {}}, "num_args": {"i": "1"}, "epsilon": {"f": 0.0}, "padding": {"s": "U0FNRQ=="}, "fused_ops": {"list": {"s": ["Qmlhc0FkZA=="]}}}}, {"name": "StatefulPartitionedCall/model/add/add", "op": "AddV2", "input": ["StatefulPartitionedCall/model/conv2d_1/BiasAdd", "StatefulPartitionedCall/model/re_lu/Relu"], "attr": {"T": {"type": "DT_FLOAT"}}}, {"name": "StatefulPartitionedCall/model/re_lu_1/Relu", "op": "Relu", "input": ["StatefulPartitionedCall/model/add/add"], "attr": {"T": {"type": "DT_FLOAT"}}}, {"name": "StatefulPartitionedCall/model/depthwise_conv2d_1/depthwise", "op": "DepthwiseConv2dNative", "input": ["StatefulPartitionedCall/model/re_lu_1/Relu", "StatefulPartitionedCall/model/depthwise_conv2d_1/depthwise/ReadVariableOp"], "attr": {"padding": {"s": "U0FNRQ=="}, "dilations": {"list": {"i": ["1", "1", "1", "1"]}}, "T": {"type": "DT_FLOAT"}, "data_format": {"s": "TkhXQw=="}, "strides": {"list": {"i": ["1", "1", "1", "1"]}}}}, {"name": "StatefulPartitionedCall/model/conv2d_2/BiasAdd", "op": "_FusedConv2D", "input": ["StatefulPartitionedCall/model/depthwise_conv2d_1/depthwise", "StatefulPartitionedCall/model/conv2d_2/Conv2D/ReadVariableOp", "StatefulPartitionedCall/model/conv2d_2/BiasAdd/ReadVariableOp"], "device": "/device:CPU:0", "attr": {"dilations": {"list": {"i": ["1", "1", "1", "1"]}}, "T": {"type": "DT_FLOAT"}, "data_format": {"s": "TkhXQw=="}, "strides": {"list": {"i": ["1", "1", "1", "1"]}}, "use_cudnn_on_gpu": {"b": true}, "explicit_paddings": {"list": {}}, "num_args": {"i": "1"}, "epsilon": {"f": 0.0}, "padding": {"s": "U0FNRQ=="}, "fused_ops": {"list": {"s": ["Qmlhc0FkZA=="]}}}}, {"name": "StatefulPartitionedCall/model/add_1/add", "op": "AddV2", "input": ["StatefulPartitionedCall/model/conv2d_2/BiasAdd", "StatefulPartitionedCall/model/re_lu_1/Relu"], "attr": {"T": {"type": "DT_FLOAT"}}}, {"name": "StatefulPartitionedCall/model/re_lu_2/Relu", "op": "Relu", "input": ["StatefulPartitionedCall/model/add_1/add"], "attr": {"T": {"type": "DT_FLOAT"}}}, {"name": "StatefulPartitionedCall/model/max_pooling2d/MaxPool", "op": "MaxPool", "input": ["StatefulPartitionedCall/model/re_lu_2/Relu"], "attr": {"ksize": {"list": {"i": ["1", "2", "2", "1"]}}, "padding": {"s": "U0FNRQ=="}, "T": {"type": "DT_FLOAT"}, "strides": {"list": {"i": ["1", "2", "2", "1"]}}, "data_format": {"s": "TkhXQw=="}}}, {"name": "StatefulPartitionedCall/model/depthwise_conv2d_2/depthwise", "op": "DepthwiseConv2dNative", "input": ["StatefulPartitionedCall/model/re_lu_2/Relu", "StatefulPartitionedCall/model/depthwise_conv2d_2/depthwise/ReadVariableOp"], "attr": {"padding": {"s": "U0FNRQ=="}, "dilations": {"list": {"i": ["1", "1", "1", "1"]}}, "T": {"type": "DT_FLOAT"}, "data_format": {"s": "TkhXQw=="}, "strides": {"list": {"i": ["1", "2", "2", "1"]}}}}, {"name": "StatefulPartitionedCall/model/tf_op_layer_Pad/Pad", "op": "Pad", "input": ["StatefulPartitionedCall/model/max_pooling2d/MaxPool", "StatefulPartitionedCall/model/tf_op_layer_Pad/Pad/paddings"], "attr": {"T": {"type": "DT_FLOAT"}, "Tpaddings": {"type": "DT_INT32"}}}, {"name": "StatefulPartitionedCall/model/conv2d_3/BiasAdd", "op": "_FusedConv2D", "input": ["StatefulPartitionedCall/model/depthwise_conv2d_2/depthwise", "StatefulPartitionedCall/model/conv2d_3/Conv2D/ReadVariableOp", "StatefulPartitionedCall/model/conv2d_3/BiasAdd/ReadVariableOp"], "device": "/device:CPU:0", "attr": {"dilations": {"list": {"i": ["1", "1", "1", "1"]}}, "T": {"type": "DT_FLOAT"}, "data_format": {"s": "TkhXQw=="}, "strides": {"list": {"i": ["1", "1", "1", "1"]}}, "use_cudnn_on_gpu": {"b": true}, "explicit_paddings": {"list": {}}, "num_args": {"i": "1"}, "epsilon": {"f": 0.0}, "padding": {"s": "U0FNRQ=="}, "fused_ops": {"list": {"s": ["Qmlhc0FkZA=="]}}}}, {"name": "StatefulPartitionedCall/model/add_2/add", "op": "AddV2", "input": ["StatefulPartitionedCall/model/conv2d_3/BiasAdd", "StatefulPartitionedCall/model/tf_op_layer_Pad/Pad"], "attr": {"T": {"type": "DT_FLOAT"}}}, {"name": "StatefulPartitionedCall/model/re_lu_3/Relu", "op": "Relu", "input": ["StatefulPartitionedCall/model/add_2/add"], "attr": {"T": {"type": "DT_FLOAT"}}}, {"name": "StatefulPartitionedCall/model/depthwise_conv2d_3/depthwise", "op": "DepthwiseConv2dNative", "input": ["StatefulPartitionedCall/model/re_lu_3/Relu", "StatefulPartitionedCall/model/depthwise_conv2d_3/depthwise/ReadVariableOp"], "attr": {"padding": {"s": "U0FNRQ=="}, "dilations": {"list": {"i": ["1", "1", "1", "1"]}}, "T": {"type": "DT_FLOAT"}, "data_format": {"s": "TkhXQw=="}, "strides": {"list": {"i": ["1", "1", "1", "1"]}}}}, {"name": "StatefulPartitionedCall/model/conv2d_4/BiasAdd", "op": "_FusedConv2D", "input": ["StatefulPartitionedCall/model/depthwise_conv2d_3/depthwise", "StatefulPartitionedCall/model/conv2d_4/Conv2D/ReadVariableOp", "StatefulPartitionedCall/model/conv2d_4/BiasAdd/ReadVariableOp"], "device": "/device:CPU:0", "attr": {"dilations": {"list": {"i": ["1", "1", "1", "1"]}}, "T": {"type": "DT_FLOAT"}, "data_format": {"s": "TkhXQw=="}, "strides": {"list": {"i": ["1", "1", "1", "1"]}}, "use_cudnn_on_gpu": {"b": true}, "explicit_paddings": {"list": {}}, "num_args": {"i": "1"}, "epsilon": {"f": 0.0}, "padding": {"s": "U0FNRQ=="}, "fused_ops": {"list": {"s": ["Qmlhc0FkZA=="]}}}}, {"name": "StatefulPartitionedCall/model/add_3/add", "op": "AddV2", "input": ["StatefulPartitionedCall/model/conv2d_4/BiasAdd", "StatefulPartitionedCall/model/re_lu_3/Relu"], "attr": {"T": {"type": "DT_FLOAT"}}}, {"name": "StatefulPartitionedCall/model/re_lu_4/Relu", "op": "Relu", "input": ["StatefulPartitionedCall/model/add_3/add"], "attr": {"T": {"type": "DT_FLOAT"}}}, {"name": "StatefulPartitionedCall/model/depthwise_conv2d_4/depthwise", "op": "DepthwiseConv2dNative", "input": ["StatefulPartitionedCall/model/re_lu_4/Relu", "StatefulPartitionedCall/model/depthwise_conv2d_4/depthwise/ReadVariableOp"], "attr": {"padding": {"s": "U0FNRQ=="}, "dilations": {"list": {"i": ["1", "1", "1", "1"]}}, "T": {"type": "DT_FLOAT"}, "data_format": {"s": "TkhXQw=="}, "strides": {"list": {"i": ["1", "1", "1", "1"]}}}}, {"name": "StatefulPartitionedCall/model/conv2d_5/BiasAdd", "op": "_FusedConv2D", "input": ["StatefulPartitionedCall/model/depthwise_conv2d_4/depthwise", "StatefulPartitionedCall/model/conv2d_5/Conv2D/ReadVariableOp", "StatefulPartitionedCall/model/conv2d_5/BiasAdd/ReadVariableOp"], "device": "/device:CPU:0", "attr": {"dilations": {"list": {"i": ["1", "1", "1", "1"]}}, "T": {"type": "DT_FLOAT"}, "data_format": {"s": "TkhXQw=="}, "strides": {"list": {"i": ["1", "1", "1", "1"]}}, "use_cudnn_on_gpu": {"b": true}, "explicit_paddings": {"list": {}}, "num_args": {"i": "1"}, "epsilon": {"f": 0.0}, "padding": {"s": "U0FNRQ=="}, "fused_ops": {"list": {"s": ["Qmlhc0FkZA=="]}}}}, {"name": "StatefulPartitionedCall/model/add_4/add", "op": "AddV2", "input": ["StatefulPartitionedCall/model/conv2d_5/BiasAdd", "StatefulPartitionedCall/model/re_lu_4/Relu"], "attr": {"T": {"type": "DT_FLOAT"}}}, {"name": "StatefulPartitionedCall/model/re_lu_5/Relu", "op": "Relu", "input": ["StatefulPartitionedCall/model/add_4/add"], "attr": {"T": {"type": "DT_FLOAT"}}}, {"name": "StatefulPartitionedCall/model/max_pooling2d_1/MaxPool", "op": "MaxPool", "input": ["StatefulPartitionedCall/model/re_lu_5/Relu"], "attr": {"ksize": {"list": {"i": ["1", "2", "2", "1"]}}, "padding": {"s": "U0FNRQ=="}, "T": {"type": "DT_FLOAT"}, "strides": {"list": {"i": ["1", "2", "2", "1"]}}, "data_format": {"s": "TkhXQw=="}}}, {"name": "StatefulPartitionedCall/model/depthwise_conv2d_5/depthwise", "op": "DepthwiseConv2dNative", "input": ["StatefulPartitionedCall/model/re_lu_5/Relu", "StatefulPartitionedCall/model/depthwise_conv2d_5/depthwise/ReadVariableOp"], "attr": {"padding": {"s": "U0FNRQ=="}, "dilations": {"list": {"i": ["1", "1", "1", "1"]}}, "T": {"type": "DT_FLOAT"}, "data_format": {"s": "TkhXQw=="}, "strides": {"list": {"i": ["1", "2", "2", "1"]}}}}, {"name": "StatefulPartitionedCall/model/tf_op_layer_Pad_1/Pad_1", "op": "Pad", "input": ["StatefulPartitionedCall/model/max_pooling2d_1/MaxPool", "StatefulPartitionedCall/model/tf_op_layer_Pad_1/Pad_1/paddings"], "attr": {"T": {"type": "DT_FLOAT"}, "Tpaddings": {"type": "DT_INT32"}}}, {"name": "StatefulPartitionedCall/model/conv2d_6/BiasAdd", "op": "_FusedConv2D", "input": ["StatefulPartitionedCall/model/depthwise_conv2d_5/depthwise", "StatefulPartitionedCall/model/conv2d_6/Conv2D/ReadVariableOp", "StatefulPartitionedCall/model/conv2d_6/BiasAdd/ReadVariableOp"], "device": "/device:CPU:0", "attr": {"dilations": {"list": {"i": ["1", "1", "1", "1"]}}, "T": {"type": "DT_FLOAT"}, "data_format": {"s": "TkhXQw=="}, "strides": {"list": {"i": ["1", "1", "1", "1"]}}, "use_cudnn_on_gpu": {"b": true}, "explicit_paddings": {"list": {}}, "num_args": {"i": "1"}, "epsilon": {"f": 0.0}, "padding": {"s": "U0FNRQ=="}, "fused_ops": {"list": {"s": ["Qmlhc0FkZA=="]}}}}, {"name": "StatefulPartitionedCall/model/add_5/add", "op": "AddV2", "input": ["StatefulPartitionedCall/model/conv2d_6/BiasAdd", "StatefulPartitionedCall/model/tf_op_layer_Pad_1/Pad_1"], "attr": {"T": {"type": "DT_FLOAT"}}}, {"name": "StatefulPartitionedCall/model/re_lu_6/Relu", "op": "Relu", "input": ["StatefulPartitionedCall/model/add_5/add"], "attr": {"T": {"type": "DT_FLOAT"}}}, {"name": "StatefulPartitionedCall/model/depthwise_conv2d_6/depthwise", "op": "DepthwiseConv2dNative", "input": ["StatefulPartitionedCall/model/re_lu_6/Relu", "StatefulPartitionedCall/model/depthwise_conv2d_6/depthwise/ReadVariableOp"], "attr": {"padding": {"s": "U0FNRQ=="}, "dilations": {"list": {"i": ["1", "1", "1", "1"]}}, "T": {"type": "DT_FLOAT"}, "data_format": {"s": "TkhXQw=="}, "strides": {"list": {"i": ["1", "1", "1", "1"]}}}}, {"name": "StatefulPartitionedCall/model/conv2d_7/BiasAdd", "op": "_FusedConv2D", "input": ["StatefulPartitionedCall/model/depthwise_conv2d_6/depthwise", "StatefulPartitionedCall/model/conv2d_7/Conv2D/ReadVariableOp", "StatefulPartitionedCall/model/conv2d_7/BiasAdd/ReadVariableOp"], "device": "/device:CPU:0", "attr": {"dilations": {"list": {"i": ["1", "1", "1", "1"]}}, "T": {"type": "DT_FLOAT"}, "data_format": {"s": "TkhXQw=="}, "strides": {"list": {"i": ["1", "1", "1", "1"]}}, "use_cudnn_on_gpu": {"b": true}, "explicit_paddings": {"list": {}}, "num_args": {"i": "1"}, "epsilon": {"f": 0.0}, "padding": {"s": "U0FNRQ=="}, "fused_ops": {"list": {"s": ["Qmlhc0FkZA=="]}}}}, {"name": "StatefulPartitionedCall/model/add_6/add", "op": "AddV2", "input": ["StatefulPartitionedCall/model/conv2d_7/BiasAdd", "StatefulPartitionedCall/model/re_lu_6/Relu"], "attr": {"T": {"type": "DT_FLOAT"}}}, {"name": "StatefulPartitionedCall/model/re_lu_7/Relu", "op": "Relu", "input": ["StatefulPartitionedCall/model/add_6/add"], "attr": {"T": {"type": "DT_FLOAT"}}}, {"name": "StatefulPartitionedCall/model/depthwise_conv2d_7/depthwise", "op": "DepthwiseConv2dNative", "input": ["StatefulPartitionedCall/model/re_lu_7/Relu", "StatefulPartitionedCall/model/depthwise_conv2d_7/depthwise/ReadVariableOp"], "attr": {"padding": {"s": "U0FNRQ=="}, "dilations": {"list": {"i": ["1", "1", "1", "1"]}}, "T": {"type": "DT_FLOAT"}, "data_format": {"s": "TkhXQw=="}, "strides": {"list": {"i": ["1", "1", "1", "1"]}}}}, {"name": "StatefulPartitionedCall/model/conv2d_8/BiasAdd", "op": "_FusedConv2D", "input": ["StatefulPartitionedCall/model/depthwise_conv2d_7/depthwise", "StatefulPartitionedCall/model/conv2d_8/Conv2D/ReadVariableOp", "StatefulPartitionedCall/model/conv2d_8/BiasAdd/ReadVariableOp"], "device": "/device:CPU:0", "attr": {"dilations": {"list": {"i": ["1", "1", "1", "1"]}}, "T": {"type": "DT_FLOAT"}, "data_format": {"s": "TkhXQw=="}, "strides": {"list": {"i": ["1", "1", "1", "1"]}}, "use_cudnn_on_gpu": {"b": true}, "explicit_paddings": {"list": {}}, "num_args": {"i": "1"}, "epsilon": {"f": 0.0}, "padding": {"s": "U0FNRQ=="}, "fused_ops": {"list": {"s": ["Qmlhc0FkZA=="]}}}}, {"name": "StatefulPartitionedCall/model/add_7/add", "op": "AddV2", "input": ["StatefulPartitionedCall/model/conv2d_8/BiasAdd", "StatefulPartitionedCall/model/re_lu_7/Relu"], "attr": {"T": {"type": "DT_FLOAT"}}}, {"name": "StatefulPartitionedCall/model/re_lu_8/Relu", "op": "Relu", "input": ["StatefulPartitionedCall/model/add_7/add"], "attr": {"T": {"type": "DT_FLOAT"}}}, {"name": "StatefulPartitionedCall/model/max_pooling2d_2/MaxPool", "op": "MaxPool", "input": ["StatefulPartitionedCall/model/re_lu_8/Relu"], "attr": {"ksize": {"list": {"i": ["1", "2", "2", "1"]}}, "padding": {"s": "U0FNRQ=="}, "T": {"type": "DT_FLOAT"}, "strides": {"list": {"i": ["1", "2", "2", "1"]}}, "data_format": {"s": "TkhXQw=="}}}, {"name": "StatefulPartitionedCall/model/depthwise_conv2d_8/depthwise", "op": "DepthwiseConv2dNative", "input": ["StatefulPartitionedCall/model/re_lu_8/Relu", "StatefulPartitionedCall/model/depthwise_conv2d_8/depthwise/ReadVariableOp"], "attr": {"padding": {"s": "U0FNRQ=="}, "dilations": {"list": {"i": ["1", "1", "1", "1"]}}, "T": {"type": "DT_FLOAT"}, "data_format": {"s": "TkhXQw=="}, "strides": {"list": {"i": ["1", "2", "2", "1"]}}}}, {"name": "StatefulPartitionedCall/model/conv2d_9/BiasAdd", "op": "_FusedConv2D", "input": ["StatefulPartitionedCall/model/depthwise_conv2d_8/depthwise", "StatefulPartitionedCall/model/conv2d_9/Conv2D/ReadVariableOp", "StatefulPartitionedCall/model/conv2d_9/BiasAdd/ReadVariableOp"], "device": "/device:CPU:0", "attr": {"dilations": {"list": {"i": ["1", "1", "1", "1"]}}, "T": {"type": "DT_FLOAT"}, "data_format": {"s": "TkhXQw=="}, "strides": {"list": {"i": ["1", "1", "1", "1"]}}, "use_cudnn_on_gpu": {"b": true}, "explicit_paddings": {"list": {}}, "num_args": {"i": "1"}, "epsilon": {"f": 0.0}, "padding": {"s": "U0FNRQ=="}, "fused_ops": {"list": {"s": ["Qmlhc0FkZA=="]}}}}, {"name": "StatefulPartitionedCall/model/add_8/add", "op": "AddV2", "input": ["StatefulPartitionedCall/model/conv2d_9/BiasAdd", "StatefulPartitionedCall/model/max_pooling2d_2/MaxPool"], "attr": {"T": {"type": "DT_FLOAT"}}}, {"name": "StatefulPartitionedCall/model/re_lu_9/Relu", "op": "Relu", "input": ["StatefulPartitionedCall/model/add_8/add"], "attr": {"T": {"type": "DT_FLOAT"}}}, {"name": "StatefulPartitionedCall/model/depthwise_conv2d_9/depthwise", "op": "DepthwiseConv2dNative", "input": ["StatefulPartitionedCall/model/re_lu_9/Relu", "StatefulPartitionedCall/model/depthwise_conv2d_9/depthwise/ReadVariableOp"], "attr": {"padding": {"s": "U0FNRQ=="}, "dilations": {"list": {"i": ["1", "1", "1", "1"]}}, "T": {"type": "DT_FLOAT"}, "data_format": {"s": "TkhXQw=="}, "strides": {"list": {"i": ["1", "1", "1", "1"]}}}}, {"name": "StatefulPartitionedCall/model/conv2d_10/BiasAdd", "op": "_FusedConv2D", "input": ["StatefulPartitionedCall/model/depthwise_conv2d_9/depthwise", "StatefulPartitionedCall/model/conv2d_10/Conv2D/ReadVariableOp", "StatefulPartitionedCall/model/conv2d_10/BiasAdd/ReadVariableOp"], "device": "/device:CPU:0", "attr": {"dilations": {"list": {"i": ["1", "1", "1", "1"]}}, "T": {"type": "DT_FLOAT"}, "data_format": {"s": "TkhXQw=="}, "strides": {"list": {"i": ["1", "1", "1", "1"]}}, "use_cudnn_on_gpu": {"b": true}, "explicit_paddings": {"list": {}}, "num_args": {"i": "1"}, "epsilon": {"f": 0.0}, "padding": {"s": "U0FNRQ=="}, "fused_ops": {"list": {"s": ["Qmlhc0FkZA=="]}}}}, {"name": "StatefulPartitionedCall/model/add_9/add", "op": "AddV2", "input": ["StatefulPartitionedCall/model/conv2d_10/BiasAdd", "StatefulPartitionedCall/model/re_lu_9/Relu"], "attr": {"T": {"type": "DT_FLOAT"}}}, {"name": "StatefulPartitionedCall/model/re_lu_10/Relu", "op": "Relu", "input": ["StatefulPartitionedCall/model/add_9/add"], "attr": {"T": {"type": "DT_FLOAT"}}}, {"name": "StatefulPartitionedCall/model/depthwise_conv2d_10/depthwise", "op": "DepthwiseConv2dNative", "input": ["StatefulPartitionedCall/model/re_lu_10/Relu", "StatefulPartitionedCall/model/depthwise_conv2d_10/depthwise/ReadVariableOp"], "attr": {"padding": {"s": "U0FNRQ=="}, "dilations": {"list": {"i": ["1", "1", "1", "1"]}}, "T": {"type": "DT_FLOAT"}, "data_format": {"s": "TkhXQw=="}, "strides": {"list": {"i": ["1", "1", "1", "1"]}}}}, {"name": "StatefulPartitionedCall/model/conv2d_11/BiasAdd", "op": "_FusedConv2D", "input": ["StatefulPartitionedCall/model/depthwise_conv2d_10/depthwise", "StatefulPartitionedCall/model/conv2d_11/Conv2D/ReadVariableOp", "StatefulPartitionedCall/model/conv2d_11/BiasAdd/ReadVariableOp"], "device": "/device:CPU:0", "attr": {"dilations": {"list": {"i": ["1", "1", "1", "1"]}}, "T": {"type": "DT_FLOAT"}, "data_format": {"s": "TkhXQw=="}, "strides": {"list": {"i": ["1", "1", "1", "1"]}}, "use_cudnn_on_gpu": {"b": true}, "explicit_paddings": {"list": {}}, "num_args": {"i": "1"}, "epsilon": {"f": 0.0}, "padding": {"s": "U0FNRQ=="}, "fused_ops": {"list": {"s": ["Qmlhc0FkZA=="]}}}}, {"name": "StatefulPartitionedCall/model/add_10/add", "op": "AddV2", "input": ["StatefulPartitionedCall/model/conv2d_11/BiasAdd", "StatefulPartitionedCall/model/re_lu_10/Relu"], "attr": {"T": {"type": "DT_FLOAT"}}}, {"name": "StatefulPartitionedCall/model/re_lu_11/Relu", "op": "Relu", "input": ["StatefulPartitionedCall/model/add_10/add"], "attr": {"T": {"type": "DT_FLOAT"}}}, {"name": "StatefulPartitionedCall/model/depthwise_conv2d_11/depthwise", "op": "DepthwiseConv2dNative", "input": ["StatefulPartitionedCall/model/re_lu_11/Relu", "StatefulPartitionedCall/model/depthwise_conv2d_11/depthwise/ReadVariableOp"], "attr": {"padding": {"s": "U0FNRQ=="}, "dilations": {"list": {"i": ["1", "1", "1", "1"]}}, "T": {"type": "DT_FLOAT"}, "data_format": {"s": "TkhXQw=="}, "strides": {"list": {"i": ["1", "2", "2", "1"]}}}}, {"name": "StatefulPartitionedCall/model/max_pooling2d_3/MaxPool", "op": "MaxPool", "input": ["StatefulPartitionedCall/model/re_lu_11/Relu"], "attr": {"ksize": {"list": {"i": ["1", "2", "2", "1"]}}, "padding": {"s": "U0FNRQ=="}, "T": {"type": "DT_FLOAT"}, "strides": {"list": {"i": ["1", "2", "2", "1"]}}, "data_format": {"s": "TkhXQw=="}}}, {"name": "StatefulPartitionedCall/model/conv2d_12/BiasAdd", "op": "_FusedConv2D", "input": ["StatefulPartitionedCall/model/depthwise_conv2d_11/depthwise", "StatefulPartitionedCall/model/conv2d_12/Conv2D/ReadVariableOp", "StatefulPartitionedCall/model/conv2d_12/BiasAdd/ReadVariableOp"], "device": "/device:CPU:0", "attr": {"dilations": {"list": {"i": ["1", "1", "1", "1"]}}, "T": {"type": "DT_FLOAT"}, "data_format": {"s": "TkhXQw=="}, "strides": {"list": {"i": ["1", "1", "1", "1"]}}, "use_cudnn_on_gpu": {"b": true}, "explicit_paddings": {"list": {}}, "num_args": {"i": "1"}, "epsilon": {"f": 0.0}, "padding": {"s": "U0FNRQ=="}, "fused_ops": {"list": {"s": ["Qmlhc0FkZA=="]}}}}, {"name": "StatefulPartitionedCall/model/add_11/add", "op": "AddV2", "input": ["StatefulPartitionedCall/model/conv2d_12/BiasAdd", "StatefulPartitionedCall/model/max_pooling2d_3/MaxPool"], "attr": {"T": {"type": "DT_FLOAT"}}}, {"name": "StatefulPartitionedCall/model/re_lu_12/Relu", "op": "Relu", "input": ["StatefulPartitionedCall/model/add_11/add"], "attr": {"T": {"type": "DT_FLOAT"}}}, {"name": "StatefulPartitionedCall/model/tf_op_layer_resize/ResizeBilinear/resize/ResizeBilinear", "op": "ResizeBilinear", "input": ["StatefulPartitionedCall/model/re_lu_12/Relu", "StatefulPartitionedCall/model/tf_op_layer_resize/ResizeBilinear/resize/ResizeBilinear/size"], "attr": {"align_corners": {"b": false}, "half_pixel_centers": {"b": true}, "T": {"type": "DT_FLOAT"}}}, {"name": "StatefulPartitionedCall/model/add_12/add", "op": "AddV2", "input": ["StatefulPartitionedCall/model/re_lu_9/Relu", "StatefulPartitionedCall/model/tf_op_layer_resize/ResizeBilinear/resize/ResizeBilinear"], "attr": {"T": {"type": "DT_FLOAT"}}}, {"name": "StatefulPartitionedCall/model/depthwise_conv2d_12/depthwise", "op": "DepthwiseConv2dNative", "input": ["StatefulPartitionedCall/model/add_12/add", "StatefulPartitionedCall/model/depthwise_conv2d_12/depthwise/ReadVariableOp"], "attr": {"padding": {"s": "U0FNRQ=="}, "dilations": {"list": {"i": ["1", "1", "1", "1"]}}, "T": {"type": "DT_FLOAT"}, "data_format": {"s": "TkhXQw=="}, "strides": {"list": {"i": ["1", "1", "1", "1"]}}}}, {"name": "StatefulPartitionedCall/model/conv2d_13/BiasAdd", "op": "_FusedConv2D", "input": ["StatefulPartitionedCall/model/depthwise_conv2d_12/depthwise", "StatefulPartitionedCall/model/conv2d_13/Conv2D/ReadVariableOp", "StatefulPartitionedCall/model/conv2d_13/BiasAdd/ReadVariableOp"], "device": "/device:CPU:0", "attr": {"dilations": {"list": {"i": ["1", "1", "1", "1"]}}, "T": {"type": "DT_FLOAT"}, "data_format": {"s": "TkhXQw=="}, "strides": {"list": {"i": ["1", "1", "1", "1"]}}, "use_cudnn_on_gpu": {"b": true}, "explicit_paddings": {"list": {}}, "num_args": {"i": "1"}, "epsilon": {"f": 0.0}, "padding": {"s": "U0FNRQ=="}, "fused_ops": {"list": {"s": ["Qmlhc0FkZA=="]}}}}, {"name": "StatefulPartitionedCall/model/add_13/add", "op": "AddV2", "input": ["StatefulPartitionedCall/model/add_12/add", "StatefulPartitionedCall/model/conv2d_13/BiasAdd"], "attr": {"T": {"type": "DT_FLOAT"}}}, {"name": "StatefulPartitionedCall/model/re_lu_13/Relu", "op": "Relu", "input": ["StatefulPartitionedCall/model/add_13/add"], "attr": {"T": {"type": "DT_FLOAT"}}}, {"name": "StatefulPartitionedCall/model/tf_op_layer_resize_1/ResizeBilinear/resize_1/ResizeBilinear", "op": "ResizeBilinear", "input": ["StatefulPartitionedCall/model/re_lu_13/Relu", "StatefulPartitionedCall/model/tf_op_layer_resize_1/ResizeBilinear/resize_1/ResizeBilinear/size"], "attr": {"align_corners": {"b": false}, "half_pixel_centers": {"b": true}, "T": {"type": "DT_FLOAT"}}}, {"name": "StatefulPartitionedCall/model/add_14/add", "op": "AddV2", "input": ["StatefulPartitionedCall/model/re_lu_6/Relu", "StatefulPartitionedCall/model/tf_op_layer_resize_1/ResizeBilinear/resize_1/ResizeBilinear"], "attr": {"T": {"type": "DT_FLOAT"}}}, {"name": "StatefulPartitionedCall/model/depthwise_conv2d_13/depthwise", "op": "DepthwiseConv2dNative", "input": ["StatefulPartitionedCall/model/add_14/add", "StatefulPartitionedCall/model/depthwise_conv2d_13/depthwise/ReadVariableOp"], "attr": {"padding": {"s": "U0FNRQ=="}, "dilations": {"list": {"i": ["1", "1", "1", "1"]}}, "T": {"type": "DT_FLOAT"}, "data_format": {"s": "TkhXQw=="}, "strides": {"list": {"i": ["1", "1", "1", "1"]}}}}, {"name": "StatefulPartitionedCall/model/conv2d_14/BiasAdd", "op": "_FusedConv2D", "input": ["StatefulPartitionedCall/model/depthwise_conv2d_13/depthwise", "StatefulPartitionedCall/model/conv2d_14/Conv2D/ReadVariableOp", "StatefulPartitionedCall/model/conv2d_14/BiasAdd/ReadVariableOp"], "device": "/device:CPU:0", "attr": {"dilations": {"list": {"i": ["1", "1", "1", "1"]}}, "T": {"type": "DT_FLOAT"}, "data_format": {"s": "TkhXQw=="}, "strides": {"list": {"i": ["1", "1", "1", "1"]}}, "use_cudnn_on_gpu": {"b": true}, "explicit_paddings": {"list": {}}, "num_args": {"i": "1"}, "epsilon": {"f": 0.0}, "padding": {"s": "U0FNRQ=="}, "fused_ops": {"list": {"s": ["Qmlhc0FkZA=="]}}}}, {"name": "StatefulPartitionedCall/model/add_15/add", "op": "AddV2", "input": ["StatefulPartitionedCall/model/add_14/add", "StatefulPartitionedCall/model/conv2d_14/BiasAdd"], "attr": {"T": {"type": "DT_FLOAT"}}}, {"name": "StatefulPartitionedCall/model/re_lu_14/Relu", "op": "Relu", "input": ["StatefulPartitionedCall/model/add_15/add"], "attr": {"T": {"type": "DT_FLOAT"}}}, {"name": "StatefulPartitionedCall/model/conv2d_15/BiasAdd", "op": "_FusedConv2D", "input": ["StatefulPartitionedCall/model/re_lu_14/Relu", "StatefulPartitionedCall/model/conv2d_15/Conv2D/ReadVariableOp", "StatefulPartitionedCall/model/conv2d_15/BiasAdd/ReadVariableOp"], "device": "/device:CPU:0", "attr": {"dilations": {"list": {"i": ["1", "1", "1", "1"]}}, "T": {"type": "DT_FLOAT"}, "data_format": {"s": "TkhXQw=="}, "strides": {"list": {"i": ["1", "1", "1", "1"]}}, "use_cudnn_on_gpu": {"b": true}, "explicit_paddings": {"list": {}}, "num_args": {"i": "1"}, "epsilon": {"f": 0.0}, "padding": {"s": "U0FNRQ=="}, "fused_ops": {"list": {"s": ["Qmlhc0FkZA=="]}}}}, {"name": "StatefulPartitionedCall/model/tf_op_layer_resize_2/ResizeBilinear/resize_2/ResizeBilinear", "op": "ResizeBilinear", "input": ["StatefulPartitionedCall/model/conv2d_15/BiasAdd", "StatefulPartitionedCall/model/tf_op_layer_resize_2/ResizeBilinear/resize_2/ResizeBilinear/size"], "attr": {"align_corners": {"b": false}, "half_pixel_centers": {"b": true}, "T": {"type": "DT_FLOAT"}}}, {"name": "StatefulPartitionedCall/model/add_16/add", "op": "AddV2", "input": ["StatefulPartitionedCall/model/re_lu_3/Relu", "StatefulPartitionedCall/model/tf_op_layer_resize_2/ResizeBilinear/resize_2/ResizeBilinear"], "attr": {"T": {"type": "DT_FLOAT"}}}, {"name": "StatefulPartitionedCall/model/depthwise_conv2d_14/depthwise", "op": "DepthwiseConv2dNative", "input": ["StatefulPartitionedCall/model/add_16/add", "StatefulPartitionedCall/model/depthwise_conv2d_14/depthwise/ReadVariableOp"], "attr": {"padding": {"s": "U0FNRQ=="}, "dilations": {"list": {"i": ["1", "1", "1", "1"]}}, "T": {"type": "DT_FLOAT"}, "data_format": {"s": "TkhXQw=="}, "strides": {"list": {"i": ["1", "1", "1", "1"]}}}}, {"name": "StatefulPartitionedCall/model/conv2d_16/BiasAdd", "op": "_FusedConv2D", "input": ["StatefulPartitionedCall/model/depthwise_conv2d_14/depthwise", "StatefulPartitionedCall/model/conv2d_16/Conv2D/ReadVariableOp", "StatefulPartitionedCall/model/conv2d_16/BiasAdd/ReadVariableOp"], "device": "/device:CPU:0", "attr": {"dilations": {"list": {"i": ["1", "1", "1", "1"]}}, "T": {"type": "DT_FLOAT"}, "data_format": {"s": "TkhXQw=="}, "strides": {"list": {"i": ["1", "1", "1", "1"]}}, "use_cudnn_on_gpu": {"b": true}, "explicit_paddings": {"list": {}}, "num_args": {"i": "1"}, "epsilon": {"f": 0.0}, "padding": {"s": "U0FNRQ=="}, "fused_ops": {"list": {"s": ["Qmlhc0FkZA=="]}}}}, {"name": "StatefulPartitionedCall/model/add_17/add", "op": "AddV2", "input": ["StatefulPartitionedCall/model/add_16/add", "StatefulPartitionedCall/model/conv2d_16/BiasAdd"], "attr": {"T": {"type": "DT_FLOAT"}}}, {"name": "StatefulPartitionedCall/model/re_lu_15/Relu", "op": "Relu", "input": ["StatefulPartitionedCall/model/add_17/add"], "attr": {"T": {"type": "DT_FLOAT"}}}, {"name": "StatefulPartitionedCall/model/depthwise_conv2d_15/depthwise", "op": "DepthwiseConv2dNative", "input": ["StatefulPartitionedCall/model/re_lu_15/Relu", "StatefulPartitionedCall/model/depthwise_conv2d_15/depthwise/ReadVariableOp"], "attr": {"padding": {"s": "U0FNRQ=="}, "dilations": {"list": {"i": ["1", "1", "1", "1"]}}, "T": {"type": "DT_FLOAT"}, "data_format": {"s": "TkhXQw=="}, "strides": {"list": {"i": ["1", "1", "1", "1"]}}}}, {"name": "StatefulPartitionedCall/model/conv2d_17/BiasAdd", "op": "_FusedConv2D", "input": ["StatefulPartitionedCall/model/depthwise_conv2d_15/depthwise", "StatefulPartitionedCall/model/conv2d_17/Conv2D/ReadVariableOp", "StatefulPartitionedCall/model/conv2d_17/BiasAdd/ReadVariableOp"], "device": "/device:CPU:0", "attr": {"dilations": {"list": {"i": ["1", "1", "1", "1"]}}, "T": {"type": "DT_FLOAT"}, "data_format": {"s": "TkhXQw=="}, "strides": {"list": {"i": ["1", "1", "1", "1"]}}, "use_cudnn_on_gpu": {"b": true}, "explicit_paddings": {"list": {}}, "num_args": {"i": "1"}, "epsilon": {"f": 0.0}, "padding": {"s": "U0FNRQ=="}, "fused_ops": {"list": {"s": ["Qmlhc0FkZA=="]}}}}, {"name": "StatefulPartitionedCall/model/add_18/add", "op": "AddV2", "input": ["StatefulPartitionedCall/model/conv2d_17/BiasAdd", "StatefulPartitionedCall/model/re_lu_15/Relu"], "attr": {"T": {"type": "DT_FLOAT"}}}, {"name": "StatefulPartitionedCall/model/re_lu_16/Relu", "op": "Relu", "input": ["StatefulPartitionedCall/model/add_18/add"], "attr": {"T": {"type": "DT_FLOAT"}}}, {"name": "StatefulPartitionedCall/model/depthwise_conv2d_16/depthwise", "op": "DepthwiseConv2dNative", "input": ["StatefulPartitionedCall/model/re_lu_16/Relu", "StatefulPartitionedCall/model/depthwise_conv2d_16/depthwise/ReadVariableOp"], "attr": {"padding": {"s": "U0FNRQ=="}, "dilations": {"list": {"i": ["1", "1", "1", "1"]}}, "T": {"type": "DT_FLOAT"}, "data_format": {"s": "TkhXQw=="}, "strides": {"list": {"i": ["1", "1", "1", "1"]}}}}, {"name": "StatefulPartitionedCall/model/conv2d_18/BiasAdd", "op": "_FusedConv2D", "input": ["StatefulPartitionedCall/model/depthwise_conv2d_16/depthwise", "StatefulPartitionedCall/model/conv2d_18/Conv2D/ReadVariableOp", "StatefulPartitionedCall/model/conv2d_18/BiasAdd/ReadVariableOp"], "device": "/device:CPU:0", "attr": {"dilations": {"list": {"i": ["1", "1", "1", "1"]}}, "T": {"type": "DT_FLOAT"}, "data_format": {"s": "TkhXQw=="}, "strides": {"list": {"i": ["1", "1", "1", "1"]}}, "use_cudnn_on_gpu": {"b": true}, "explicit_paddings": {"list": {}}, "num_args": {"i": "1"}, "epsilon": {"f": 0.0}, "padding": {"s": "U0FNRQ=="}, "fused_ops": {"list": {"s": ["Qmlhc0FkZA=="]}}}}, {"name": "StatefulPartitionedCall/model/add_19/add", "op": "AddV2", "input": ["StatefulPartitionedCall/model/conv2d_18/BiasAdd", "StatefulPartitionedCall/model/re_lu_16/Relu"], "attr": {"T": {"type": "DT_FLOAT"}}}, {"name": "StatefulPartitionedCall/model/re_lu_17/Relu", "op": "Relu", "input": ["StatefulPartitionedCall/model/add_19/add"], "attr": {"T": {"type": "DT_FLOAT"}}}, {"name": "StatefulPartitionedCall/model/depthwise_conv2d_17/depthwise", "op": "DepthwiseConv2dNative", "input": ["StatefulPartitionedCall/model/re_lu_17/Relu", "StatefulPartitionedCall/model/depthwise_conv2d_17/depthwise/ReadVariableOp"], "attr": {"padding": {"s": "U0FNRQ=="}, "dilations": {"list": {"i": ["1", "1", "1", "1"]}}, "T": {"type": "DT_FLOAT"}, "data_format": {"s": "TkhXQw=="}, "strides": {"list": {"i": ["1", "1", "1", "1"]}}}}, {"name": "StatefulPartitionedCall/model/conv2d_19/BiasAdd", "op": "_FusedConv2D", "input": ["StatefulPartitionedCall/model/depthwise_conv2d_17/depthwise", "StatefulPartitionedCall/model/conv2d_19/Conv2D/ReadVariableOp", "StatefulPartitionedCall/model/conv2d_19/BiasAdd/ReadVariableOp"], "device": "/device:CPU:0", "attr": {"dilations": {"list": {"i": ["1", "1", "1", "1"]}}, "T": {"type": "DT_FLOAT"}, "data_format": {"s": "TkhXQw=="}, "strides": {"list": {"i": ["1", "1", "1", "1"]}}, "use_cudnn_on_gpu": {"b": true}, "explicit_paddings": {"list": {}}, "num_args": {"i": "1"}, "epsilon": {"f": 0.0}, "padding": {"s": "U0FNRQ=="}, "fused_ops": {"list": {"s": ["Qmlhc0FkZA=="]}}}}, {"name": "StatefulPartitionedCall/model/add_20/add", "op": "AddV2", "input": ["StatefulPartitionedCall/model/conv2d_19/BiasAdd", "StatefulPartitionedCall/model/re_lu_17/Relu"], "attr": {"T": {"type": "DT_FLOAT"}}}, {"name": "StatefulPartitionedCall/model/re_lu_18/Relu", "op": "Relu", "input": ["StatefulPartitionedCall/model/add_20/add"], "attr": {"T": {"type": "DT_FLOAT"}}}, {"name": "StatefulPartitionedCall/model/depthwise_conv2d_18/depthwise", "op": "DepthwiseConv2dNative", "input": ["StatefulPartitionedCall/model/re_lu_18/Relu", "StatefulPartitionedCall/model/depthwise_conv2d_18/depthwise/ReadVariableOp"], "attr": {"padding": {"s": "U0FNRQ=="}, "dilations": {"list": {"i": ["1", "1", "1", "1"]}}, "T": {"type": "DT_FLOAT"}, "data_format": {"s": "TkhXQw=="}, "strides": {"list": {"i": ["1", "2", "2", "1"]}}}}, {"name": "StatefulPartitionedCall/model/max_pooling2d_4/MaxPool", "op": "MaxPool", "input": ["StatefulPartitionedCall/model/re_lu_18/Relu"], "attr": {"ksize": {"list": {"i": ["1", "2", "2", "1"]}}, "padding": {"s": "U0FNRQ=="}, "T": {"type": "DT_FLOAT"}, "strides": {"list": {"i": ["1", "2", "2", "1"]}}, "data_format": {"s": "TkhXQw=="}}}, {"name": "StatefulPartitionedCall/model/conv2d_20/BiasAdd", "op": "_FusedConv2D", "input": ["StatefulPartitionedCall/model/depthwise_conv2d_18/depthwise", "StatefulPartitionedCall/model/conv2d_20/Conv2D/ReadVariableOp", "StatefulPartitionedCall/model/conv2d_20/BiasAdd/ReadVariableOp"], "device": "/device:CPU:0", "attr": {"dilations": {"list": {"i": ["1", "1", "1", "1"]}}, "T": {"type": "DT_FLOAT"}, "data_format": {"s": "TkhXQw=="}, "strides": {"list": {"i": ["1", "1", "1", "1"]}}, "use_cudnn_on_gpu": {"b": true}, "explicit_paddings": {"list": {}}, "num_args": {"i": "1"}, "epsilon": {"f": 0.0}, "padding": {"s": "U0FNRQ=="}, "fused_ops": {"list": {"s": ["Qmlhc0FkZA=="]}}}}, {"name": "StatefulPartitionedCall/model/tf_op_layer_Pad_2/Pad_2", "op": "Pad", "input": ["StatefulPartitionedCall/model/max_pooling2d_4/MaxPool", "StatefulPartitionedCall/model/tf_op_layer_Pad_1/Pad_1/paddings"], "attr": {"T": {"type": "DT_FLOAT"}, "Tpaddings": {"type": "DT_INT32"}}}, {"name": "StatefulPartitionedCall/model/add_21/add", "op": "AddV2", "input": ["StatefulPartitionedCall/model/conv2d_20/BiasAdd", "StatefulPartitionedCall/model/tf_op_layer_Pad_2/Pad_2"], "attr": {"T": {"type": "DT_FLOAT"}}}, {"name": "StatefulPartitionedCall/model/re_lu_19/Relu", "op": "Relu", "input": ["StatefulPartitionedCall/model/add_21/add"], "attr": {"T": {"type": "DT_FLOAT"}}}, {"name": "StatefulPartitionedCall/model/depthwise_conv2d_19/depthwise", "op": "DepthwiseConv2dNative", "input": ["StatefulPartitionedCall/model/re_lu_19/Relu", "StatefulPartitionedCall/model/depthwise_conv2d_19/depthwise/ReadVariableOp"], "attr": {"padding": {"s": "U0FNRQ=="}, "dilations": {"list": {"i": ["1", "1", "1", "1"]}}, "T": {"type": "DT_FLOAT"}, "data_format": {"s": "TkhXQw=="}, "strides": {"list": {"i": ["1", "1", "1", "1"]}}}}, {"name": "StatefulPartitionedCall/model/conv2d_21/BiasAdd", "op": "_FusedConv2D", "input": ["StatefulPartitionedCall/model/depthwise_conv2d_19/depthwise", "StatefulPartitionedCall/model/conv2d_21/Conv2D/ReadVariableOp", "StatefulPartitionedCall/model/conv2d_21/BiasAdd/ReadVariableOp"], "device": "/device:CPU:0", "attr": {"dilations": {"list": {"i": ["1", "1", "1", "1"]}}, "T": {"type": "DT_FLOAT"}, "data_format": {"s": "TkhXQw=="}, "strides": {"list": {"i": ["1", "1", "1", "1"]}}, "use_cudnn_on_gpu": {"b": true}, "explicit_paddings": {"list": {}}, "num_args": {"i": "1"}, "epsilon": {"f": 0.0}, "padding": {"s": "U0FNRQ=="}, "fused_ops": {"list": {"s": ["Qmlhc0FkZA=="]}}}}, {"name": "StatefulPartitionedCall/model/add_22/add", "op": "AddV2", "input": ["StatefulPartitionedCall/model/conv2d_21/BiasAdd", "StatefulPartitionedCall/model/re_lu_19/Relu"], "attr": {"T": {"type": "DT_FLOAT"}}}, {"name": "StatefulPartitionedCall/model/re_lu_20/Relu", "op": "Relu", "input": ["StatefulPartitionedCall/model/add_22/add"], "attr": {"T": {"type": "DT_FLOAT"}}}, {"name": "StatefulPartitionedCall/model/depthwise_conv2d_20/depthwise", "op": "DepthwiseConv2dNative", "input": ["StatefulPartitionedCall/model/re_lu_20/Relu", "StatefulPartitionedCall/model/depthwise_conv2d_20/depthwise/ReadVariableOp"], "attr": {"padding": {"s": "U0FNRQ=="}, "dilations": {"list": {"i": ["1", "1", "1", "1"]}}, "T": {"type": "DT_FLOAT"}, "data_format": {"s": "TkhXQw=="}, "strides": {"list": {"i": ["1", "1", "1", "1"]}}}}, {"name": "StatefulPartitionedCall/model/conv2d_22/BiasAdd", "op": "_FusedConv2D", "input": ["StatefulPartitionedCall/model/depthwise_conv2d_20/depthwise", "StatefulPartitionedCall/model/conv2d_22/Conv2D/ReadVariableOp", "StatefulPartitionedCall/model/conv2d_22/BiasAdd/ReadVariableOp"], "device": "/device:CPU:0", "attr": {"dilations": {"list": {"i": ["1", "1", "1", "1"]}}, "T": {"type": "DT_FLOAT"}, "data_format": {"s": "TkhXQw=="}, "strides": {"list": {"i": ["1", "1", "1", "1"]}}, "use_cudnn_on_gpu": {"b": true}, "explicit_paddings": {"list": {}}, "num_args": {"i": "1"}, "epsilon": {"f": 0.0}, "padding": {"s": "U0FNRQ=="}, "fused_ops": {"list": {"s": ["Qmlhc0FkZA=="]}}}}, {"name": "StatefulPartitionedCall/model/add_23/add", "op": "AddV2", "input": ["StatefulPartitionedCall/model/conv2d_22/BiasAdd", "StatefulPartitionedCall/model/re_lu_20/Relu"], "attr": {"T": {"type": "DT_FLOAT"}}}, {"name": "StatefulPartitionedCall/model/re_lu_21/Relu", "op": "Relu", "input": ["StatefulPartitionedCall/model/add_23/add"], "attr": {"T": {"type": "DT_FLOAT"}}}, {"name": "StatefulPartitionedCall/model/depthwise_conv2d_21/depthwise", "op": "DepthwiseConv2dNative", "input": ["StatefulPartitionedCall/model/re_lu_21/Relu", "StatefulPartitionedCall/model/depthwise_conv2d_21/depthwise/ReadVariableOp"], "attr": {"padding": {"s": "U0FNRQ=="}, "dilations": {"list": {"i": ["1", "1", "1", "1"]}}, "T": {"type": "DT_FLOAT"}, "data_format": {"s": "TkhXQw=="}, "strides": {"list": {"i": ["1", "1", "1", "1"]}}}}, {"name": "StatefulPartitionedCall/model/conv2d_23/BiasAdd", "op": "_FusedConv2D", "input": ["StatefulPartitionedCall/model/depthwise_conv2d_21/depthwise", "StatefulPartitionedCall/model/conv2d_23/Conv2D/ReadVariableOp", "StatefulPartitionedCall/model/conv2d_23/BiasAdd/ReadVariableOp"], "device": "/device:CPU:0", "attr": {"dilations": {"list": {"i": ["1", "1", "1", "1"]}}, "T": {"type": "DT_FLOAT"}, "data_format": {"s": "TkhXQw=="}, "strides": {"list": {"i": ["1", "1", "1", "1"]}}, "use_cudnn_on_gpu": {"b": true}, "explicit_paddings": {"list": {}}, "num_args": {"i": "1"}, "epsilon": {"f": 0.0}, "padding": {"s": "U0FNRQ=="}, "fused_ops": {"list": {"s": ["Qmlhc0FkZA=="]}}}}, {"name": "StatefulPartitionedCall/model/add_24/add", "op": "AddV2", "input": ["StatefulPartitionedCall/model/conv2d_23/BiasAdd", "StatefulPartitionedCall/model/re_lu_21/Relu"], "attr": {"T": {"type": "DT_FLOAT"}}}, {"name": "StatefulPartitionedCall/model/re_lu_22/Relu", "op": "Relu", "input": ["StatefulPartitionedCall/model/add_24/add"], "attr": {"T": {"type": "DT_FLOAT"}}}, {"name": "StatefulPartitionedCall/model/depthwise_conv2d_22/depthwise", "op": "DepthwiseConv2dNative", "input": ["StatefulPartitionedCall/model/re_lu_22/Relu", "StatefulPartitionedCall/model/depthwise_conv2d_22/depthwise/ReadVariableOp"], "attr": {"padding": {"s": "U0FNRQ=="}, "dilations": {"list": {"i": ["1", "1", "1", "1"]}}, "T": {"type": "DT_FLOAT"}, "data_format": {"s": "TkhXQw=="}, "strides": {"list": {"i": ["1", "1", "1", "1"]}}}}, {"name": "StatefulPartitionedCall/model/conv2d_24/BiasAdd", "op": "_FusedConv2D", "input": ["StatefulPartitionedCall/model/depthwise_conv2d_22/depthwise", "StatefulPartitionedCall/model/conv2d_24/Conv2D/ReadVariableOp", "StatefulPartitionedCall/model/conv2d_24/BiasAdd/ReadVariableOp"], "device": "/device:CPU:0", "attr": {"dilations": {"list": {"i": ["1", "1", "1", "1"]}}, "T": {"type": "DT_FLOAT"}, "data_format": {"s": "TkhXQw=="}, "strides": {"list": {"i": ["1", "1", "1", "1"]}}, "use_cudnn_on_gpu": {"b": true}, "explicit_paddings": {"list": {}}, "num_args": {"i": "1"}, "epsilon": {"f": 0.0}, "padding": {"s": "U0FNRQ=="}, "fused_ops": {"list": {"s": ["Qmlhc0FkZA=="]}}}}, {"name": "StatefulPartitionedCall/model/add_25/add", "op": "AddV2", "input": ["StatefulPartitionedCall/model/conv2d_24/BiasAdd", "StatefulPartitionedCall/model/re_lu_22/Relu"], "attr": {"T": {"type": "DT_FLOAT"}}}, {"name": "StatefulPartitionedCall/model/re_lu_23/Relu", "op": "Relu", "input": ["StatefulPartitionedCall/model/add_25/add"], "attr": {"T": {"type": "DT_FLOAT"}}}, {"name": "StatefulPartitionedCall/model/depthwise_conv2d_23/depthwise", "op": "DepthwiseConv2dNative", "input": ["StatefulPartitionedCall/model/re_lu_23/Relu", "StatefulPartitionedCall/model/depthwise_conv2d_23/depthwise/ReadVariableOp"], "attr": {"padding": {"s": "U0FNRQ=="}, "dilations": {"list": {"i": ["1", "1", "1", "1"]}}, "T": {"type": "DT_FLOAT"}, "data_format": {"s": "TkhXQw=="}, "strides": {"list": {"i": ["1", "2", "2", "1"]}}}}, {"name": "StatefulPartitionedCall/model/max_pooling2d_5/MaxPool", "op": "MaxPool", "input": ["StatefulPartitionedCall/model/re_lu_23/Relu"], "attr": {"ksize": {"list": {"i": ["1", "2", "2", "1"]}}, "padding": {"s": "U0FNRQ=="}, "T": {"type": "DT_FLOAT"}, "strides": {"list": {"i": ["1", "2", "2", "1"]}}, "data_format": {"s": "TkhXQw=="}}}, {"name": "StatefulPartitionedCall/model/conv2d_25/BiasAdd", "op": "_FusedConv2D", "input": ["StatefulPartitionedCall/model/depthwise_conv2d_23/depthwise", "StatefulPartitionedCall/model/conv2d_25/Conv2D/ReadVariableOp", "StatefulPartitionedCall/model/conv2d_25/BiasAdd/ReadVariableOp"], "device": "/device:CPU:0", "attr": {"dilations": {"list": {"i": ["1", "1", "1", "1"]}}, "T": {"type": "DT_FLOAT"}, "data_format": {"s": "TkhXQw=="}, "strides": {"list": {"i": ["1", "1", "1", "1"]}}, "use_cudnn_on_gpu": {"b": true}, "explicit_paddings": {"list": {}}, "num_args": {"i": "1"}, "epsilon": {"f": 0.0}, "padding": {"s": "U0FNRQ=="}, "fused_ops": {"list": {"s": ["Qmlhc0FkZA=="]}}}}, {"name": "StatefulPartitionedCall/model/tf_op_layer_Pad_3/Pad_3", "op": "Pad", "input": ["StatefulPartitionedCall/model/max_pooling2d_5/MaxPool", "StatefulPartitionedCall/model/tf_op_layer_Pad_3/Pad_3/paddings"], "attr": {"T": {"type": "DT_FLOAT"}, "Tpaddings": {"type": "DT_INT32"}}}, {"name": "StatefulPartitionedCall/model/add_26/add", "op": "AddV2", "input": ["StatefulPartitionedCall/model/conv2d_25/BiasAdd", "StatefulPartitionedCall/model/tf_op_layer_Pad_3/Pad_3"], "attr": {"T": {"type": "DT_FLOAT"}}}, {"name": "StatefulPartitionedCall/model/re_lu_24/Relu", "op": "Relu", "input": ["StatefulPartitionedCall/model/add_26/add"], "attr": {"T": {"type": "DT_FLOAT"}}}, {"name": "StatefulPartitionedCall/model/depthwise_conv2d_24/depthwise", "op": "DepthwiseConv2dNative", "input": ["StatefulPartitionedCall/model/re_lu_24/Relu", "StatefulPartitionedCall/model/depthwise_conv2d_24/depthwise/ReadVariableOp"], "attr": {"padding": {"s": "U0FNRQ=="}, "dilations": {"list": {"i": ["1", "1", "1", "1"]}}, "T": {"type": "DT_FLOAT"}, "data_format": {"s": "TkhXQw=="}, "strides": {"list": {"i": ["1", "1", "1", "1"]}}}}, {"name": "StatefulPartitionedCall/model/conv2d_26/BiasAdd", "op": "_FusedConv2D", "input": ["StatefulPartitionedCall/model/depthwise_conv2d_24/depthwise", "StatefulPartitionedCall/model/conv2d_26/Conv2D/ReadVariableOp", "StatefulPartitionedCall/model/conv2d_26/BiasAdd/ReadVariableOp"], "device": "/device:CPU:0", "attr": {"dilations": {"list": {"i": ["1", "1", "1", "1"]}}, "T": {"type": "DT_FLOAT"}, "data_format": {"s": "TkhXQw=="}, "strides": {"list": {"i": ["1", "1", "1", "1"]}}, "use_cudnn_on_gpu": {"b": true}, "explicit_paddings": {"list": {}}, "num_args": {"i": "1"}, "epsilon": {"f": 0.0}, "padding": {"s": "U0FNRQ=="}, "fused_ops": {"list": {"s": ["Qmlhc0FkZA=="]}}}}, {"name": "StatefulPartitionedCall/model/add_27/add", "op": "AddV2", "input": ["StatefulPartitionedCall/model/conv2d_26/BiasAdd", "StatefulPartitionedCall/model/re_lu_24/Relu"], "attr": {"T": {"type": "DT_FLOAT"}}}, {"name": "StatefulPartitionedCall/model/re_lu_25/Relu", "op": "Relu", "input": ["StatefulPartitionedCall/model/add_27/add"], "attr": {"T": {"type": "DT_FLOAT"}}}, {"name": "StatefulPartitionedCall/model/depthwise_conv2d_25/depthwise", "op": "DepthwiseConv2dNative", "input": ["StatefulPartitionedCall/model/re_lu_25/Relu", "StatefulPartitionedCall/model/depthwise_conv2d_25/depthwise/ReadVariableOp"], "attr": {"padding": {"s": "U0FNRQ=="}, "dilations": {"list": {"i": ["1", "1", "1", "1"]}}, "T": {"type": "DT_FLOAT"}, "data_format": {"s": "TkhXQw=="}, "strides": {"list": {"i": ["1", "1", "1", "1"]}}}}, {"name": "StatefulPartitionedCall/model/conv2d_27/BiasAdd", "op": "_FusedConv2D", "input": ["StatefulPartitionedCall/model/depthwise_conv2d_25/depthwise", "StatefulPartitionedCall/model/conv2d_27/Conv2D/ReadVariableOp", "StatefulPartitionedCall/model/conv2d_27/BiasAdd/ReadVariableOp"], "device": "/device:CPU:0", "attr": {"dilations": {"list": {"i": ["1", "1", "1", "1"]}}, "T": {"type": "DT_FLOAT"}, "data_format": {"s": "TkhXQw=="}, "strides": {"list": {"i": ["1", "1", "1", "1"]}}, "use_cudnn_on_gpu": {"b": true}, "explicit_paddings": {"list": {}}, "num_args": {"i": "1"}, "epsilon": {"f": 0.0}, "padding": {"s": "U0FNRQ=="}, "fused_ops": {"list": {"s": ["Qmlhc0FkZA=="]}}}}, {"name": "StatefulPartitionedCall/model/add_28/add", "op": "AddV2", "input": ["StatefulPartitionedCall/model/conv2d_27/BiasAdd", "StatefulPartitionedCall/model/re_lu_25/Relu"], "attr": {"T": {"type": "DT_FLOAT"}}}, {"name": "StatefulPartitionedCall/model/re_lu_26/Relu", "op": "Relu", "input": ["StatefulPartitionedCall/model/add_28/add"], "attr": {"T": {"type": "DT_FLOAT"}}}, {"name": "StatefulPartitionedCall/model/depthwise_conv2d_26/depthwise", "op": "DepthwiseConv2dNative", "input": ["StatefulPartitionedCall/model/re_lu_26/Relu", "StatefulPartitionedCall/model/depthwise_conv2d_26/depthwise/ReadVariableOp"], "attr": {"padding": {"s": "U0FNRQ=="}, "dilations": {"list": {"i": ["1", "1", "1", "1"]}}, "T": {"type": "DT_FLOAT"}, "data_format": {"s": "TkhXQw=="}, "strides": {"list": {"i": ["1", "1", "1", "1"]}}}}, {"name": "StatefulPartitionedCall/model/conv2d_28/BiasAdd", "op": "_FusedConv2D", "input": ["StatefulPartitionedCall/model/depthwise_conv2d_26/depthwise", "StatefulPartitionedCall/model/conv2d_28/Conv2D/ReadVariableOp", "StatefulPartitionedCall/model/conv2d_28/BiasAdd/ReadVariableOp"], "device": "/device:CPU:0", "attr": {"dilations": {"list": {"i": ["1", "1", "1", "1"]}}, "T": {"type": "DT_FLOAT"}, "data_format": {"s": "TkhXQw=="}, "strides": {"list": {"i": ["1", "1", "1", "1"]}}, "use_cudnn_on_gpu": {"b": true}, "explicit_paddings": {"list": {}}, "num_args": {"i": "1"}, "epsilon": {"f": 0.0}, "padding": {"s": "U0FNRQ=="}, "fused_ops": {"list": {"s": ["Qmlhc0FkZA=="]}}}}, {"name": "StatefulPartitionedCall/model/add_29/add", "op": "AddV2", "input": ["StatefulPartitionedCall/model/conv2d_28/BiasAdd", "StatefulPartitionedCall/model/re_lu_26/Relu"], "attr": {"T": {"type": "DT_FLOAT"}}}, {"name": "StatefulPartitionedCall/model/re_lu_27/Relu", "op": "Relu", "input": ["StatefulPartitionedCall/model/add_29/add"], "attr": {"T": {"type": "DT_FLOAT"}}}, {"name": "StatefulPartitionedCall/model/depthwise_conv2d_27/depthwise", "op": "DepthwiseConv2dNative", "input": ["StatefulPartitionedCall/model/re_lu_27/Relu", "StatefulPartitionedCall/model/depthwise_conv2d_27/depthwise/ReadVariableOp"], "attr": {"padding": {"s": "U0FNRQ=="}, "dilations": {"list": {"i": ["1", "1", "1", "1"]}}, "T": {"type": "DT_FLOAT"}, "data_format": {"s": "TkhXQw=="}, "strides": {"list": {"i": ["1", "1", "1", "1"]}}}}, {"name": "StatefulPartitionedCall/model/conv2d_29/BiasAdd", "op": "_FusedConv2D", "input": ["StatefulPartitionedCall/model/depthwise_conv2d_27/depthwise", "StatefulPartitionedCall/model/conv2d_29/Conv2D/ReadVariableOp", "StatefulPartitionedCall/model/conv2d_29/BiasAdd/ReadVariableOp"], "device": "/device:CPU:0", "attr": {"dilations": {"list": {"i": ["1", "1", "1", "1"]}}, "T": {"type": "DT_FLOAT"}, "data_format": {"s": "TkhXQw=="}, "strides": {"list": {"i": ["1", "1", "1", "1"]}}, "use_cudnn_on_gpu": {"b": true}, "explicit_paddings": {"list": {}}, "num_args": {"i": "1"}, "epsilon": {"f": 0.0}, "padding": {"s": "U0FNRQ=="}, "fused_ops": {"list": {"s": ["Qmlhc0FkZA=="]}}}}, {"name": "StatefulPartitionedCall/model/add_30/add", "op": "AddV2", "input": ["StatefulPartitionedCall/model/conv2d_29/BiasAdd", "StatefulPartitionedCall/model/re_lu_27/Relu"], "attr": {"T": {"type": "DT_FLOAT"}}}, {"name": "StatefulPartitionedCall/model/re_lu_28/Relu", "op": "Relu", "input": ["StatefulPartitionedCall/model/add_30/add"], "attr": {"T": {"type": "DT_FLOAT"}}}, {"name": "StatefulPartitionedCall/model/depthwise_conv2d_28/depthwise", "op": "DepthwiseConv2dNative", "input": ["StatefulPartitionedCall/model/re_lu_28/Relu", "StatefulPartitionedCall/model/depthwise_conv2d_28/depthwise/ReadVariableOp"], "attr": {"padding": {"s": "U0FNRQ=="}, "dilations": {"list": {"i": ["1", "1", "1", "1"]}}, "T": {"type": "DT_FLOAT"}, "data_format": {"s": "TkhXQw=="}, "strides": {"list": {"i": ["1", "2", "2", "1"]}}}}, {"name": "StatefulPartitionedCall/model/max_pooling2d_6/MaxPool", "op": "MaxPool", "input": ["StatefulPartitionedCall/model/re_lu_28/Relu"], "attr": {"ksize": {"list": {"i": ["1", "2", "2", "1"]}}, "padding": {"s": "U0FNRQ=="}, "T": {"type": "DT_FLOAT"}, "strides": {"list": {"i": ["1", "2", "2", "1"]}}, "data_format": {"s": "TkhXQw=="}}}, {"name": "StatefulPartitionedCall/model/conv2d_30/BiasAdd", "op": "_FusedConv2D", "input": ["StatefulPartitionedCall/model/depthwise_conv2d_28/depthwise", "StatefulPartitionedCall/model/conv2d_30/Conv2D/ReadVariableOp", "StatefulPartitionedCall/model/conv2d_30/BiasAdd/ReadVariableOp"], "device": "/device:CPU:0", "attr": {"dilations": {"list": {"i": ["1", "1", "1", "1"]}}, "T": {"type": "DT_FLOAT"}, "data_format": {"s": "TkhXQw=="}, "strides": {"list": {"i": ["1", "1", "1", "1"]}}, "use_cudnn_on_gpu": {"b": true}, "explicit_paddings": {"list": {}}, "num_args": {"i": "1"}, "epsilon": {"f": 0.0}, "padding": {"s": "U0FNRQ=="}, "fused_ops": {"list": {"s": ["Qmlhc0FkZA=="]}}}}, {"name": "StatefulPartitionedCall/model/add_31/add", "op": "AddV2", "input": ["StatefulPartitionedCall/model/conv2d_30/BiasAdd", "StatefulPartitionedCall/model/max_pooling2d_6/MaxPool"], "attr": {"T": {"type": "DT_FLOAT"}}}, {"name": "StatefulPartitionedCall/model/re_lu_29/Relu", "op": "Relu", "input": ["StatefulPartitionedCall/model/add_31/add"], "attr": {"T": {"type": "DT_FLOAT"}}}, {"name": "StatefulPartitionedCall/model/depthwise_conv2d_29/depthwise", "op": "DepthwiseConv2dNative", "input": ["StatefulPartitionedCall/model/re_lu_29/Relu", "StatefulPartitionedCall/model/depthwise_conv2d_29/depthwise/ReadVariableOp"], "attr": {"padding": {"s": "U0FNRQ=="}, "dilations": {"list": {"i": ["1", "1", "1", "1"]}}, "T": {"type": "DT_FLOAT"}, "data_format": {"s": "TkhXQw=="}, "strides": {"list": {"i": ["1", "1", "1", "1"]}}}}, {"name": "StatefulPartitionedCall/model/conv2d_31/BiasAdd", "op": "_FusedConv2D", "input": ["StatefulPartitionedCall/model/depthwise_conv2d_29/depthwise", "StatefulPartitionedCall/model/conv2d_31/Conv2D/ReadVariableOp", "StatefulPartitionedCall/model/conv2d_31/BiasAdd/ReadVariableOp"], "device": "/device:CPU:0", "attr": {"dilations": {"list": {"i": ["1", "1", "1", "1"]}}, "T": {"type": "DT_FLOAT"}, "data_format": {"s": "TkhXQw=="}, "strides": {"list": {"i": ["1", "1", "1", "1"]}}, "use_cudnn_on_gpu": {"b": true}, "explicit_paddings": {"list": {}}, "num_args": {"i": "1"}, "epsilon": {"f": 0.0}, "padding": {"s": "U0FNRQ=="}, "fused_ops": {"list": {"s": ["Qmlhc0FkZA=="]}}}}, {"name": "StatefulPartitionedCall/model/add_32/add", "op": "AddV2", "input": ["StatefulPartitionedCall/model/conv2d_31/BiasAdd", "StatefulPartitionedCall/model/re_lu_29/Relu"], "attr": {"T": {"type": "DT_FLOAT"}}}, {"name": "StatefulPartitionedCall/model/re_lu_30/Relu", "op": "Relu", "input": ["StatefulPartitionedCall/model/add_32/add"], "attr": {"T": {"type": "DT_FLOAT"}}}, {"name": "StatefulPartitionedCall/model/depthwise_conv2d_30/depthwise", "op": "DepthwiseConv2dNative", "input": ["StatefulPartitionedCall/model/re_lu_30/Relu", "StatefulPartitionedCall/model/depthwise_conv2d_30/depthwise/ReadVariableOp"], "attr": {"padding": {"s": "U0FNRQ=="}, "dilations": {"list": {"i": ["1", "1", "1", "1"]}}, "T": {"type": "DT_FLOAT"}, "data_format": {"s": "TkhXQw=="}, "strides": {"list": {"i": ["1", "1", "1", "1"]}}}}, {"name": "StatefulPartitionedCall/model/conv2d_32/BiasAdd", "op": "_FusedConv2D", "input": ["StatefulPartitionedCall/model/depthwise_conv2d_30/depthwise", "StatefulPartitionedCall/model/conv2d_32/Conv2D/ReadVariableOp", "StatefulPartitionedCall/model/conv2d_32/BiasAdd/ReadVariableOp"], "device": "/device:CPU:0", "attr": {"dilations": {"list": {"i": ["1", "1", "1", "1"]}}, "T": {"type": "DT_FLOAT"}, "data_format": {"s": "TkhXQw=="}, "strides": {"list": {"i": ["1", "1", "1", "1"]}}, "use_cudnn_on_gpu": {"b": true}, "explicit_paddings": {"list": {}}, "num_args": {"i": "1"}, "epsilon": {"f": 0.0}, "padding": {"s": "U0FNRQ=="}, "fused_ops": {"list": {"s": ["Qmlhc0FkZA=="]}}}}, {"name": "StatefulPartitionedCall/model/add_33/add", "op": "AddV2", "input": ["StatefulPartitionedCall/model/conv2d_32/BiasAdd", "StatefulPartitionedCall/model/re_lu_30/Relu"], "attr": {"T": {"type": "DT_FLOAT"}}}, {"name": "StatefulPartitionedCall/model/re_lu_31/Relu", "op": "Relu", "input": ["StatefulPartitionedCall/model/add_33/add"], "attr": {"T": {"type": "DT_FLOAT"}}}, {"name": "StatefulPartitionedCall/model/depthwise_conv2d_31/depthwise", "op": "DepthwiseConv2dNative", "input": ["StatefulPartitionedCall/model/re_lu_31/Relu", "StatefulPartitionedCall/model/depthwise_conv2d_31/depthwise/ReadVariableOp"], "attr": {"padding": {"s": "U0FNRQ=="}, "dilations": {"list": {"i": ["1", "1", "1", "1"]}}, "T": {"type": "DT_FLOAT"}, "data_format": {"s": "TkhXQw=="}, "strides": {"list": {"i": ["1", "1", "1", "1"]}}}}, {"name": "StatefulPartitionedCall/model/conv2d_33/BiasAdd", "op": "_FusedConv2D", "input": ["StatefulPartitionedCall/model/depthwise_conv2d_31/depthwise", "StatefulPartitionedCall/model/conv2d_33/Conv2D/ReadVariableOp", "StatefulPartitionedCall/model/conv2d_33/BiasAdd/ReadVariableOp"], "device": "/device:CPU:0", "attr": {"dilations": {"list": {"i": ["1", "1", "1", "1"]}}, "T": {"type": "DT_FLOAT"}, "data_format": {"s": "TkhXQw=="}, "strides": {"list": {"i": ["1", "1", "1", "1"]}}, "use_cudnn_on_gpu": {"b": true}, "explicit_paddings": {"list": {}}, "num_args": {"i": "1"}, "epsilon": {"f": 0.0}, "padding": {"s": "U0FNRQ=="}, "fused_ops": {"list": {"s": ["Qmlhc0FkZA=="]}}}}, {"name": "StatefulPartitionedCall/model/add_34/add", "op": "AddV2", "input": ["StatefulPartitionedCall/model/conv2d_33/BiasAdd", "StatefulPartitionedCall/model/re_lu_31/Relu"], "attr": {"T": {"type": "DT_FLOAT"}}}, {"name": "StatefulPartitionedCall/model/re_lu_32/Relu", "op": "Relu", "input": ["StatefulPartitionedCall/model/add_34/add"], "attr": {"T": {"type": "DT_FLOAT"}}}, {"name": "StatefulPartitionedCall/model/depthwise_conv2d_32/depthwise", "op": "DepthwiseConv2dNative", "input": ["StatefulPartitionedCall/model/re_lu_32/Relu", "StatefulPartitionedCall/model/depthwise_conv2d_32/depthwise/ReadVariableOp"], "attr": {"padding": {"s": "U0FNRQ=="}, "dilations": {"list": {"i": ["1", "1", "1", "1"]}}, "T": {"type": "DT_FLOAT"}, "data_format": {"s": "TkhXQw=="}, "strides": {"list": {"i": ["1", "1", "1", "1"]}}}}, {"name": "StatefulPartitionedCall/model/conv2d_34/BiasAdd", "op": "_FusedConv2D", "input": ["StatefulPartitionedCall/model/depthwise_conv2d_32/depthwise", "StatefulPartitionedCall/model/conv2d_34/Conv2D/ReadVariableOp", "StatefulPartitionedCall/model/conv2d_34/BiasAdd/ReadVariableOp"], "device": "/device:CPU:0", "attr": {"dilations": {"list": {"i": ["1", "1", "1", "1"]}}, "T": {"type": "DT_FLOAT"}, "data_format": {"s": "TkhXQw=="}, "strides": {"list": {"i": ["1", "1", "1", "1"]}}, "use_cudnn_on_gpu": {"b": true}, "explicit_paddings": {"list": {}}, "num_args": {"i": "1"}, "epsilon": {"f": 0.0}, "padding": {"s": "U0FNRQ=="}, "fused_ops": {"list": {"s": ["Qmlhc0FkZA=="]}}}}, {"name": "StatefulPartitionedCall/model/add_35/add", "op": "AddV2", "input": ["StatefulPartitionedCall/model/conv2d_34/BiasAdd", "StatefulPartitionedCall/model/re_lu_32/Relu"], "attr": {"T": {"type": "DT_FLOAT"}}}, {"name": "StatefulPartitionedCall/model/re_lu_33/Relu", "op": "Relu", "input": ["StatefulPartitionedCall/model/add_35/add"], "attr": {"T": {"type": "DT_FLOAT"}}}, {"name": "StatefulPartitionedCall/model/depthwise_conv2d_33/depthwise", "op": "DepthwiseConv2dNative", "input": ["StatefulPartitionedCall/model/re_lu_33/Relu", "StatefulPartitionedCall/model/depthwise_conv2d_33/depthwise/ReadVariableOp"], "attr": {"padding": {"s": "U0FNRQ=="}, "dilations": {"list": {"i": ["1", "1", "1", "1"]}}, "T": {"type": "DT_FLOAT"}, "data_format": {"s": "TkhXQw=="}, "strides": {"list": {"i": ["1", "2", "2", "1"]}}}}, {"name": "StatefulPartitionedCall/model/max_pooling2d_7/MaxPool", "op": "MaxPool", "input": ["StatefulPartitionedCall/model/re_lu_33/Relu"], "attr": {"ksize": {"list": {"i": ["1", "2", "2", "1"]}}, "padding": {"s": "U0FNRQ=="}, "T": {"type": "DT_FLOAT"}, "strides": {"list": {"i": ["1", "2", "2", "1"]}}, "data_format": {"s": "TkhXQw=="}}}, {"name": "StatefulPartitionedCall/model/conv2d_35/BiasAdd", "op": "_FusedConv2D", "input": ["StatefulPartitionedCall/model/depthwise_conv2d_33/depthwise", "StatefulPartitionedCall/model/conv2d_35/Conv2D/ReadVariableOp", "StatefulPartitionedCall/model/conv2d_35/BiasAdd/ReadVariableOp"], "device": "/device:CPU:0", "attr": {"dilations": {"list": {"i": ["1", "1", "1", "1"]}}, "T": {"type": "DT_FLOAT"}, "data_format": {"s": "TkhXQw=="}, "strides": {"list": {"i": ["1", "1", "1", "1"]}}, "use_cudnn_on_gpu": {"b": true}, "explicit_paddings": {"list": {}}, "num_args": {"i": "1"}, "epsilon": {"f": 0.0}, "padding": {"s": "U0FNRQ=="}, "fused_ops": {"list": {"s": ["Qmlhc0FkZA=="]}}}}, {"name": "StatefulPartitionedCall/model/add_36/add", "op": "AddV2", "input": ["StatefulPartitionedCall/model/conv2d_35/BiasAdd", "StatefulPartitionedCall/model/max_pooling2d_7/MaxPool"], "attr": {"T": {"type": "DT_FLOAT"}}}, {"name": "StatefulPartitionedCall/model/re_lu_34/Relu", "op": "Relu", "input": ["StatefulPartitionedCall/model/add_36/add"], "attr": {"T": {"type": "DT_FLOAT"}}}, {"name": "StatefulPartitionedCall/model/depthwise_conv2d_34/depthwise", "op": "DepthwiseConv2dNative", "input": ["StatefulPartitionedCall/model/re_lu_34/Relu", "StatefulPartitionedCall/model/depthwise_conv2d_34/depthwise/ReadVariableOp"], "attr": {"padding": {"s": "U0FNRQ=="}, "dilations": {"list": {"i": ["1", "1", "1", "1"]}}, "T": {"type": "DT_FLOAT"}, "data_format": {"s": "TkhXQw=="}, "strides": {"list": {"i": ["1", "1", "1", "1"]}}}}, {"name": "StatefulPartitionedCall/model/conv2d_36/BiasAdd", "op": "_FusedConv2D", "input": ["StatefulPartitionedCall/model/depthwise_conv2d_34/depthwise", "StatefulPartitionedCall/model/conv2d_36/Conv2D/ReadVariableOp", "StatefulPartitionedCall/model/conv2d_36/BiasAdd/ReadVariableOp"], "device": "/device:CPU:0", "attr": {"dilations": {"list": {"i": ["1", "1", "1", "1"]}}, "T": {"type": "DT_FLOAT"}, "data_format": {"s": "TkhXQw=="}, "strides": {"list": {"i": ["1", "1", "1", "1"]}}, "use_cudnn_on_gpu": {"b": true}, "explicit_paddings": {"list": {}}, "num_args": {"i": "1"}, "epsilon": {"f": 0.0}, "padding": {"s": "U0FNRQ=="}, "fused_ops": {"list": {"s": ["Qmlhc0FkZA=="]}}}}, {"name": "StatefulPartitionedCall/model/add_37/add", "op": "AddV2", "input": ["StatefulPartitionedCall/model/conv2d_36/BiasAdd", "StatefulPartitionedCall/model/re_lu_34/Relu"], "attr": {"T": {"type": "DT_FLOAT"}}}, {"name": "StatefulPartitionedCall/model/re_lu_35/Relu", "op": "Relu", "input": ["StatefulPartitionedCall/model/add_37/add"], "attr": {"T": {"type": "DT_FLOAT"}}}, {"name": "StatefulPartitionedCall/model/depthwise_conv2d_35/depthwise", "op": "DepthwiseConv2dNative", "input": ["StatefulPartitionedCall/model/re_lu_35/Relu", "StatefulPartitionedCall/model/depthwise_conv2d_35/depthwise/ReadVariableOp"], "attr": {"padding": {"s": "U0FNRQ=="}, "dilations": {"list": {"i": ["1", "1", "1", "1"]}}, "T": {"type": "DT_FLOAT"}, "data_format": {"s": "TkhXQw=="}, "strides": {"list": {"i": ["1", "1", "1", "1"]}}}}, {"name": "StatefulPartitionedCall/model/conv2d_37/BiasAdd", "op": "_FusedConv2D", "input": ["StatefulPartitionedCall/model/depthwise_conv2d_35/depthwise", "StatefulPartitionedCall/model/conv2d_37/Conv2D/ReadVariableOp", "StatefulPartitionedCall/model/conv2d_37/BiasAdd/ReadVariableOp"], "device": "/device:CPU:0", "attr": {"dilations": {"list": {"i": ["1", "1", "1", "1"]}}, "T": {"type": "DT_FLOAT"}, "data_format": {"s": "TkhXQw=="}, "strides": {"list": {"i": ["1", "1", "1", "1"]}}, "use_cudnn_on_gpu": {"b": true}, "explicit_paddings": {"list": {}}, "num_args": {"i": "1"}, "epsilon": {"f": 0.0}, "padding": {"s": "U0FNRQ=="}, "fused_ops": {"list": {"s": ["Qmlhc0FkZA=="]}}}}, {"name": "StatefulPartitionedCall/model/add_38/add", "op": "AddV2", "input": ["StatefulPartitionedCall/model/conv2d_37/BiasAdd", "StatefulPartitionedCall/model/re_lu_35/Relu"], "attr": {"T": {"type": "DT_FLOAT"}}}, {"name": "StatefulPartitionedCall/model/re_lu_36/Relu", "op": "Relu", "input": ["StatefulPartitionedCall/model/add_38/add"], "attr": {"T": {"type": "DT_FLOAT"}}}, {"name": "StatefulPartitionedCall/model/depthwise_conv2d_36/depthwise", "op": "DepthwiseConv2dNative", "input": ["StatefulPartitionedCall/model/re_lu_36/Relu", "StatefulPartitionedCall/model/depthwise_conv2d_36/depthwise/ReadVariableOp"], "attr": {"padding": {"s": "U0FNRQ=="}, "dilations": {"list": {"i": ["1", "1", "1", "1"]}}, "T": {"type": "DT_FLOAT"}, "data_format": {"s": "TkhXQw=="}, "strides": {"list": {"i": ["1", "1", "1", "1"]}}}}, {"name": "StatefulPartitionedCall/model/conv2d_38/BiasAdd", "op": "_FusedConv2D", "input": ["StatefulPartitionedCall/model/depthwise_conv2d_36/depthwise", "StatefulPartitionedCall/model/conv2d_38/Conv2D/ReadVariableOp", "StatefulPartitionedCall/model/conv2d_38/BiasAdd/ReadVariableOp"], "device": "/device:CPU:0", "attr": {"dilations": {"list": {"i": ["1", "1", "1", "1"]}}, "T": {"type": "DT_FLOAT"}, "data_format": {"s": "TkhXQw=="}, "strides": {"list": {"i": ["1", "1", "1", "1"]}}, "use_cudnn_on_gpu": {"b": true}, "explicit_paddings": {"list": {}}, "num_args": {"i": "1"}, "epsilon": {"f": 0.0}, "padding": {"s": "U0FNRQ=="}, "fused_ops": {"list": {"s": ["Qmlhc0FkZA=="]}}}}, {"name": "StatefulPartitionedCall/model/add_39/add", "op": "AddV2", "input": ["StatefulPartitionedCall/model/conv2d_38/BiasAdd", "StatefulPartitionedCall/model/re_lu_36/Relu"], "attr": {"T": {"type": "DT_FLOAT"}}}, {"name": "StatefulPartitionedCall/model/re_lu_37/Relu", "op": "Relu", "input": ["StatefulPartitionedCall/model/add_39/add"], "attr": {"T": {"type": "DT_FLOAT"}}}, {"name": "StatefulPartitionedCall/model/depthwise_conv2d_37/depthwise", "op": "DepthwiseConv2dNative", "input": ["StatefulPartitionedCall/model/re_lu_37/Relu", "StatefulPartitionedCall/model/depthwise_conv2d_37/depthwise/ReadVariableOp"], "attr": {"padding": {"s": "U0FNRQ=="}, "dilations": {"list": {"i": ["1", "1", "1", "1"]}}, "T": {"type": "DT_FLOAT"}, "data_format": {"s": "TkhXQw=="}, "strides": {"list": {"i": ["1", "1", "1", "1"]}}}}, {"name": "StatefulPartitionedCall/model/conv2d_39/BiasAdd", "op": "_FusedConv2D", "input": ["StatefulPartitionedCall/model/depthwise_conv2d_37/depthwise", "StatefulPartitionedCall/model/conv2d_39/Conv2D/ReadVariableOp", "StatefulPartitionedCall/model/conv2d_39/BiasAdd/ReadVariableOp"], "device": "/device:CPU:0", "attr": {"dilations": {"list": {"i": ["1", "1", "1", "1"]}}, "T": {"type": "DT_FLOAT"}, "data_format": {"s": "TkhXQw=="}, "strides": {"list": {"i": ["1", "1", "1", "1"]}}, "use_cudnn_on_gpu": {"b": true}, "explicit_paddings": {"list": {}}, "num_args": {"i": "1"}, "epsilon": {"f": 0.0}, "padding": {"s": "U0FNRQ=="}, "fused_ops": {"list": {"s": ["Qmlhc0FkZA=="]}}}}, {"name": "StatefulPartitionedCall/model/add_40/add", "op": "AddV2", "input": ["StatefulPartitionedCall/model/conv2d_39/BiasAdd", "StatefulPartitionedCall/model/re_lu_37/Relu"], "attr": {"T": {"type": "DT_FLOAT"}}}, {"name": "StatefulPartitionedCall/model/re_lu_38/Relu", "op": "Relu", "input": ["StatefulPartitionedCall/model/add_40/add"], "attr": {"T": {"type": "DT_FLOAT"}}}, {"name": "StatefulPartitionedCall/model/max_pooling2d_8/MaxPool", "op": "MaxPool", "input": ["StatefulPartitionedCall/model/re_lu_38/Relu"], "attr": {"ksize": {"list": {"i": ["1", "2", "2", "1"]}}, "padding": {"s": "U0FNRQ=="}, "T": {"type": "DT_FLOAT"}, "strides": {"list": {"i": ["1", "2", "2", "1"]}}, "data_format": {"s": "TkhXQw=="}}}, {"name": "StatefulPartitionedCall/model/depthwise_conv2d_38/depthwise", "op": "DepthwiseConv2dNative", "input": ["StatefulPartitionedCall/model/re_lu_38/Relu", "StatefulPartitionedCall/model/depthwise_conv2d_38/depthwise/ReadVariableOp"], "attr": {"padding": {"s": "U0FNRQ=="}, "dilations": {"list": {"i": ["1", "1", "1", "1"]}}, "T": {"type": "DT_FLOAT"}, "data_format": {"s": "TkhXQw=="}, "strides": {"list": {"i": ["1", "2", "2", "1"]}}}}, {"name": "StatefulPartitionedCall/model/conv2d_40/BiasAdd", "op": "_FusedConv2D", "input": ["StatefulPartitionedCall/model/depthwise_conv2d_38/depthwise", "StatefulPartitionedCall/model/conv2d_40/Conv2D/ReadVariableOp", "StatefulPartitionedCall/model/conv2d_40/BiasAdd/ReadVariableOp"], "device": "/device:CPU:0", "attr": {"dilations": {"list": {"i": ["1", "1", "1", "1"]}}, "T": {"type": "DT_FLOAT"}, "data_format": {"s": "TkhXQw=="}, "strides": {"list": {"i": ["1", "1", "1", "1"]}}, "use_cudnn_on_gpu": {"b": true}, "explicit_paddings": {"list": {}}, "num_args": {"i": "1"}, "epsilon": {"f": 0.0}, "padding": {"s": "U0FNRQ=="}, "fused_ops": {"list": {"s": ["Qmlhc0FkZA=="]}}}}, {"name": "StatefulPartitionedCall/model/add_41/add", "op": "AddV2", "input": ["StatefulPartitionedCall/model/conv2d_40/BiasAdd", "StatefulPartitionedCall/model/max_pooling2d_8/MaxPool"], "attr": {"T": {"type": "DT_FLOAT"}}}, {"name": "StatefulPartitionedCall/model/re_lu_39/Relu", "op": "Relu", "input": ["StatefulPartitionedCall/model/add_41/add"], "attr": {"T": {"type": "DT_FLOAT"}}}, {"name": "StatefulPartitionedCall/model/depthwise_conv2d_39/depthwise", "op": "DepthwiseConv2dNative", "input": ["StatefulPartitionedCall/model/re_lu_39/Relu", "StatefulPartitionedCall/model/depthwise_conv2d_39/depthwise/ReadVariableOp"], "attr": {"padding": {"s": "U0FNRQ=="}, "dilations": {"list": {"i": ["1", "1", "1", "1"]}}, "T": {"type": "DT_FLOAT"}, "data_format": {"s": "TkhXQw=="}, "strides": {"list": {"i": ["1", "1", "1", "1"]}}}}, {"name": "StatefulPartitionedCall/model/conv2d_41/BiasAdd", "op": "_FusedConv2D", "input": ["StatefulPartitionedCall/model/depthwise_conv2d_39/depthwise", "StatefulPartitionedCall/model/conv2d_41/Conv2D/ReadVariableOp", "StatefulPartitionedCall/model/conv2d_41/BiasAdd/ReadVariableOp"], "device": "/device:CPU:0", "attr": {"dilations": {"list": {"i": ["1", "1", "1", "1"]}}, "T": {"type": "DT_FLOAT"}, "data_format": {"s": "TkhXQw=="}, "strides": {"list": {"i": ["1", "1", "1", "1"]}}, "use_cudnn_on_gpu": {"b": true}, "explicit_paddings": {"list": {}}, "num_args": {"i": "1"}, "epsilon": {"f": 0.0}, "padding": {"s": "U0FNRQ=="}, "fused_ops": {"list": {"s": ["Qmlhc0FkZA=="]}}}}, {"name": "StatefulPartitionedCall/model/add_42/add", "op": "AddV2", "input": ["StatefulPartitionedCall/model/conv2d_41/BiasAdd", "StatefulPartitionedCall/model/re_lu_39/Relu"], "attr": {"T": {"type": "DT_FLOAT"}}}, {"name": "StatefulPartitionedCall/model/re_lu_40/Relu", "op": "Relu", "input": ["StatefulPartitionedCall/model/add_42/add"], "attr": {"T": {"type": "DT_FLOAT"}}}, {"name": "StatefulPartitionedCall/model/depthwise_conv2d_40/depthwise", "op": "DepthwiseConv2dNative", "input": ["StatefulPartitionedCall/model/re_lu_40/Relu", "StatefulPartitionedCall/model/depthwise_conv2d_40/depthwise/ReadVariableOp"], "attr": {"padding": {"s": "U0FNRQ=="}, "dilations": {"list": {"i": ["1", "1", "1", "1"]}}, "T": {"type": "DT_FLOAT"}, "data_format": {"s": "TkhXQw=="}, "strides": {"list": {"i": ["1", "1", "1", "1"]}}}}, {"name": "StatefulPartitionedCall/model/conv2d_42/BiasAdd", "op": "_FusedConv2D", "input": ["StatefulPartitionedCall/model/depthwise_conv2d_40/depthwise", "StatefulPartitionedCall/model/conv2d_42/Conv2D/ReadVariableOp", "StatefulPartitionedCall/model/conv2d_42/BiasAdd/ReadVariableOp"], "device": "/device:CPU:0", "attr": {"dilations": {"list": {"i": ["1", "1", "1", "1"]}}, "T": {"type": "DT_FLOAT"}, "data_format": {"s": "TkhXQw=="}, "strides": {"list": {"i": ["1", "1", "1", "1"]}}, "use_cudnn_on_gpu": {"b": true}, "explicit_paddings": {"list": {}}, "num_args": {"i": "1"}, "epsilon": {"f": 0.0}, "padding": {"s": "U0FNRQ=="}, "fused_ops": {"list": {"s": ["Qmlhc0FkZA=="]}}}}, {"name": "StatefulPartitionedCall/model/add_43/add", "op": "AddV2", "input": ["StatefulPartitionedCall/model/conv2d_42/BiasAdd", "StatefulPartitionedCall/model/re_lu_40/Relu"], "attr": {"T": {"type": "DT_FLOAT"}}}, {"name": "StatefulPartitionedCall/model/re_lu_41/Relu", "op": "Relu", "input": ["StatefulPartitionedCall/model/add_43/add"], "attr": {"T": {"type": "DT_FLOAT"}}}, {"name": "StatefulPartitionedCall/model/depthwise_conv2d_41/depthwise", "op": "DepthwiseConv2dNative", "input": ["StatefulPartitionedCall/model/re_lu_41/Relu", "StatefulPartitionedCall/model/depthwise_conv2d_41/depthwise/ReadVariableOp"], "attr": {"padding": {"s": "U0FNRQ=="}, "dilations": {"list": {"i": ["1", "1", "1", "1"]}}, "T": {"type": "DT_FLOAT"}, "data_format": {"s": "TkhXQw=="}, "strides": {"list": {"i": ["1", "1", "1", "1"]}}}}, {"name": "StatefulPartitionedCall/model/conv2d_43/BiasAdd", "op": "_FusedConv2D", "input": ["StatefulPartitionedCall/model/depthwise_conv2d_41/depthwise", "StatefulPartitionedCall/model/conv2d_43/Conv2D/ReadVariableOp", "StatefulPartitionedCall/model/conv2d_43/BiasAdd/ReadVariableOp"], "device": "/device:CPU:0", "attr": {"dilations": {"list": {"i": ["1", "1", "1", "1"]}}, "T": {"type": "DT_FLOAT"}, "data_format": {"s": "TkhXQw=="}, "strides": {"list": {"i": ["1", "1", "1", "1"]}}, "use_cudnn_on_gpu": {"b": true}, "explicit_paddings": {"list": {}}, "num_args": {"i": "1"}, "epsilon": {"f": 0.0}, "padding": {"s": "U0FNRQ=="}, "fused_ops": {"list": {"s": ["Qmlhc0FkZA=="]}}}}, {"name": "StatefulPartitionedCall/model/add_44/add", "op": "AddV2", "input": ["StatefulPartitionedCall/model/conv2d_43/BiasAdd", "StatefulPartitionedCall/model/re_lu_41/Relu"], "attr": {"T": {"type": "DT_FLOAT"}}}, {"name": "StatefulPartitionedCall/model/re_lu_42/Relu", "op": "Relu", "input": ["StatefulPartitionedCall/model/add_44/add"], "attr": {"T": {"type": "DT_FLOAT"}}}, {"name": "StatefulPartitionedCall/model/depthwise_conv2d_42/depthwise", "op": "DepthwiseConv2dNative", "input": ["StatefulPartitionedCall/model/re_lu_42/Relu", "StatefulPartitionedCall/model/depthwise_conv2d_42/depthwise/ReadVariableOp"], "attr": {"padding": {"s": "U0FNRQ=="}, "dilations": {"list": {"i": ["1", "1", "1", "1"]}}, "T": {"type": "DT_FLOAT"}, "data_format": {"s": "TkhXQw=="}, "strides": {"list": {"i": ["1", "1", "1", "1"]}}}}, {"name": "StatefulPartitionedCall/model/conv2d_44/BiasAdd", "op": "_FusedConv2D", "input": ["StatefulPartitionedCall/model/depthwise_conv2d_42/depthwise", "StatefulPartitionedCall/model/conv2d_44/Conv2D/ReadVariableOp", "StatefulPartitionedCall/model/conv2d_44/BiasAdd/ReadVariableOp"], "device": "/device:CPU:0", "attr": {"dilations": {"list": {"i": ["1", "1", "1", "1"]}}, "T": {"type": "DT_FLOAT"}, "data_format": {"s": "TkhXQw=="}, "strides": {"list": {"i": ["1", "1", "1", "1"]}}, "use_cudnn_on_gpu": {"b": true}, "explicit_paddings": {"list": {}}, "num_args": {"i": "1"}, "epsilon": {"f": 0.0}, "padding": {"s": "U0FNRQ=="}, "fused_ops": {"list": {"s": ["Qmlhc0FkZA=="]}}}}, {"name": "StatefulPartitionedCall/model/add_45/add", "op": "AddV2", "input": ["StatefulPartitionedCall/model/conv2d_44/BiasAdd", "StatefulPartitionedCall/model/re_lu_42/Relu"], "attr": {"T": {"type": "DT_FLOAT"}}}, {"name": "StatefulPartitionedCall/model/re_lu_43/Relu", "op": "Relu", "input": ["StatefulPartitionedCall/model/add_45/add"], "attr": {"T": {"type": "DT_FLOAT"}}}, {"name": "StatefulPartitionedCall/model/convld_21_3d/BiasAdd", "op": "_FusedConv2D", "input": ["StatefulPartitionedCall/model/re_lu_43/Relu", "StatefulPartitionedCall/model/convld_21_3d/Conv2D/ReadVariableOp", "StatefulPartitionedCall/model/convld_21_3d/BiasAdd/ReadVariableOp"], "device": "/device:CPU:0", "attr": {"dilations": {"list": {"i": ["1", "1", "1", "1"]}}, "T": {"type": "DT_FLOAT"}, "data_format": {"s": "TkhXQw=="}, "strides": {"list": {"i": ["1", "1", "1", "1"]}}, "use_cudnn_on_gpu": {"b": true}, "explicit_paddings": {"list": {}}, "num_args": {"i": "1"}, "epsilon": {"f": 0.0}, "padding": {"s": "VkFMSUQ="}, "fused_ops": {"list": {"s": ["Qmlhc0FkZA=="]}}}}, {"name": "StatefulPartitionedCall/model/conv_handedness/BiasAdd", "op": "_FusedConv2D", "input": ["StatefulPartitionedCall/model/re_lu_43/Relu", "StatefulPartitionedCall/model/conv_handedness/Conv2D/ReadVariableOp", "StatefulPartitionedCall/model/conv_handedness/BiasAdd/ReadVariableOp"], "device": "/device:CPU:0", "attr": {"dilations": {"list": {"i": ["1", "1", "1", "1"]}}, "T": {"type": "DT_FLOAT"}, "data_format": {"s": "TkhXQw=="}, "strides": {"list": {"i": ["1", "1", "1", "1"]}}, "use_cudnn_on_gpu": {"b": true}, "explicit_paddings": {"list": {}}, "num_args": {"i": "1"}, "epsilon": {"f": 0.0}, "padding": {"s": "VkFMSUQ="}, "fused_ops": {"list": {"s": ["Qmlhc0FkZA=="]}}}}, {"name": "StatefulPartitionedCall/model/conv_handflag/BiasAdd", "op": "_FusedConv2D", "input": ["StatefulPartitionedCall/model/re_lu_43/Relu", "StatefulPartitionedCall/model/conv_handflag/Conv2D/ReadVariableOp", "StatefulPartitionedCall/model/conv_handflag/BiasAdd/ReadVariableOp"], "device": "/device:CPU:0", "attr": {"dilations": {"list": {"i": ["1", "1", "1", "1"]}}, "T": {"type": "DT_FLOAT"}, "data_format": {"s": "TkhXQw=="}, "strides": {"list": {"i": ["1", "1", "1", "1"]}}, "use_cudnn_on_gpu": {"b": true}, "explicit_paddings": {"list": {}}, "num_args": {"i": "1"}, "epsilon": {"f": 0.0}, "padding": {"s": "VkFMSUQ="}, "fused_ops": {"list": {"s": ["Qmlhc0FkZA=="]}}}}, {"name": "StatefulPartitionedCall/model/ld_21_3d/Shape", "op": "Shape", "input": ["StatefulPartitionedCall/model/convld_21_3d/BiasAdd"], "attr": {"T": {"type": "DT_FLOAT"}, "out_type": {"type": "DT_INT32"}}}, {"name": "StatefulPartitionedCall/model/conv_handedness/Sigmoid", "op": "Sigmoid", "input": ["StatefulPartitionedCall/model/conv_handedness/BiasAdd"], "attr": {"T": {"type": "DT_FLOAT"}}}, {"name": "StatefulPartitionedCall/model/conv_handflag/Sigmoid", "op": "Sigmoid", "input": ["StatefulPartitionedCall/model/conv_handflag/BiasAdd"], "attr": {"T": {"type": "DT_FLOAT"}}}, {"name": "StatefulPartitionedCall/model/ld_21_3d/strided_slice", "op": "StridedSlice", "input": ["StatefulPartitionedCall/model/ld_21_3d/Shape", "StatefulPartitionedCall/model/ld_21_3d/strided_slice/stack", "StatefulPartitionedCall/model/ld_21_3d/strided_slice/stack_1", "StatefulPartitionedCall/model/ld_21_3d/strided_slice/stack_1"], "attr": {"T": {"type": "DT_INT32"}, "Index": {"type": "DT_INT32"}, "shrink_axis_mask": {"i": "1"}, "ellipsis_mask": {"i": "0"}, "begin_mask": {"i": "0"}, "new_axis_mask": {"i": "0"}, "end_mask": {"i": "0"}}}, {"name": "StatefulPartitionedCall/model/output_handedness/Shape", "op": "Shape", "input": ["StatefulPartitionedCall/model/conv_handedness/Sigmoid"], "attr": {"T": {"type": "DT_FLOAT"}, "out_type": {"type": "DT_INT32"}}}, {"name": "StatefulPartitionedCall/model/output_handflag/Shape", "op": "Shape", "input": ["StatefulPartitionedCall/model/conv_handflag/Sigmoid"], "attr": {"T": {"type": "DT_FLOAT"}, "out_type": {"type": "DT_INT32"}}}, {"name": "StatefulPartitionedCall/model/ld_21_3d/Reshape/shape", "op": "Pack", "input": ["StatefulPartitionedCall/model/ld_21_3d/strided_slice", "StatefulPartitionedCall/model/ld_21_3d/Reshape/shape/1"], "attr": {"T": {"type": "DT_INT32"}, "axis": {"i": "0"}, "N": {"i": "2"}}}, {"name": "StatefulPartitionedCall/model/output_handedness/strided_slice", "op": "StridedSlice", "input": ["StatefulPartitionedCall/model/output_handedness/Shape", "StatefulPartitionedCall/model/ld_21_3d/strided_slice/stack", "StatefulPartitionedCall/model/ld_21_3d/strided_slice/stack_1", "StatefulPartitionedCall/model/ld_21_3d/strided_slice/stack_1"], "attr": {"T": {"type": "DT_INT32"}, "Index": {"type": "DT_INT32"}, "shrink_axis_mask": {"i": "1"}, "ellipsis_mask": {"i": "0"}, "begin_mask": {"i": "0"}, "new_axis_mask": {"i": "0"}, "end_mask": {"i": "0"}}}, {"name": "StatefulPartitionedCall/model/output_handflag/strided_slice", "op": "StridedSlice", "input": ["StatefulPartitionedCall/model/output_handflag/Shape", "StatefulPartitionedCall/model/ld_21_3d/strided_slice/stack", "StatefulPartitionedCall/model/ld_21_3d/strided_slice/stack_1", "StatefulPartitionedCall/model/ld_21_3d/strided_slice/stack_1"], "attr": {"T": {"type": "DT_INT32"}, "Index": {"type": "DT_INT32"}, "shrink_axis_mask": {"i": "1"}, "ellipsis_mask": {"i": "0"}, "begin_mask": {"i": "0"}, "new_axis_mask": {"i": "0"}, "end_mask": {"i": "0"}}}, {"name": "StatefulPartitionedCall/model/ld_21_3d/Reshape", "op": "Reshape", "input": ["StatefulPartitionedCall/model/convld_21_3d/BiasAdd", "StatefulPartitionedCall/model/ld_21_3d/Reshape/shape"], "attr": {"T": {"type": "DT_FLOAT"}, "Tshape": {"type": "DT_INT32"}}}, {"name": "StatefulPartitionedCall/model/output_handedness/Reshape/shape", "op": "Pack", "input": ["StatefulPartitionedCall/model/output_handedness/strided_slice", "StatefulPartitionedCall/model/output_handedness/Reshape/shape/1"], "attr": {"T": {"type": "DT_INT32"}, "axis": {"i": "0"}, "N": {"i": "2"}}}, {"name": "StatefulPartitionedCall/model/output_handflag/Reshape/shape", "op": "Pack", "input": ["StatefulPartitionedCall/model/output_handflag/strided_slice", "StatefulPartitionedCall/model/output_handedness/Reshape/shape/1"], "attr": {"T": {"type": "DT_INT32"}, "axis": {"i": "0"}, "N": {"i": "2"}}}, {"name": "Identity", "op": "Identity", "input": ["StatefulPartitionedCall/model/ld_21_3d/Reshape", "^Func/StatefulPartitionedCall/output_control_node/_187"], "attr": {"T": {"type": "DT_FLOAT"}}}, {"name": "StatefulPartitionedCall/model/output_handedness/Reshape", "op": "Reshape", "input": ["StatefulPartitionedCall/model/conv_handedness/Sigmoid", "StatefulPartitionedCall/model/output_handedness/Reshape/shape"], "attr": {"T": {"type": "DT_FLOAT"}, "Tshape": {"type": "DT_INT32"}}}, {"name": "StatefulPartitionedCall/model/output_handflag/Reshape", "op": "Reshape", "input": ["StatefulPartitionedCall/model/conv_handflag/Sigmoid", "StatefulPartitionedCall/model/output_handflag/Reshape/shape"], "attr": {"T": {"type": "DT_FLOAT"}, "Tshape": {"type": "DT_INT32"}}}, {"name": "Identity_1", "op": "Identity", "input": ["StatefulPartitionedCall/model/output_handedness/Reshape", "^Func/StatefulPartitionedCall/output_control_node/_187"], "attr": {"T": {"type": "DT_FLOAT"}}}, {"name": "Identity_2", "op": "Identity", "input": ["StatefulPartitionedCall/model/output_handflag/Reshape", "^Func/StatefulPartitionedCall/output_control_node/_187"], "attr": {"T": {"type": "DT_FLOAT"}}}], "versions": {"producer": 175}}, "weightsManifest": [{"paths": ["group1-shard1of1.bin"], "weights": [{"name": "StatefulPartitionedCall/model/ld_21_3d/Reshape/shape/1", "shape": [], "dtype": "int32"}, {"name": "StatefulPartitionedCall/model/tf_op_layer_Pad/Pad/paddings", "shape": [4, 2], "dtype": "int32"}, {"name": "StatefulPartitionedCall/model/tf_op_layer_resize/ResizeBilinear/resize/ResizeBilinear/size", "shape": [2], "dtype": "int32"}, {"name": "StatefulPartitionedCall/model/tf_op_layer_resize_1/ResizeBilinear/resize_1/ResizeBilinear/size", "shape": [2], "dtype": "int32"}, {"name": "StatefulPartitionedCall/model/tf_op_layer_resize_2/ResizeBilinear/resize_2/ResizeBilinear/size", "shape": [2], "dtype": "int32"}, {"name": "StatefulPartitionedCall/model/tf_op_layer_Pad_1/Pad_1/paddings", "shape": [4, 2], "dtype": "int32"}, {"name": "StatefulPartitionedCall/model/tf_op_layer_Pad_3/Pad_3/paddings", "shape": [4, 2], "dtype": "int32"}, {"name": "StatefulPartitionedCall/model/ld_21_3d/strided_slice/stack", "shape": [1], "dtype": "int32"}, {"name": "StatefulPartitionedCall/model/ld_21_3d/strided_slice/stack_1", "shape": [1], "dtype": "int32"}, {"name": "StatefulPartitionedCall/model/output_handedness/Reshape/shape/1", "shape": [], "dtype": "int32"}, {"name": "StatefulPartitionedCall/model/conv2d/BiasAdd/ReadVariableOp", "shape": [24], "dtype": "float32", "quantization": {"min": -1.7783238143263143, "scale": 5.093294613565271e-05, "dtype": "uint16"}}, {"name": "StatefulPartitionedCall/model/conv2d/Conv2D/ReadVariableOp", "shape": [3, 3, 3, 24], "dtype": "float32", "quantization": {"min": -4.793024451390478, "scale": 0.00011566457808804455, "dtype": "uint16"}}, {"name": "StatefulPartitionedCall/model/conv2d_1/BiasAdd/ReadVariableOp", "shape": [24], "dtype": "float32", "quantization": {"min": -1.2392523436903944, "scale": 4.2632872701609824e-05, "dtype": "uint16"}}, {"name": "StatefulPartitionedCall/model/conv2d_1/Conv2D/ReadVariableOp", "shape": [1, 1, 24, 24], "dtype": "float32", "quantization": {"min": -1.5234542193579765, "scale": 3.899693389028763e-05, "dtype": "uint16"}}, {"name": "StatefulPartitionedCall/model/conv2d_10/BiasAdd/ReadVariableOp", "shape": [96], "dtype": "float32", "quantization": {"min": -2.6855222579060807, "scale": 0.00011208824483100633, "dtype": "uint16"}}, {"name": "StatefulPartitionedCall/model/conv2d_10/Conv2D/ReadVariableOp", "shape": [1, 1, 96, 96], "dtype": "float32", "quantization": {"min": -0.29638307536049435, "scale": 1.3031264305333028e-05, "dtype": "uint16"}}, {"name": "StatefulPartitionedCall/model/conv2d_11/BiasAdd/ReadVariableOp", "shape": [96], "dtype": "float32", "quantization": {"min": -3.3124977349889373, "scale": 0.000102700370031281, "dtype": "uint16"}}, {"name": "StatefulPartitionedCall/model/conv2d_11/Conv2D/ReadVariableOp", "shape": [1, 1, 96, 96], "dtype": "float32", "quantization": {"min": -0.4138162806312944, "scale": 1.2170709115358206e-05, "dtype": "uint16"}}, {"name": "StatefulPartitionedCall/model/conv2d_12/BiasAdd/ReadVariableOp", "shape": [96], "dtype": "float32", "quantization": {"min": -4.941409289883269, "scale": 0.00014269569695582514, "dtype": "uint16"}}, {"name": "StatefulPartitionedCall/model/conv2d_12/Conv2D/ReadVariableOp", "shape": [1, 1, 96, 96], "dtype": "float32", "quantization": {"min": -0.3747566528739414, "scale": 1.0661943522545204e-05, "dtype": "uint16"}}, {"name": "StatefulPartitionedCall/model/conv2d_13/BiasAdd/ReadVariableOp", "shape": [96], "dtype": "float32", "quantization": {"min": -5.496046363584344, "scale": 0.00018489642938887617, "dtype": "uint16"}}, {"name": "StatefulPartitionedCall/model/conv2d_13/Conv2D/ReadVariableOp", "shape": [1, 1, 96, 96], "dtype": "float32", "quantization": {"min": -0.15612966197392136, "scale": 5.057158746280613e-06, "dtype": "uint16"}}, {"name": "StatefulPartitionedCall/model/conv2d_14/BiasAdd/ReadVariableOp", "shape": [96], "dtype": "float32", "quantization": {"min": -4.781246602483406, "scale": 0.00015539168001831082, "dtype": "uint16"}}, {"name": "StatefulPartitionedCall/model/conv2d_14/Conv2D/ReadVariableOp", "shape": [1, 1, 96, 96], "dtype": "float32", "quantization": {"min": -0.2814916260156787, "scale": 7.279328316929885e-06, "dtype": "uint16"}}, {"name": "StatefulPartitionedCall/model/conv2d_15/BiasAdd/ReadVariableOp", "shape": [48], "dtype": "float32", "quantization": {"min": -4.648483992332341, "scale": 0.00013888094148165102, "dtype": "uint16"}}, {"name": "StatefulPartitionedCall/model/conv2d_15/Conv2D/ReadVariableOp", "shape": [1, 1, 96, 48], "dtype": "float32", "quantization": {"min": -0.12457284797126536, "scale": 3.645252179179065e-06, "dtype": "uint16"}}, {"name": "StatefulPartitionedCall/model/conv2d_16/BiasAdd/ReadVariableOp", "shape": [48], "dtype": "float32", "quantization": {"min": -1.09374290693904, "scale": 2.967611533913176e-05, "dtype": "uint16"}}, {"name": "StatefulPartitionedCall/model/conv2d_16/Conv2D/ReadVariableOp", "shape": [1, 1, 48, 48], "dtype": "float32", "quantization": {"min": -0.29296597461637863, "scale": 9.168079318303196e-06, "dtype": "uint16"}}, {"name": "StatefulPartitionedCall/model/conv2d_17/BiasAdd/ReadVariableOp", "shape": [48], "dtype": "float32", "quantization": {"min": -1.6298645881017777, "scale": 4.869773785000382e-05, "dtype": "uint16"}}, {"name": "StatefulPartitionedCall/model/conv2d_17/Conv2D/ReadVariableOp", "shape": [1, 1, 48, 48], "dtype": "float32", "quantization": {"min": -0.26025401801041426, "scale": 7.785975528343633e-06, "dtype": "uint16"}}, {"name": "StatefulPartitionedCall/model/conv2d_18/BiasAdd/ReadVariableOp", "shape": [48], "dtype": "float32", "quantization": {"min": -0.6875057221332113, "scale": 4.124704356450752e-05, "dtype": "uint16"}}, {"name": "StatefulPartitionedCall/model/conv2d_18/Conv2D/ReadVariableOp", "shape": [1, 1, 48, 48], "dtype": "float32", "quantization": {"min": -0.25439117098687725, "scale": 8.501242179751278e-06, "dtype": "uint16"}}, {"name": "StatefulPartitionedCall/model/conv2d_19/BiasAdd/ReadVariableOp", "shape": [48], "dtype": "float32", "quantization": {"min": -1.0879140201800566, "scale": 4.929379339284352e-05, "dtype": "uint16"}}, {"name": "StatefulPartitionedCall/model/conv2d_19/Conv2D/ReadVariableOp", "shape": [1, 1, 48, 48], "dtype": "float32", "quantization": {"min": -0.25683422756566143, "scale": 7.78970087548638e-06, "dtype": "uint16"}}, {"name": "StatefulPartitionedCall/model/conv2d_2/BiasAdd/ReadVariableOp", "shape": [24], "dtype": "float32", "quantization": {"min": -1.2988479438467995, "scale": 4.5300221255817504e-05, "dtype": "uint16"}}, {"name": "StatefulPartitionedCall/model/conv2d_2/Conv2D/ReadVariableOp", "shape": [1, 1, 24, 24], "dtype": "float32", "quantization": {"min": -0.8476648630025941, "scale": 2.3387729362172886e-05, "dtype": "uint16"}}, {"name": "StatefulPartitionedCall/model/conv2d_20/BiasAdd/ReadVariableOp", "shape": [96], "dtype": "float32", "quantization": {"min": -2.2812761072327765, "scale": 7.134784847791257e-05, "dtype": "uint16"}}, {"name": "StatefulPartitionedCall/model/conv2d_20/Conv2D/ReadVariableOp", "shape": [1, 1, 48, 96], "dtype": "float32", "quantization": {"min": -0.19323485527175366, "scale": 6.159861500534066e-06, "dtype": "uint16"}}, {"name": "StatefulPartitionedCall/model/conv2d_21/BiasAdd/ReadVariableOp", "shape": [96], "dtype": "float32", "quantization": {"min": -1.1689250019073778, "scale": 4.160467689021134e-05, "dtype": "uint16"}}, {"name": "StatefulPartitionedCall/model/conv2d_21/Conv2D/ReadVariableOp", "shape": [1, 1, 96, 96], "dtype": "float32", "quantization": {"min": -0.2924786135271229, "scale": 8.970635919737545e-06, "dtype": "uint16"}}, {"name": "StatefulPartitionedCall/model/conv2d_22/BiasAdd/ReadVariableOp", "shape": [96], "dtype": "float32", "quantization": {"min": -1.5214926154678796, "scale": 5.0262383649958035e-05, "dtype": "uint16"}}, {"name": "StatefulPartitionedCall/model/conv2d_22/Conv2D/ReadVariableOp", "shape": [1, 1, 96, 96], "dtype": "float32", "quantization": {"min": -0.35937390102259287, "scale": 9.592768892576486e-06, "dtype": "uint16"}}, {"name": "StatefulPartitionedCall/model/conv2d_23/BiasAdd/ReadVariableOp", "shape": [96], "dtype": "float32", "quantization": {"min": -1.2753978670748456, "scale": 3.773031586175326e-05, "dtype": "uint16"}}, {"name": "StatefulPartitionedCall/model/conv2d_23/Conv2D/ReadVariableOp", "shape": [1, 1, 96, 96], "dtype": "float32", "quantization": {"min": -0.29907021668407147, "scale": 8.132432812619211e-06, "dtype": "uint16"}}, {"name": "StatefulPartitionedCall/model/conv2d_24/BiasAdd/ReadVariableOp", "shape": [96], "dtype": "float32", "quantization": {"min": -1.5917812285420005, "scale": 4.3586561570153354e-05, "dtype": "uint16"}}, {"name": "StatefulPartitionedCall/model/conv2d_24/Conv2D/ReadVariableOp", "shape": [1, 1, 96, 96], "dtype": "float32", "quantization": {"min": -0.35229830821555275, "scale": 9.231410219729915e-06, "dtype": "uint16"}}, {"name": "StatefulPartitionedCall/model/conv2d_25/BiasAdd/ReadVariableOp", "shape": [288], "dtype": "float32", "quantization": {"min": -1.491203784833486, "scale": 3.962279221026932e-05, "dtype": "uint16"}}, {"name": "StatefulPartitionedCall/model/conv2d_25/Conv2D/ReadVariableOp", "shape": [1, 1, 96, 288], "dtype": "float32", "quantization": {"min": -0.2573207541771572, "scale": 7.391088731212329e-06, "dtype": "uint16"}}, {"name": "StatefulPartitionedCall/model/conv2d_26/BiasAdd/ReadVariableOp", "shape": [288], "dtype": "float32", "quantization": {"min": -1.6318520459010453, "scale": 4.383988517586023e-05, "dtype": "uint16"}}, {"name": "StatefulPartitionedCall/model/conv2d_26/Conv2D/ReadVariableOp", "shape": [1, 1, 288, 288], "dtype": "float32", "quantization": {"min": -0.29126186672078846, "scale": 9.264938344014648e-06, "dtype": "uint16"}}, {"name": "StatefulPartitionedCall/model/conv2d_27/BiasAdd/ReadVariableOp", "shape": [288], "dtype": "float32", "quantization": {"min": -1.3994025735294118, "scale": 3.6791528381780726e-05, "dtype": "uint16"}}, {"name": "StatefulPartitionedCall/model/conv2d_27/Conv2D/ReadVariableOp", "shape": [1, 1, 288, 288], "dtype": "float32", "quantization": {"min": -0.39868052674620436, "scale": 1.276676465819791e-05, "dtype": "uint16"}}, {"name": "StatefulPartitionedCall/model/conv2d_28/BiasAdd/ReadVariableOp", "shape": [288], "dtype": "float32", "quantization": {"min": -1.6611187306878006, "scale": 4.680526150148776e-05, "dtype": "uint16"}}, {"name": "StatefulPartitionedCall/model/conv2d_28/Conv2D/ReadVariableOp", "shape": [1, 1, 288, 288], "dtype": "float32", "quantization": {"min": -0.7968714124907016, "scale": 1.6864646515220875e-05, "dtype": "uint16"}}, {"name": "StatefulPartitionedCall/model/conv2d_29/BiasAdd/ReadVariableOp", "shape": [288], "dtype": "float32", "quantization": {"min": -2.7187446355001144, "scale": 5.9009498741130694e-05, "dtype": "uint16"}}, {"name": "StatefulPartitionedCall/model/conv2d_29/Conv2D/ReadVariableOp", "shape": [1, 1, 288, 288], "dtype": "float32", "quantization": {"min": -0.71142280842298, "scale": 1.943141069657435e-05, "dtype": "uint16"}}, {"name": "StatefulPartitionedCall/model/conv2d_3/BiasAdd/ReadVariableOp", "shape": [48], "dtype": "float32", "quantization": {"min": -1.7929903570134278, "scale": 6.005259594110017e-05, "dtype": "uint16"}}, {"name": "StatefulPartitionedCall/model/conv2d_3/Conv2D/ReadVariableOp", "shape": [1, 1, 24, 48], "dtype": "float32", "quantization": {"min": -0.36596955735723274, "scale": 1.4003579909590295e-05, "dtype": "uint16"}}, {"name": "StatefulPartitionedCall/model/conv2d_30/BiasAdd/ReadVariableOp", "shape": [288], "dtype": "float32", "quantization": {"min": -3.0410456661993592, "scale": 8.621943427176319e-05, "dtype": "uint16"}}, {"name": "StatefulPartitionedCall/model/conv2d_30/Conv2D/ReadVariableOp", "shape": [1, 1, 288, 288], "dtype": "float32", "quantization": {"min": -0.2531751543485828, "scale": 8.221841144045166e-06, "dtype": "uint16"}}, {"name": "StatefulPartitionedCall/model/conv2d_31/BiasAdd/ReadVariableOp", "shape": [288], "dtype": "float32", "quantization": {"min": -2.859387695983062, "scale": 7.051337071793697e-05, "dtype": "uint16"}}, {"name": "StatefulPartitionedCall/model/conv2d_31/Conv2D/ReadVariableOp", "shape": [1, 1, 288, 288], "dtype": "float32", "quantization": {"min": -0.3032244295152399, "scale": 1.0512929636835279e-05, "dtype": "uint16"}}, {"name": "StatefulPartitionedCall/model/conv2d_32/BiasAdd/ReadVariableOp", "shape": [288], "dtype": "float32", "quantization": {"min": -1.464842259861143, "scale": 3.993572137026017e-05, "dtype": "uint16"}}, {"name": "StatefulPartitionedCall/model/conv2d_32/Conv2D/ReadVariableOp", "shape": [1, 1, 288, 288], "dtype": "float32", "quantization": {"min": -0.5214806869063286, "scale": 1.441709344243534e-05, "dtype": "uint16"}}, {"name": "StatefulPartitionedCall/model/conv2d_33/BiasAdd/ReadVariableOp", "shape": [288], "dtype": "float32", "quantization": {"min": -1.547835692521172, "scale": 3.759620336461433e-05, "dtype": "uint16"}}, {"name": "StatefulPartitionedCall/model/conv2d_33/Conv2D/ReadVariableOp", "shape": [1, 1, 288, 288], "dtype": "float32", "quantization": {"min": -0.3120092600208858, "scale": 1.367202401388571e-05, "dtype": "uint16"}}, {"name": "StatefulPartitionedCall/model/conv2d_34/BiasAdd/ReadVariableOp", "shape": [288], "dtype": "float32", "quantization": {"min": -1.5253799854085601, "scale": 3.875851167315175e-05, "dtype": "uint16"}}, {"name": "StatefulPartitionedCall/model/conv2d_34/Conv2D/ReadVariableOp", "shape": [1, 1, 288, 288], "dtype": "float32", "quantization": {"min": -0.39745901522087435, "scale": 1.6361724650949874e-05, "dtype": "uint16"}}, {"name": "StatefulPartitionedCall/model/conv2d_35/BiasAdd/ReadVariableOp", "shape": [288], "dtype": "float32", "quantization": {"min": -1.547827586165789, "scale": 5.039649614709697e-05, "dtype": "uint16"}}, {"name": "StatefulPartitionedCall/model/conv2d_35/Conv2D/ReadVariableOp", "shape": [1, 1, 288, 288], "dtype": "float32", "quantization": {"min": -0.33056970318222134, "scale": 1.145544246395056e-05, "dtype": "uint16"}}, {"name": "StatefulPartitionedCall/model/conv2d_36/BiasAdd/ReadVariableOp", "shape": [288], "dtype": "float32", "quantization": {"min": -2.750004231994354, "scale": 7.298700122072175e-05, "dtype": "uint16"}}, {"name": "StatefulPartitionedCall/model/conv2d_36/Conv2D/ReadVariableOp", "shape": [1, 1, 288, 288], "dtype": "float32", "quantization": {"min": -0.4194342643124857, "scale": 1.4193572613870451e-05, "dtype": "uint16"}}, {"name": "StatefulPartitionedCall/model/conv2d_37/BiasAdd/ReadVariableOp", "shape": [288], "dtype": "float32", "quantization": {"min": -1.8271667662079423, "scale": 5.97992723353933e-05, "dtype": "uint16"}}, {"name": "StatefulPartitionedCall/model/conv2d_37/Conv2D/ReadVariableOp", "shape": [1, 1, 288, 288], "dtype": "float32", "quantization": {"min": -0.4460450373607614, "scale": 1.296793340390631e-05, "dtype": "uint16"}}, {"name": "StatefulPartitionedCall/model/conv2d_38/BiasAdd/ReadVariableOp", "shape": [288], "dtype": "float32", "quantization": {"min": -1.3486510070954452, "scale": 5.01282711528191e-05, "dtype": "uint16"}}, {"name": "StatefulPartitionedCall/model/conv2d_38/Conv2D/ReadVariableOp", "shape": [1, 1, 288, 288], "dtype": "float32", "quantization": {"min": -0.6274428367833028, "scale": 1.6842294432364387e-05, "dtype": "uint16"}}, {"name": "StatefulPartitionedCall/model/conv2d_39/BiasAdd/ReadVariableOp", "shape": [288], "dtype": "float32", "quantization": {"min": -1.893531903276875, "scale": 5.5760996032654305e-05, "dtype": "uint16"}}, {"name": "StatefulPartitionedCall/model/conv2d_39/Conv2D/ReadVariableOp", "shape": [1, 1, 288, 288], "dtype": "float32", "quantization": {"min": -0.6840812936312657, "scale": 1.9401607919432363e-05, "dtype": "uint16"}}, {"name": "StatefulPartitionedCall/model/conv2d_4/BiasAdd/ReadVariableOp", "shape": [48], "dtype": "float32", "quantization": {"min": -1.381864279941062, "scale": 6.015690566109713e-05, "dtype": "uint16"}}, {"name": "StatefulPartitionedCall/model/conv2d_4/Conv2D/ReadVariableOp", "shape": [1, 1, 48, 48], "dtype": "float32", "quantization": {"min": -0.7636803240873198, "scale": 2.5801754310673686e-05, "dtype": "uint16"}}, {"name": "StatefulPartitionedCall/model/conv2d_40/BiasAdd/ReadVariableOp", "shape": [288], "dtype": "float32", "quantization": {"min": -1.6211286192492562, "scale": 7.179489013504235e-05, "dtype": "uint16"}}, {"name": "StatefulPartitionedCall/model/conv2d_40/Conv2D/ReadVariableOp", "shape": [1, 1, 288, 288], "dtype": "float32", "quantization": {"min": -0.5292996764610514, "scale": 1.581037327382315e-05, "dtype": "uint16"}}, {"name": "StatefulPartitionedCall/model/conv2d_41/BiasAdd/ReadVariableOp", "shape": [288], "dtype": "float32", "quantization": {"min": -2.703091680495155, "scale": 0.00012225099183642328, "dtype": "uint16"}}, {"name": "StatefulPartitionedCall/model/conv2d_41/Conv2D/ReadVariableOp", "shape": [1, 1, 288, 288], "dtype": "float32", "quantization": {"min": -0.9682683498679141, "scale": 2.7977357042038604e-05, "dtype": "uint16"}}, {"name": "StatefulPartitionedCall/model/conv2d_42/BiasAdd/ReadVariableOp", "shape": [288], "dtype": "float32", "quantization": {"min": -5.382743953612573, "scale": 0.00015086165789272908, "dtype": "uint16"}}, {"name": "StatefulPartitionedCall/model/conv2d_42/Conv2D/ReadVariableOp", "shape": [1, 1, 288, 288], "dtype": "float32", "quantization": {"min": -1.0810512750820171, "scale": 2.975807297627222e-05, "dtype": "uint16"}}, {"name": "StatefulPartitionedCall/model/conv2d_43/BiasAdd/ReadVariableOp", "shape": [288], "dtype": "float32", "quantization": {"min": -3.152266083962768, "scale": 0.00015890840772106508, "dtype": "uint16"}}, {"name": "StatefulPartitionedCall/model/conv2d_43/Conv2D/ReadVariableOp", "shape": [1, 1, 288, 288], "dtype": "float32", "quantization": {"min": -1.2002005726901654, "scale": 3.46308270389868e-05, "dtype": "uint16"}}, {"name": "StatefulPartitionedCall/model/conv2d_44/BiasAdd/ReadVariableOp", "shape": [288], "dtype": "float32", "quantization": {"min": -0.9194469155913825, "scale": 0.00019940293116273746, "dtype": "uint16"}}, {"name": "StatefulPartitionedCall/model/conv2d_44/Conv2D/ReadVariableOp", "shape": [1, 1, 288, 288], "dtype": "float32", "quantization": {"min": -1.2422035934996567, "scale": 3.576333257038224e-05, "dtype": "uint16"}}, {"name": "StatefulPartitionedCall/model/conv2d_5/BiasAdd/ReadVariableOp", "shape": [48], "dtype": "float32", "quantization": {"min": -2.105468302958343, "scale": 8.770957312886244e-05, "dtype": "uint16"}}, {"name": "StatefulPartitionedCall/model/conv2d_5/Conv2D/ReadVariableOp", "shape": [1, 1, 48, 48], "dtype": "float32", "quantization": {"min": -0.7993246690699627, "scale": 2.434886892500191e-05, "dtype": "uint16"}}, {"name": "StatefulPartitionedCall/model/conv2d_6/BiasAdd/ReadVariableOp", "shape": [96], "dtype": "float32", "quantization": {"min": -2.412136286907759, "scale": 7.706998168917372e-05, "dtype": "uint16"}}, {"name": "StatefulPartitionedCall/model/conv2d_6/Conv2D/ReadVariableOp", "shape": [1, 1, 48, 96], "dtype": "float32", "quantization": {"min": -0.5112321451562142, "scale": 1.3478305962462806e-05, "dtype": "uint16"}}, {"name": "StatefulPartitionedCall/model/conv2d_7/BiasAdd/ReadVariableOp", "shape": [96], "dtype": "float32", "quantization": {"min": -3.0839790403028915, "scale": 0.00010636611161974518, "dtype": "uint16"}}, {"name": "StatefulPartitionedCall/model/conv2d_7/Conv2D/ReadVariableOp", "shape": [1, 1, 96, 96], "dtype": "float32", "quantization": {"min": -0.2983422950284199, "scale": 1.0155296311131456e-05, "dtype": "uint16"}}, {"name": "StatefulPartitionedCall/model/conv2d_8/BiasAdd/ReadVariableOp", "shape": [96], "dtype": "float32", "quantization": {"min": -1.8271408377918288, "scale": 6.459751945525292e-05, "dtype": "uint16"}}, {"name": "StatefulPartitionedCall/model/conv2d_8/Conv2D/ReadVariableOp", "shape": [1, 1, 96, 96], "dtype": "float32", "quantization": {"min": -0.3234868869270714, "scale": 1.0494302901121538e-05, "dtype": "uint16"}}, {"name": "StatefulPartitionedCall/model/conv2d_9/BiasAdd/ReadVariableOp", "shape": [96], "dtype": "float32", "quantization": {"min": -1.4355194862478067, "scale": 7.158627069504845e-05, "dtype": "uint16"}}, {"name": "StatefulPartitionedCall/model/conv2d_9/Conv2D/ReadVariableOp", "shape": [1, 1, 96, 96], "dtype": "float32", "quantization": {"min": -0.3479021229114214, "scale": 1.0848210879682613e-05, "dtype": "uint16"}}, {"name": "StatefulPartitionedCall/model/conv_handedness/BiasAdd/ReadVariableOp", "shape": [1], "dtype": "float32", "quantization": {"min": -0.003955841064453125, "scale": 1.0, "dtype": "uint16"}}, {"name": "StatefulPartitionedCall/model/conv_handedness/Conv2D/ReadVariableOp", "shape": [2, 2, 288, 1], "dtype": "float32", "quantization": {"min": -1.3593918832732508, "scale": 3.50331645304036e-05, "dtype": "uint16"}}, {"name": "StatefulPartitionedCall/model/conv_handflag/BiasAdd/ReadVariableOp", "shape": [1], "dtype": "float32", "quantization": {"min": -0.2425537109375, "scale": 1.0, "dtype": "uint16"}}, {"name": "StatefulPartitionedCall/model/conv_handflag/Conv2D/ReadVariableOp", "shape": [2, 2, 288, 1], "dtype": "float32", "quantization": {"min": -0.4023367761501488, "scale": 2.551117723353933e-05, "dtype": "uint16"}}, {"name": "StatefulPartitionedCall/model/convld_21_3d/BiasAdd/ReadVariableOp", "shape": [63], "dtype": "float32", "quantization": {"min": -10.601642729076065, "scale": 0.0002915903715571832, "dtype": "uint16"}}, {"name": "StatefulPartitionedCall/model/convld_21_3d/Conv2D/ReadVariableOp", "shape": [2, 2, 288, 63], "dtype": "float32", "quantization": {"min": -1.5693405420290685, "scale": 5.4822208552681775e-05, "dtype": "uint16"}}, {"name": "StatefulPartitionedCall/model/depthwise_conv2d/depthwise/ReadVariableOp", "shape": [5, 5, 24, 1], "dtype": "float32", "quantization": {"min": -0.8476458935349431, "scale": 2.6785245956359197e-05, "dtype": "uint16"}}, {"name": "StatefulPartitionedCall/model/depthwise_conv2d_1/depthwise/ReadVariableOp", "shape": [5, 5, 24, 1], "dtype": "float32", "quantization": {"min": -0.5444314703021287, "scale": 2.0936450942244602e-05, "dtype": "uint16"}}, {"name": "StatefulPartitionedCall/model/depthwise_conv2d_10/depthwise/ReadVariableOp", "shape": [5, 5, 96, 1], "dtype": "float32", "quantization": {"min": -0.8676650746023117, "scale": 2.3201462005035476e-05, "dtype": "uint16"}}, {"name": "StatefulPartitionedCall/model/depthwise_conv2d_11/depthwise/ReadVariableOp", "shape": [5, 5, 96, 1], "dtype": "float32", "quantization": {"min": -0.6713822110799572, "scale": 2.1308985656519416e-05, "dtype": "uint16"}}, {"name": "StatefulPartitionedCall/model/depthwise_conv2d_12/depthwise/ReadVariableOp", "shape": [5, 5, 96, 1], "dtype": "float32", "quantization": {"min": -0.7431616261229687, "scale": 2.0511761367971315e-05, "dtype": "uint16"}}, {"name": "StatefulPartitionedCall/model/depthwise_conv2d_13/depthwise/ReadVariableOp", "shape": [5, 5, 96, 1], "dtype": "float32", "quantization": {"min": -0.6337849199139773, "scale": 1.882790445944915e-05, "dtype": "uint16"}}, {"name": "StatefulPartitionedCall/model/depthwise_conv2d_14/depthwise/ReadVariableOp", "shape": [5, 5, 48, 1], "dtype": "float32", "quantization": {"min": -0.6914134771734569, "scale": 2.1085464827954528e-05, "dtype": "uint16"}}, {"name": "StatefulPartitionedCall/model/depthwise_conv2d_15/depthwise/ReadVariableOp", "shape": [5, 5, 48, 1], "dtype": "float32", "quantization": {"min": -0.7885805890936142, "scale": 2.2679913405050737e-05, "dtype": "uint16"}}, {"name": "StatefulPartitionedCall/model/depthwise_conv2d_16/depthwise/ReadVariableOp", "shape": [5, 5, 48, 1], "dtype": "float32", "quantization": {"min": -0.6411202029449913, "scale": 1.764324406805524e-05, "dtype": "uint16"}}, {"name": "StatefulPartitionedCall/model/depthwise_conv2d_17/depthwise/ReadVariableOp", "shape": [5, 5, 48, 1], "dtype": "float32", "quantization": {"min": -0.8486303537708858, "scale": 2.1793280785076677e-05, "dtype": "uint16"}}, {"name": "StatefulPartitionedCall/model/depthwise_conv2d_18/depthwise/ReadVariableOp", "shape": [5, 5, 48, 1], "dtype": "float32", "quantization": {"min": -0.5361376256485084, "scale": 1.7605990596627755e-05, "dtype": "uint16"}}, {"name": "StatefulPartitionedCall/model/depthwise_conv2d_19/depthwise/ReadVariableOp", "shape": [5, 5, 96, 1], "dtype": "float32", "quantization": {"min": -0.7436426056925688, "scale": 2.33504758907454e-05, "dtype": "uint16"}}, {"name": "StatefulPartitionedCall/model/depthwise_conv2d_2/depthwise/ReadVariableOp", "shape": [5, 5, 24, 1], "dtype": "float32", "quantization": {"min": -0.6284201816062028, "scale": 1.991570582513161e-05, "dtype": "uint16"}}, {"name": "StatefulPartitionedCall/model/depthwise_conv2d_20/depthwise/ReadVariableOp", "shape": [5, 5, 96, 1], "dtype": "float32", "quantization": {"min": -0.7617182359020943, "scale": 2.2627758545052263e-05, "dtype": "uint16"}}, {"name": "StatefulPartitionedCall/model/depthwise_conv2d_21/depthwise/ReadVariableOp", "shape": [5, 5, 96, 1], "dtype": "float32", "quantization": {"min": -0.8706066236076143, "scale": 2.6591527904936294e-05, "dtype": "uint16"}}, {"name": "StatefulPartitionedCall/model/depthwise_conv2d_22/depthwise/ReadVariableOp", "shape": [5, 5, 96, 1], "dtype": "float32", "quantization": {"min": -0.6557563542501145, "scale": 2.164426689936675e-05, "dtype": "uint16"}}, {"name": "StatefulPartitionedCall/model/depthwise_conv2d_23/depthwise/ReadVariableOp", "shape": [5, 5, 96, 1], "dtype": "float32", "quantization": {"min": -0.6547887325832571, "scale": 1.8663989185168232e-05, "dtype": "uint16"}}, {"name": "StatefulPartitionedCall/model/depthwise_conv2d_24/depthwise/ReadVariableOp", "shape": [5, 5, 288, 1], "dtype": "float32", "quantization": {"min": -0.9321295991645686, "scale": 2.6286049439230947e-05, "dtype": "uint16"}}, {"name": "StatefulPartitionedCall/model/depthwise_conv2d_25/depthwise/ReadVariableOp", "shape": [5, 5, 288, 1], "dtype": "float32", "quantization": {"min": -1.0097744764248113, "scale": 2.5302557793545435e-05, "dtype": "uint16"}}, {"name": "StatefulPartitionedCall/model/depthwise_conv2d_26/depthwise/ReadVariableOp", "shape": [5, 5, 288, 1], "dtype": "float32", "quantization": {"min": -0.6577124297250515, "scale": 2.2031703002212558e-05, "dtype": "uint16"}}, {"name": "StatefulPartitionedCall/model/depthwise_conv2d_27/depthwise/ReadVariableOp", "shape": [5, 5, 288, 1], "dtype": "float32", "quantization": {"min": -0.5927761644541085, "scale": 2.1703872453650722e-05, "dtype": "uint16"}}, {"name": "StatefulPartitionedCall/model/depthwise_conv2d_28/depthwise/ReadVariableOp", "shape": [5, 5, 288, 1], "dtype": "float32", "quantization": {"min": -0.6445310264791714, "scale": 1.9416509308003356e-05, "dtype": "uint16"}}, {"name": "StatefulPartitionedCall/model/depthwise_conv2d_29/depthwise/ReadVariableOp", "shape": [5, 5, 288, 1], "dtype": "float32", "quantization": {"min": -0.7495156750686656, "scale": 2.3648503662165256e-05, "dtype": "uint16"}}, {"name": "StatefulPartitionedCall/model/depthwise_conv2d_3/depthwise/ReadVariableOp", "shape": [5, 5, 48, 1], "dtype": "float32", "quantization": {"min": -0.8574250042915998, "scale": 2.67777952620737e-05, "dtype": "uint16"}}, {"name": "StatefulPartitionedCall/model/depthwise_conv2d_30/depthwise/ReadVariableOp", "shape": [5, 5, 288, 1], "dtype": "float32", "quantization": {"min": -0.7143612579394598, "scale": 2.1703872453650722e-05, "dtype": "uint16"}}, {"name": "StatefulPartitionedCall/model/depthwise_conv2d_31/depthwise/ReadVariableOp", "shape": [5, 5, 288, 1], "dtype": "float32", "quantization": {"min": -0.7802803070401312, "scale": 2.327596894789044e-05, "dtype": "uint16"}}, {"name": "StatefulPartitionedCall/model/depthwise_conv2d_32/depthwise/ReadVariableOp", "shape": [5, 5, 288, 1], "dtype": "float32", "quantization": {"min": -0.711905918891146, "scale": 2.4579840447852293e-05, "dtype": "uint16"}}, {"name": "StatefulPartitionedCall/model/depthwise_conv2d_33/depthwise/ReadVariableOp", "shape": [5, 5, 288, 1], "dtype": "float32", "quantization": {"min": -0.6596777962157626, "scale": 2.0891746776531625e-05, "dtype": "uint16"}}, {"name": "StatefulPartitionedCall/model/depthwise_conv2d_34/depthwise/ReadVariableOp", "shape": [5, 5, 288, 1], "dtype": "float32", "quantization": {"min": -0.7309594229228656, "scale": 2.2828927290760662e-05, "dtype": "uint16"}}, {"name": "StatefulPartitionedCall/model/depthwise_conv2d_35/depthwise/ReadVariableOp", "shape": [5, 5, 288, 1], "dtype": "float32", "quantization": {"min": -0.8095653726896888, "scale": 2.3894376573586633e-05, "dtype": "uint16"}}, {"name": "StatefulPartitionedCall/model/depthwise_conv2d_36/depthwise/ReadVariableOp", "shape": [5, 5, 288, 1], "dtype": "float32", "quantization": {"min": -1.0439320502641718, "scale": 2.8089117456321048e-05, "dtype": "uint16"}}, {"name": "StatefulPartitionedCall/model/depthwise_conv2d_37/depthwise/ReadVariableOp", "shape": [5, 5, 288, 1], "dtype": "float32", "quantization": {"min": -0.8266635314145113, "scale": 2.8364793144884414e-05, "dtype": "uint16"}}, {"name": "StatefulPartitionedCall/model/depthwise_conv2d_38/depthwise/ReadVariableOp", "shape": [5, 5, 288, 1], "dtype": "float32", "quantization": {"min": -0.8310458062724116, "scale": 2.8506356336308843e-05, "dtype": "uint16"}}, {"name": "StatefulPartitionedCall/model/depthwise_conv2d_39/depthwise/ReadVariableOp", "shape": [5, 5, 288, 1], "dtype": "float32", "quantization": {"min": -0.9296768604085602, "scale": 2.9892185473411153e-05, "dtype": "uint16"}}, {"name": "StatefulPartitionedCall/model/depthwise_conv2d_4/depthwise/ReadVariableOp", "shape": [5, 5, 48, 1], "dtype": "float32", "quantization": {"min": -0.7817389741645685, "scale": 2.331322241931792e-05, "dtype": "uint16"}}, {"name": "StatefulPartitionedCall/model/depthwise_conv2d_40/depthwise/ReadVariableOp", "shape": [5, 5, 288, 1], "dtype": "float32", "quantization": {"min": -0.9746027587834746, "scale": 3.008590352483406e-05, "dtype": "uint16"}}, {"name": "StatefulPartitionedCall/model/depthwise_conv2d_41/depthwise/ReadVariableOp", "shape": [5, 5, 288, 1], "dtype": "float32", "quantization": {"min": -1.0713067206454567, "scale": 3.618057145037003e-05, "dtype": "uint16"}}, {"name": "StatefulPartitionedCall/model/depthwise_conv2d_42/depthwise/ReadVariableOp", "shape": [5, 5, 288, 1], "dtype": "float32", "quantization": {"min": -0.9975625426179713, "scale": 3.0793719481956206e-05, "dtype": "uint16"}}, {"name": "StatefulPartitionedCall/model/depthwise_conv2d_5/depthwise/ReadVariableOp", "shape": [5, 5, 48, 1], "dtype": "float32", "quantization": {"min": -0.6694262548161288, "scale": 1.862673571374075e-05, "dtype": "uint16"}}, {"name": "StatefulPartitionedCall/model/depthwise_conv2d_6/depthwise/ReadVariableOp", "shape": [5, 5, 96, 1], "dtype": "float32", "quantization": {"min": -0.9770468249313343, "scale": 2.9832579919127183e-05, "dtype": "uint16"}}, {"name": "StatefulPartitionedCall/model/depthwise_conv2d_7/depthwise/ReadVariableOp", "shape": [5, 5, 96, 1], "dtype": "float32", "quantization": {"min": -0.6596614940966659, "scale": 2.1107816910811017e-05, "dtype": "uint16"}}, {"name": "StatefulPartitionedCall/model/depthwise_conv2d_8/depthwise/ReadVariableOp", "shape": [5, 5, 96, 1], "dtype": "float32", "quantization": {"min": -0.6406198664716374, "scale": 2.1539957179369804e-05, "dtype": "uint16"}}, {"name": "StatefulPartitionedCall/model/depthwise_conv2d_9/depthwise/ReadVariableOp", "shape": [5, 5, 96, 1], "dtype": "float32", "quantization": {"min": -0.8427681475070573, "scale": 2.3976334210727092e-05, "dtype": "uint16"}}]}]}